rl_models/agent_1_B2_AGGRESSIVE_TRADER.pt (torch, 68433 bytes, 18 tensors)

fc1.weight f4 [64, 8]
0	0x3e020681	0.12697794
1	0x3e82a41f	0.2551584
2	0xbe4a3ae4	-0.19749027
3	0xbe42e314	-0.19031936
4	0xbdf45a77	-0.11931317
5	0x3ddc976e	0.107710704
6	0xbe94c14b	-0.2905372
7	0x3d2d2f6d	0.042281557
8	0x3d94ac0b	0.07259377
9	0xbd86fed6	-0.06591575
10	0xbdbd7aa2	-0.09251906
11	0xbd770def	-0.060316022
12	0x3e2ece21	0.1707082
13	0x3e836dd1	0.2566972
14	0xbd42570e	-0.047446303
15	0x3ebc1c90	0.3674054
16	0xbe644c9b	-0.22294848
17	0x3d29161d	0.041280854
18	0xbe2a2fa7	-0.1661974
19	0xbe6503eb	-0.22364776
20	0x3d946b22	0.072469965
21	0xbc0951d9	-0.00838133
22	0xbe7247ef	-0.23660253
23	0x3e5a6097	0.21325909
24	0x3ca6503e	0.020301934
25	0x3e8d74c6	0.27628154
26	0x3ecca809	0.3997195
27	0xbda573b3	-0.080787085
28	0xbe51090b	-0.20413606
29	0x3e0ed75a	0.13949338
30	0xbd284f3f	-0.0410912
31	0x3e69c1df	0.22827862
32	0x3e0abbd8	0.13548219
33	0x3e1b0d5d	0.15141816
34	0x3e3c1876	0.18368706
35	0xbcc48c9e	-0.023992833
36	0x3eada688	0.33916116
37	0xbdee2c2d	-0.116295196
38	0x3d1cfc24	0.038326398
39	0x3da46d5f	0.080286734
40	0x3e8cb71c	0.2748345
41	0x3d7ed3c4	0.062213674
42	0x3d8e72b7	0.06955474
43	0x3e6d8cca	0.23198238
44	0xbd2ea152	-0.042634316
45	0xbd87a349	-0.06622941
46	0x3e8dc1e0	0.27686977
47	0x3e3a4b8d	0.18192883
48	0x3c3b4a32	0.011431264
49	0xbe8d5786	-0.27605838
50	0xbe8b4a94	-0.27205336
51	0x3dc66029	0.0968631
52	0xbcb2b08b	-0.021812698
53	0xbe5c4cd1	-0.21513678
54	0x3da94399	0.08264846
55	0xbe80e104	-0.25171673
56	0xbe50d932	-0.20395353
57	0x3d81e433	0.06342354
58	0x3cee4e7a	0.029090155
59	0x3e1385f7	0.14406572
60	0x3ea2919d	0.3175172
61	0x3e7f82a3	0.24952178
62	0x3d8c718b	0.06857594
63	0xbd0062ec	-0.03134434
64	0x3e174493	0.14772253
65	0x3d751cbb	0.059841853
66	0x3eaa7bfb	0.33297715
67	0x3dde73b1	0.1086191
68	0x3db4cda8	0.08828288
69	0x3e8b0f9d	0.2716035
70	0xbe4a0301	-0.19727708
71	0xbe3a2ac5	-0.18180378
72	0x3d84efea	0.064910725
73	0xbd959e2f	-0.07305562
74	0xbe730ff1	-0.2373655
75	0x3e24ee42	0.16106513
76	0x3dd321eb	0.10309204
77	0xbd49616d	-0.049165178
78	0x3ea7600b	0.32690462
79	0xbd9dce5f	-0.07705378
80	0x3dbdfc1d	0.092766024
81	0xbe2ba561	-0.16762306
82	0xbc8ccd59	-0.017187761
83	0xbe8571bb	-0.26063332
84	0xbe803104	-0.25037396
85	0xbde426fd	-0.11140249
86	0xbe1d458e	-0.15358564
87	0x3e901c3d	0.28146544
88	0x3e38d5c4	0.18050295
89	0x3c6dc28b	0.014511715
90	0xbe0a4716	-0.1350368
91	0xbe6e6ca8	-0.23283637
92	0xbe8ac5c8	-0.2710402
93	0x3de40154	0.11133066
94	0xbe5355a8	-0.20638144
95	0x3e92081e	0.28521818
96	0xbe362074	-0.17785817
97	0xbe52869c	-0.20559162
98	0xbd96f70d	-0.0737134
99	0x3d6c9e6f	0.05776828
100	0xbe11c7c0	-0.14236355
101	0xbe211430	-0.15730357
102	0xbe389483	-0.18025403
103	0x3c8e5c83	0.017378097
104	0x3ea5d8a4	0.32391846
105	0x3ea74b12	0.32674462
106	0x3df55fad	0.11981139
107	0x3eb0f909	0.34565
108	0x3e0a355c	0.13496917
109	0x3eb833c3	0.3597699
110	0x3e741732	0.23836973
111	0x3c092eb9	0.008372956
112	0xbd4947cf	-0.049140748
113	0x3e7e3a14	0.24826843
114	0xbe220221	-0.15821125
115	0x3e365f5a	0.17809811
116	0xbdb6195b	-0.08891555
117	0x3d0862b2	0.03329725
118	0xbe9aeeab	-0.30260214
119	0xbd8008dc	-0.0625169
120	0x3d8c7567	0.0685833
121	0x3e61e30b	0.22059266
122	0x3e1eaa21	0.15494587
123	0xbd91a623	-0.07111766
124	0x3e35cd47	0.17754088
125	0xbc86b06e	-0.01644155
126	0xbe67792c	-0.22604817
127	0x3c6b5773	0.014364111
128	0x3e1ed0ac	0.1550929
129	0x3d878490	0.06617081
130	0xbda6c798	-0.08143538
131	0xbe66d7de	-0.22543284
132	0xbdbef685	-0.093243636
133	0xbd8576de	-0.06516813
134	0xbdc2055a	-0.09473677
135	0xbdfbae60	-0.12289119
136	0x3dde92e0	0.10867858
137	0xbd843d8f	-0.06457054
138	0x3ebda7e8	0.37042165
139	0xbe3d3b8d	-0.18479748
140	0x3e5936dd	0.21212335
141	0x3eaf9959	0.34296682
142	0x3d10dd0e	0.035367064
143	0xbcb49952	-0.022045765
144	0x3e33d6b6	0.17562374
145	0xbd0a3564	-0.033742324
146	0xbe1a6391	-0.15077044
147	0x3e8da8be	0.27667803
148	0x3a402c0f	0.0007330784
149	0x3e8a919f	0.27064225
150	0x3df40280	0.11914539
151	0xbe240716	-0.16018328
152	0x3ddb199d	0.10698245
153	0x3d90301d	0.07040427
154	0xbe16ee7b	-0.1473941
155	0xbe773f33	-0.24145202
156	0x3e2c65b6	0.16835675
157	0xbe43458e	-0.19069502
158	0xbd227e72	-0.03967137
159	0x3d3b93cf	0.045795258
160	0x3c4ac394	0.012375731
161	0xbe7d234c	-0.24720496
162	0x3e26fbb8	0.1630696
163	0x3dedfbab	0.116202675
164	0x3e21cc6b	0.15800636
165	0x3c8e5a32	0.017376993
166	0xbe380e8b	-0.17974298
167	0x3e757ef4	0.2397421
168	0xbd8aaa00	-0.06770706
169	0xbe54013a	-0.20703593
170	0xbe149179	-0.14508618
171	0xbdf7683e	-0.120804295
172	0xbe80137e	-0.2501487
173	0x3e7acfb3	0.24493293
174	0x3ddd4ee5	0.108060636
175	0x3d3a023a	0.04541228
176	0x3e02a632	0.12758711
177	0xbda8c55a	-0.08240767
178	0xbe869fb4	-0.2629372
179	0xbe0ec250	-0.13941312
180	0x3e5ef3c9	0.21772684
181	0xbe91b639	-0.28459337
182	0x3e33af81	0.17547418
183	0x3e6476ab	0.22310893
184	0x3e71ea81	0.23624612
185	0x3dc233c2	0.09482528
186	0xbe763608	-0.24044049
187	0xbe874b88	-0.26424813
188	0xbdc38d11	-0.09548391
189	0xbe2230f7	-0.15838991
190	0x3def1777	0.116743974
191	0xbe312695	-0.17299874
192	0xbd4ecff5	-0.050491292
193	0xbe76e89f	-0.24112175
194	0x3d8b3655	0.067974724
195	0x3c81b4db	0.015833309
196	0xbe02a0e5	-0.12756689
197	0xbe646bb9	-0.22306718
198	0xbddcc982	-0.10780622
199	0xbe7c2b5b	-0.24625914
200	0xbe368eed	-0.1782796
201	0x3e4d7be4	0.20066792
202	0xbdae838e	-0.08521186
203	0x3da514d2	0.08060612
204	0x3e83acec	0.25717866
205	0x3e25a4e6	0.16176185
206	0x3e998591	0.29984716
207	0xbe2b372b	-0.16720264
208	0xbe375221	-0.17902423
209	0xbe8a9417	-0.2706611
210	0x3e4670b7	0.19378935
211	0x3e417ff9	0.18896474
212	0x3de0bd83	0.109736465
213	0xbe3ac75a	-0.18240109
214	0x3dca7517	0.09885614
215	0x3e951e79	0.2912481
216	0xbe14df06	-0.14538202
217	0x3df86af3	0.12129774
218	0x3e4ad5db	0.19808142
219	0x3cf80bda	0.030279089
220	0x3e10fe45	0.14159496
221	0x3e62be71	0.2214296
222	0x3e99a800	0.30010986
223	0xbde9bc6a	-0.1141289
224	0xbe191fc1	-0.1495352
225	0xbda080bd	-0.07837055
226	0x3cc7af9a	0.024375726
227	0x3c2c379f	0.010511308
228	0xbdc13b31	-0.09435118
229	0xbe8fbeb3	-0.2807518
230	0x3e8c07bb	0.27349648
231	0xbe82a03a	-0.25512868
232	0xbd94bc82	-0.072625175
233	0xbd855384	-0.0651007
234	0x3dbac1ee	0.091190204
235	0x3e9a99eb	0.30195555
236	0x3dd95081	0.10611058
237	0x3ea73a69	0.3266175
238	0x3e54e001	0.20788576
239	0x3d9232eb	0.07138618
240	0x3e88bc9f	0.26706406
241	0x3e0eaa72	0.13932207
242	0xbd031531	-0.03200263
243	0xbe13a70a	-0.14419189
244	0x3e1ece86	0.1550847
245	0x3dab172f	0.08354031
246	0x3eb7c0e4	0.3588935
247	0x3dd4ac05	0.103843726
248	0x3df27b7b	0.11839958
249	0xbe221dd2	-0.15831688
250	0x3ebde19c	0.3708619
251	0x3e979f2b	0.29613623
252	0x3cf55ec8	0.029952422
253	0x3e908c1c	0.28231895
254	0x3e37bc01	0.17942812
255	0x3b9a2dcc	0.0047051664

fc1.bias f4 [64]
0	0xbbfee9fe	-0.007779359
1	0x3de5e6cf	0.11225664
2	0x00000000	0.0
3	0x3df69779	0.1204061
4	0x3d9d3f7d	0.07678125
5	0x3d9ef283	0.07761099
6	0x00000000	0.0
7	0x3d59ecbd	0.053204287
8	0x3d6399dd	0.055566657
9	0x3d356c03	0.04429246
10	0x00000000	0.0
11	0x3c1f7d2f	0.009734436
12	0x00000000	0.0
13	0x3db128d8	0.086503685
14	0xbc938ddb	-0.018011978
15	0xbcec345f	-0.028833566
16	0x00000000	0.0
17	0x3db938e4	0.09044054
18	0x3daf6875	0.085648455
19	0x00000000	0.0
20	0x3cfd97fa	0.030956257
21	0x00000000	0.0
22	0xbc8b2394	-0.016984738
23	0x00000000	0.0
24	0x00000000	0.0
25	0x3d6b23aa	0.05740706
26	0x3d22a687	0.039709594
27	0x3d0ef389	0.034900222
28	0x00000000	0.0
29	0x3d9d7b35	0.076895155
30	0x3d8f5662	0.06998898
31	0x3da89ba9	0.08232815
32	0x3d94502c	0.07241854
33	0x3d96dc4d	0.07366238
34	0x3d0d138d	0.034442473
35	0x00000000	0.0
36	0x3d841e04	0.064510375
37	0x00000000	0.0
38	0x00000000	0.0
39	0x00000000	0.0
40	0xbc5a7e02	-0.013335707
41	0x00000000	0.0
42	0x00000000	0.0
43	0x3db219c3	0.0869632
44	0x3d1a5170	0.03767532
45	0x3a8c54ce	0.0010706426
46	0x3d951843	0.07280018
47	0x3d7d426a	0.061830916
48	0x00000000	0.0
49	0x3cc0530d	0.023477102
50	0x00000000	0.0
51	0x3db58140	0.08862543
52	0xbd01f729	-0.03172985
53	0x3d9daec9	0.07699353
54	0x3db60f8c	0.08889684
55	0x3d4f8035	0.050659377
56	0xbc2606cb	-0.0101334555
57	0x00000000	0.0
58	0x3d9f1edb	0.07769557
59	0xbd11e421	-0.03561795
60	0x3d5d4091	0.054016653
61	0x3db1096c	0.08644375
62	0x3b9e8d8c	0.004838651
63	0xbb9c946e	-0.0047784364

fc2.weight f4 [64, 64]
0	0x3df9e1d1	0.12201274
1	0xbde547a4	-0.11195305
2	0xbde69ddb	-0.11260577
3	0xbe5bab6b	-0.2145211
4	0x3e2079cd	0.15671463
5	0x3e27be9f	0.1638131
6	0xbe334d6a	-0.1751
7	0x3e396030	0.18103099
8	0x3e4ab91b	0.19797175
9	0xbe4ac43b	-0.19801418
10	0x3d0c9f1b	0.034331422
11	0x3e534a91	0.20633914
12	0xbd25f781	-0.04051924
13	0xbd15d235	-0.036577422
14	0x3bd0c9ca	0.0063717114
15	0x3db113bc	0.08646342
16	0x3e4a644a	0.1976482
17	0xbe3aeb86	-0.18253908
18	0x3ccec16a	0.025238711
19	0x3e2edd6f	0.17076658
20	0xbc6cd28a	-0.014454493
21	0x3e1df81e	0.1542668
22	0xbe1f5990	-0.15561509
23	0xbd4d6b64	-0.050151244
24	0x3db5e71b	0.088819705
25	0xbdd65982	-0.10466291
26	0xbe2fd8b9	-0.17172517
27	0xbd2270a5	-0.039658207
28	0x3e2b7b4f	0.16746257
29	0xbe3353b0	-0.17512393
30	0x3e4c74f5	0.1996649
31	0xbe25ea69	-0.16202702
32	0xbcf52520	-0.02992493
33	0xbd61ee05	-0.055158634
34	0xbe4a8364	-0.19776684
35	0x3be8c95f	0.0071040834
36	0xbcefdefe	-0.029281136
37	0x3d39e5bf	0.04538512
38	0xbd389be6	-0.04507055
39	0x3dc3896e	0.09547697
40	0xbe4dc172	-0.20093325
41	0xbdb1a41e	-0.08673881
42	0xbd1e4fa9	-0.03865019
43	0xbd13b8ec	-0.036065027
44	0xbda2f8e5	-0.07957629
45	0x3c985adc	0.018598013
46	0x3d0f02a8	0.034914643
47	0xbd2640ed	-0.04058926
48	0xbc1b2abf	-0.009470641
49	0xbd853a19	-0.06505222
50	0x3e02fbe3	0.127914
51	0xbe5c6e96	-0.2152656
52	0xbe3d868a	-0.18508354
53	0xbe2ca8a1	-0.16861202
54	0xbd1b286b	-0.037880342
55	0x3d845abe	0.0646262
56	0xbc806d92	-0.015677247
57	0x3e1bdec3	0.15221696
58	0xbd855618	-0.06510562
59	0xbe038938	-0.12845314
60	0x3d21554b	0.039387982
61	0xbe1d9c39	-0.15391625
62	0xbd98e90d	-0.07466326
63	0x3d25fcb3	0.040524196
64	0xbd9a4608	-0.07532889
65	0x3e80ecf4	0.2518078
66	0x3de822eb	0.11334785
67	0xbdf35219	-0.11880893
68	0x3dc765da	0.097362235
69	0x3e2a9f77	0.16662394
70	0xbe3a5400	-0.18196106
71	0x3d82f0f2	0.06393613
72	0x3e8bb46b	0.27286085
73	0x3e4d2b81	0.20036127
74	0xbd4d41f5	-0.05011173
75	0x3d2cf2e7	0.042223837
76	0xbda65b8b	-0.08122929
77	0x3cb9e5f8	0.022692665
78	0x3e017614	0.126427
79	0x3def63e8	0.116889775
80	0x3d030052	0.031982727
81	0x3e6c12a0	0.2305398
82	0x3e79bfdd	0.24389596
83	0xbd2baa67	-0.041910555
84	0xbe0c6925	-0.13711984
85	0x3b19d5a3	0.0023473285
86	0xbe2a207e	-0.16613957
87	0xbe4947cb	-0.19656293
88	0xbd4c004f	-0.04980498
89	0x3d2b53af	0.041827854
90	0xbc1876f5	-0.009305705
91	0xbda57040	-0.080780506
92	0xbe330b1e	-0.1748471
93	0xbe0095d6	-0.12557158
94	0x3e4037ed	0.18771334
95	0x3e8323b1	0.25613168
96	0xbc541277	-0.0129438555
97	0x3e6c4570	0.23073363
98	0xbdd752c4	-0.10513833
99	0x3d876e65	0.06612853
100	0x3e36f2f3	0.17866115
101	0xbd10459a	-0.035222627
102	0x3e12473b	0.14284985
103	0xbe004eba	-0.12530032
104	0xbde47b62	-0.11156346
105	0xbc80a1b2	-0.015702102
106	0xbe210d53	-0.15727739
107	0x3e76b7b7	0.24093519
108	0xbdafb531	-0.085794814
109	0xbd8ee8a4	-0.069779664
110	0x3df700f2	0.12060727
111	0x3dcc2972	0.099688426
112	0xbe588ac0	-0.21146679
113	0xbd42827d	-0.047487725
114	0x3bdc08ac	0.006714901
115	0xbdf1f2b9	-0.11813874
116	0xbe09be53	-0.13451509
117	0xbc102a8c	-0.008799206
118	0x3e8b61ad	0.27222958
119	0xbc8af8a8	-0.016964272
120	0xbe4d6963	-0.20059733
121	0x3d1aa08f	0.037750777
122	0xbe0239a3	-0.12717299
123	0xbe1e9325	-0.15485819
124	0x3e4ff939	0.20309915
125	0xbe0b3231	-0.13593365
126	0x3e6e80e0	0.2329135
127	0xbe03d006	-0.12872323
128	0xbdbf37f7	-0.09336846
129	0xbe14c3da	-0.14527836
130	0xbe4c956b	-0.19978873
131	0x3e06810b	0.13135163
132	0xbe7a4c15	-0.24443085
133	0x3c153999	0.009107971
134	0xbe0c3250	-0.13691068
135	0xbe061db9	-0.13097276
136	0x3d785394	0.06062658
137	0xbe45d989	-0.19321264
138	0x3dd028b9	0.10164017
139	0x3db1f092	0.08688463
140	0xbd8bcf0f	-0.06826603
141	0xbda98d85	-0.08278946
142	0x3df4a35c	0.11945221
143	0x3d8e534a	0.0694948
144	0xbe15a71c	-0.14614528
145	0xbe370c5b	-0.17875807
146	0x3e368740	0.17825031
147	0xbd969f5c	-0.07354614
148	0xbe0504e4	-0.12990147
149	0xbe5c22d8	-0.21497667
150	0xbd5b03b6	-0.053470336
151	0x3d682974	0.056680158
152	0xbe37603f	-0.17907809
153	0x3e0e90d1	0.1392243
154	0xbba5670f	-0.005047686
155	0x3d7296f7	0.059226003
156	0x3e351fe1	0.17687942
157	0x3dfde153	0.12396493
158	0xbe61451c	-0.2199902
159	0x3d5e2553	0.054234814
160	0x3c15a781	0.009134174
161	0xbd1987b5	-0.037482936
162	0x3e14e0c4	0.14538866
163	0x3e4c0f17	0.19927631
164	0x3e0a5d15	0.1351207
165	0xbd5df37e	-0.05418729
166	0xbc8ee087	-0.017441047
167	0x3df5181c	0.11967489
168	0xbe5bcee4	-0.21465641
169	0x3d65ff02	0.056151398
170	0x3de84e7a	0.11343093
171	0xbdec7eb0	-0.11547601
172	0x3d3625b9	0.04446957
173	0xbdf17bbc	-0.117911786
174	0xbdedbfec	-0.11608872
175	0xbdeba292	-0.11505617
176	0x3d40ce09	0.04707149
177	0x3e253403	0.16133122
178	0xbd824d22	-0.06362368
179	0x3e14d8f3	0.14535885
180	0xbde6e640	-0.112743855
181	0xbd8bfebf	-0.06835698
182	0xbdb2246c	-0.08698353
183	0x3e1a27ad	0.15054198
184	0xbe065e9d	-0.1312203
185	0x3d891eb4	0.06695309
186	0x3d872c54	0.06600252
187	0xbe14fa3f	-0.14548586
188	0xbe4536ea	-0.1925923
189	0xbd285710	-0.041098654
190	0x3d9ed141	0.07754756
191	0xbe63077a	-0.22170821
192	0x3e4fa988	0.20279515
193	0x3dc54e4c	0.096340746
194	0x3daa9810	0.08329785
195	0x3c3c9549	0.011510202
196	0x3e1cf9f7	0.15329729
197	0xbd9e3344	-0.07724622
198	0x3d50aa73	0.050943803
199	0x3e51357d	0.2043056
200	0x3e58a79e	0.21157691
201	0x3d31759c	0.04332505
202	0x3da6d1ee	0.0814551
203	0xbe40349b	-0.18770067
204	0x3c9d6c62	0.01921672
205	0x3dcaef8a	0.0990897
206	0xbe37584d	-0.17904778
207	0xbd5e8f43	-0.054335844
208	0xbe02c3e6	-0.12770042
209	0x3b682230	0.0035420768
210	0x3d20a3a9	0.03921858
211	0xbe1fcdcd	-0.1560585
212	0x3d57b917	0.05266675
213	0xbd632db8	-0.055463523
214	0xbe5ff721	-0.21871616
215	0x3dd9c349	0.10632951
216	0xbe552290	-0.20813966
217	0x3e227f9c	0.15868992
218	0xbde8263a	-0.11335416
219	0xbe2f7d87	-0.17137729
220	0x3e4b6d63	0.19865946
221	0x3dab0f35	0.0835251
222	0x3da24b5c	0.0792453
223	0xbe12e564	-0.14345318
224	0xbdf01776	-0.11723225
225	0xbc5afb61	-0.013365597
226	0x3db7236b	0.08942302
227	0xbe0b30d8	-0.13592851
228	0x3d9ee936	0.07759325
229	0x3b93e93a	0.0045138868
230	0xbd389abc	-0.04506944
231	0xbe29407b	-0.16528504
232	0x3da745ed	0.08167634
233	0x3e21f3ab	0.15815608
234	0x3e154c6c	0.14579934
235	0x3d8c7658	0.0685851
236	0xbe675259	-0.22590007
237	0xbcb826d1	-0.022479447
238	0xbe1730e1	-0.1476474
239	0x3e2ce6a5	0.16884859
240	0xbdc281dd	-0.09497426
241	0x3b8d3bbc	0.0043100994
242	0xbd6790e6	-0.05653467
243	0x3cd5b646	0.026087891
244	0xbe30c160	-0.17261267
245	0xbda65d78	-0.081232965
246	0x3e4f5952	0.20248917
247	0xbd8fd4b0	-0.07022989
248	0xbdda0b3d	-0.10646675
249	0xbddac7f6	-0.10682671
250	0xbe125009	-0.14288343
251	0xbd9b6e6b	-0.0758942
252	0x3d94c406	0.07263951
253	0x3da2b332	0.07944335
254	0x3de36c46	0.11104636
255	0xbe17eb3c	-0.14835829

fc2.bias f4 [64]
0	0x00000000	0.0
1	0x3d6fc99c	0.05854188
2	0xbd0ea652	-0.034826584
3	0xbbc5e113	-0.006038794
4	0x3d95084c	0.07276973
5	0xbcd88294	-0.026429452
6	0xbd07eead	-0.033186603
7	0xbce2d56f	-0.027689664
8	0x3d6d5426	0.05794158
9	0x3d8a2f19	0.067472644
10	0x3d5ef340	0.0544312
11	0x3d89e0f1	0.06732357
12	0x3d8491c3	0.06473114
13	0x3d895d31	0.06707228
14	0x3da215c7	0.0791431
15	0xbbfa0ff7	-0.0076312977
16	0x3d89d03c	0.06729171
17	0x3cf8e5e5	0.03038306
18	0x00000000	0.0
19	0x3db4c6a9	0.08826954
20	0xbcf7811b	-0.03021293
21	0xbcca7235	-0.024712661
22	0xbba7a496	-0.0051160557
23	0x3d896018	0.067077816
24	0x00000000	0.0
25	0x3d879624	0.06620434
26	0x3d7ba193	0.061433386
27	0x3d3832ac	0.0449702
28	0xbd083cc2	-0.03326107
29	0x3da3c28b	0.079960905
30	0x00000000	0.0
31	0xbcce864b	-0.02521052
32	0x00000000	0.0
33	0xbc55bbe3	-0.013045284
34	0xbc841174	-0.016121604
35	0xbc20e66d	-0.009820563
36	0xbc7099d2	-0.014685111
37	0x3d7792f0	0.060442865
38	0x3d866f13	0.065641545
39	0x3da7f077	0.08200162
40	0x00000000	0.0
41	0xbc9cb1cb	-0.019127747
42	0xbc934424	-0.017976828
43	0x00000000	0.0
44	0x00000000	0.0
45	0x00000000	0.0
46	0x3d6b6618	0.05747041
47	0xbc42be88	-0.0118862465
48	0x3d5e24be	0.05423426
49	0x3d84eec2	0.06490852
50	0xbd0d2660	-0.034460425
51	0x3d9a88ee	0.075456485
52	0xbcc7e4b0	-0.024401039
53	0xbcb412ef	-0.021981684
54	0xbd0091ff	-0.031389233
55	0xbc645c5d	-0.013938037
56	0xbd016f4a	-0.031600274
57	0x00000000	0.0
58	0x3d8bc179	0.06824011
59	0x00000000	0.0
60	0x3da120dd	0.07867596
61	0x00000000	0.0
62	0x00000000	0.0
63	0x00000000	0.0

fc3.weight f4 [4, 64]
0	0xbe4dcac3	-0.20096879
1	0x3e226034	0.15857011
2	0x3e0d36f7	0.13790499
3	0xbe8ffc66	-0.28122252
4	0xbe9ef9f3	-0.3105007
5	0x3db8251f	0.08991455
6	0x3e719717	0.23592792
7	0xbe08adb7	-0.13347517
8	0x3e13eb82	0.14445308
9	0xbe269f9b	-0.16271822
10	0x3e1e9c3b	0.15489285
11	0x3e1253f1	0.14289834
12	0x3e5b2210	0.21399713
13	0x3c03513b	0.008014972
14	0xbeb5a756	-0.3547923
15	0x3e59bb27	0.21262799
16	0xbea73f2b	-0.3266538
17	0x3e525af3	0.20542507
18	0xbe79dc81	-0.24400522
19	0xbe97a247	-0.29615995
20	0xbd88c688	-0.06678492
21	0xbcd3729f	-0.025811492
22	0x3d46608c	0.048431918
23	0x3e685d18	0.22691762
24	0xbdbfb141	-0.093599804
25	0x3e29c843	0.165803
26	0xbd8a1cd5	-0.067437805
27	0xbe3a35df	-0.18184613
28	0x3d8c6014	0.06854263
29	0xbe97ecce	-0.29672855
30	0x3e42e17a	0.19031325
31	0xbdaa2ef2	-0.08309735
32	0xbdee504f	-0.116364114
33	0xbdea5ee6	-0.11443882
34	0x3e720eff	0.23638533
35	0xbdcd2dcd	-0.100185014
36	0x3cda62bb	0.026658406
37	0x3e1ea688	0.15493214
38	0x3d077624	0.033071652
39	0xbec8bff9	-0.39208964
40	0x3d489661	0.048971538
41	0xbce15ad4	-0.02750913
42	0x3e392d0c	0.1808359
43	0x3e385e4e	0.18004724
44	0xbe239302	-0.15974048
45	0x3e5ab862	0.21359399
46	0x3c6ff360	0.014645427
47	0x3e48c9d6	0.19608244
48	0x3e4be599	0.19911803
49	0x3d7a0000	0.061035156
50	0xbcba1d3b	-0.022719016
51	0x3c938509	0.018007772
52	0xbe8141a5	-0.25245395
53	0xbe73f217	-0.23822819
54	0x3df63ced	0.120233394
55	0x3ceefd1f	0.029173432
56	0xbe3b20eb	-0.18274276
57	0x3bf54831	0.0074854125
58	0xbe941228	-0.28920102
59	0x3e4ea8a2	0.20181516
60	0xbe165445	-0.14680584
61	0x3e28a7b1	0.16470219
62	0xbde5613c	-0.112001866
63	0x3e7bd309	0.24592222
64	0x3dc20e43	0.094753765
65	0x3e6030ff	0.2189369
66	0xbd561d07	-0.052273776
67	0x3e1d4ddc	0.15361732
68	0x3dc60d41	0.09670497
69	0x3dc077c6	0.09397845
70	0xbc398cc4	-0.011325065
71	0xbde6e272	-0.1127366
72	0x3d1d9163	0.03846873
73	0x3e250440	0.16114902
74	0xbe97d1fc	-0.29652393
75	0x3e486836	0.19571003
76	0x3e07d59d	0.13265081
77	0xbdc83029	-0.09774811
78	0xbd239199	-0.039933775
79	0x3d8a474e	0.067518815
80	0x3e254218	0.16138494
81	0xbe1f3df7	-0.15550981
82	0xbcbea011	-0.023269685
83	0xbc612937	-0.013742737
84	0xbe227ed6	-0.15868697
85	0x3e41421b	0.18872873
86	0x3c8a601a	0.016891528
87	0xbde25fc4	-0.11053422
88	0xbdc1fb40	-0.0947175
89	0x3ccdcef2	0.025123093
90	0xbe6f7899	-0.23385848
91	0xbe818c97	-0.25302574
92	0xbe2206e8	-0.15822947
93	0xbe71d12b	-0.23614947
94	0x3e35e8ac	0.17764539
95	0xbb139426	-0.0022518723
96	0x3d4ddb12	0.05025775
97	0x3e8bef2a	0.27330905
98	0xbdae3d87	-0.08507829
99	0x3dcd8e7c	0.10036942
100	0x3e7cb5ee	0.24678776
101	0xbe67952e	-0.22615501
102	0xbe231243	-0.15924935
103	0x3d1aa587	0.037755515
104	0x3e6daa81	0.23209573
105	0x3e8abc6e	0.27096885
106	0xbe341c4b	-0.17588918
107	0x3e83e8d8	0.25763583
108	0x3e80f361	0.25185683
109	0xbd579038	-0.052627772
110	0xbe85b8db	-0.26117596
111	0x3e6918c0	0.22763348
112	0xbe911f20	-0.2834406
113	0xbde41013	-0.111358784
114	0x3dbfbf23	0.09362628
115	0xbd23ec82	-0.040020473
116	0xbdc195f6	-0.09452431
117	0x3d941a69	0.072316
118	0x3e800574	0.2500416
119	0x3dbb89a4	0.09157112
120	0x3e1bd278	0.15217006
121	0xbe3fd9f6	-0.18735489
122	0xbdabea2a	-0.083942726
123	0x3e2de247	0.16980849
124	0x3d117a26	0.03551688
125	0x3d29b5b2	0.041433044
126	0x3d176d8a	0.0369697
127	0xbe29c569	-0.16579212
128	0x3e02ea32	0.12784651
129	0x3e8a0e5c	0.2696408
130	0x3dec6e62	0.11544491
131	0x3c488991	0.01223983
132	0x3eb20677	0.34770557
133	0xbd51156f	-0.05104583
134	0x3ba157b2	0.004923784
135	0xbe89f04c	-0.26941144
136	0x3ebd5ba8	0.3698399
137	0x3e96acad	0.29428616
138	0x3e729446	0.23689374
139	0x3eaf7b46	0.34273738
140	0x3e9ff454	0.31241095
141	0x3dcf6cba	0.1012816
142	0x3d9e159e	0.07718967
143	0xbe2aae15	-0.1666797
144	0x3ea190dc	0.3155583
145	0x3e83aa1c	0.2571572
146	0x3c866398	0.016404912
147	0x3e035560	0.12825537
148	0xbe728ed0	-0.23687291
149	0xbcd06c3b	-0.025442233
150	0x3e407f6d	0.18798609
151	0x3e59832f	0.21241449
152	0x3d11552b	0.035481613
153	0x3ea739f4	0.32661402
154	0x3e8c8e4f	0.27452323
155	0x3ddacf79	0.106841035
156	0xbd85b6b1	-0.06528986
157	0xbc20046c	-0.009766679
158	0x3e572e79	0.21013822
159	0xbe70c530	-0.23512721
160	0xbe490a22	-0.19632772
161	0x3ce99f25	0.028518269
162	0xbe70b7ff	-0.23507689
163	0xbe7030a0	-0.23456049
164	0xbdb8b1b8	-0.09018272
165	0x3e9d1360	0.30678844
166	0x3eb7efdc	0.35925186
167	0x3e93329c	0.2874955
168	0x3e978414	0.29592955
169	0xbd4bcdd1	-0.04975683
170	0x3d24c5a4	0.040227547
171	0xbd1185d8	-0.035528034
172	0xbdb41e34	-0.08794823
173	0x3e573d7b	0.21019547
174	0x3e99465a	0.29936486
175	0xbe44dd95	-0.19225152
176	0x3e9bf7d0	0.30462503
177	0x3eb9bdf9	0.3627775
178	0xbe5b8ffb	-0.21441643
179	0x3e316bca	0.17326275
180	0xbe7c3bca	-0.24632183
181	0xbd10e4fa	-0.03537462
182	0x3d33f05d	0.0439304
183	0xbde2084d	-0.110367395
184	0xbe37e67a	-0.17959014
185	0x3d926211	0.07147611
186	0x3ec99b26	0.3937618
187	0x3e0f2b20	0.13981295
188	0x3e8e4819	0.2778938
189	0x3e266f94	0.16253501
190	0x3e76eea0	0.24114466
191	0x3ba0e5a5	0.0049101883
192	0xbdbb0380	-0.09131527
193	0xbda37161	-0.0798061
194	0x3e17747e	0.14790532
195	0x3d246ee3	0.040144812
196	0x3e59caa7	0.21268712
197	0xbd9d629f	-0.07684826
198	0xbe74f81a	-0.23922768
199	0x3e5b5538	0.21419227
200	0x3da8916e	0.082308635
201	0xbea3df0e	-0.32006115
202	0x3e26453e	0.16237351
203	0xbe5e56d4	-0.2171281
204	0x3e168916	0.14700732
205	0xbde06fc3	-0.10958817
206	0xbe2be358	-0.16785944
207	0x3db6716e	0.08908354
208	0xbe837dc2	-0.25681883
209	0x3e494e44	0.19658762
210	0x3d128d40	0.035779238
211	0xbd1f31c8	-0.038865834
212	0xbea42681	-0.32060626
213	0xbd9fc540	-0.07801294
214	0xbe189235	-0.14899524
215	0x3e3a7c22	0.18211415
216	0x3d9611de	0.07327627
217	0x3e035d4d	0.1282856
218	0x3e547fc8	0.2075187
219	0x3df10eef	0.117704265
220	0x3e4f4917	0.20242725
221	0xbe21f64a	-0.15816608
222	0xbdbfc58c	-0.09363851
223	0xbe218e73	-0.15776996
224	0xbe940915	-0.2891318
225	0x3e0aface	0.13572237
226	0x3e01ffc7	0.12695228
227	0xbd13d690	-0.036093295
228	0x3cef8827	0.029239727
229	0xbea016d2	-0.3126741
230	0xbe9e5bf1	-0.3092952
231	0xbd87f8a0	-0.06639218
232	0xbd404e8f	-0.04694992
233	0x3e44dbf4	0.1922453
234	0x3e7c368c	0.24630183
235	0x3e051047	0.1299449
236	0xbddcf67f	-0.10789203
237	0xbe4a0586	-0.1972867
238	0xbe88b5c0	-0.26701164
239	0x3b12abcb	0.0022380229
240	0xbdb6d6e7	-0.08927708
241	0xbeba514f	-0.3639016
242	0x3d44c97e	0.04804372
243	0xbd9dc805	-0.07704166
244	0xbd9da653	-0.076977395
245	0x3e3aa8ec	0.18228501
246	0x3c97983d	0.01850521
247	0x3e88a336	0.2668702
248	0x3d8ebe58	0.06969899
249	0xbe075566	-0.1321617
250	0xbe1f560a	-0.15560165
251	0x3de7e2cc	0.11322555
252	0x3e3247f7	0.17410265
253	0xbe89dc61	-0.26925948
254	0xbdf93f78	-0.12170309
255	0x3e26b94f	0.16281627

fc3.bias f4 [4]
0	0xbd86294d	-0.06550846
1	0xbd21c2eb	-0.03949253
2	0x3d80601a	0.0626833
3	0xbd653716	-0.055960737

exp_avg f4 [64, 8]
0	0x2a1c0300	1.3856624e-13
1	0x299002c9	6.395368e-14
2	0x00000000	0.0
3	0x2a7004a0	2.1317887e-13
4	0x29f004a0	1.06589433e-13
5	0x2a500408	1.847551e-13
6	0x2900027c	2.8423864e-14
7	0x29f004a0	1.06589433e-13
8	0xb90e341a	-0.00013561585
9	0xb82c3c04	-4.106389e-05
10	0xb7be8063	-2.270955e-05
11	0xb9814718	-0.00024657766
12	0xb8f295da	-0.00011567371
13	0xb93d9acb	-0.0001808211
14	0xb889e6c7	-6.575655e-05
15	0xb904ecf8	-0.00012676779
16	0x00000000	0.0
17	0x00000000	0.0
18	0x00000000	0.0
19	0x00000000	0.0
20	0x00000000	0.0
21	0x00000000	0.0
22	0x00000000	0.0
23	0x00000000	0.0
24	0xb91063c3	-0.00013770074
25	0xb826ae67	-3.973991e-05
26	0xb818cd9f	-3.6431124e-05
27	0xb9856aaf	-0.00025447222
28	0xb8f40fc2	-0.00011637762
29	0xb9408504	-0.00018360099
30	0xb894a0b5	-7.087124e-05
31	0xb90caefa	-0.00013416624
32	0xb8d878bb	-0.000103221704
33	0xb7f36c7d	-2.9018376e-05
34	0xb8088c40	-3.2555545e-05
35	0xb949ba1a	-0.00019238182
36	0xb8b5fb55	-8.677567e-05
37	0xb910507e	-0.00013762896
38	0xb865a675	-5.475288e-05
39	0xb8d79c05	-0.0001028106
40	0xb90d0eb9	-0.00013452292
41	0xb8288535	-4.017838e-05
42	0xb7ddecf4	-2.6455593e-05
43	0xb980d697	-0.00024573944
44	0xb8f069e7	-0.00011463818
45	0xb93c13a0	-0.00017936388
46	0xb88b331a	-6.637555e-05
47	0xb905147b	-0.00012691498
48	0x00000000	0.0
49	0x00000000	0.0
50	0x00000000	0.0
51	0x00000000	0.0
52	0x00000000	0.0
53	0x00000000	0.0
54	0x00000000	0.0
55	0x00000000	0.0
56	0xb85db236	-5.2856478e-05
57	0xb782598d	-1.5538908e-05
58	0xb749349c	-1.1992783e-05
59	0xb8cb9b65	-9.708739e-05
60	0xb83ba4fb	-4.4737924e-05
61	0xb893cc24	-7.0475304e-05
62	0xb7df3d09	-2.6612093e-05
63	0xb8554b77	-5.085344e-05
64	0xb880a2ae	-6.133817e-05
65	0xb79cb770	-1.8682069e-05
66	0xb71d857f	-9.389011e-06
67	0xb8e96754	-0.00011129552
68	0xb85b38b2	-5.226647e-05
69	0xb8ab8392	-8.178422e-05
70	0xb7f78f03	-2.951129e-05
71	0xb8700d33	-5.723275e-05
72	0xb8952572	-7.1118484e-05
73	0xb7bc37e5	-2.2437374e-05
74	0xb6c09b79	-5.7401453e-06
75	0xb9059191	-0.00012738096
76	0xb880fa70	-6.150163e-05
77	0xb8c6dc98	-9.4824645e-05
78	0xb8088d15	-3.255632e-05
79	0xb88538bd	-6.3525025e-05
80	0x00000000	0.0
81	0x00000000	0.0
82	0x00000000	0.0
83	0x00000000	0.0
84	0x00000000	0.0
85	0x00000000	0.0
86	0x00000000	0.0
87	0x00000000	0.0
88	0xb5255664	-6.1593005e-07
89	0xb48460c1	-2.4657314e-07
90	0x00000000	0.0
91	0xb584451d	-9.854881e-07
92	0xb484451d	-2.4637203e-07
93	0xb55c732f	-8.2124e-07
94	0xb4305c28	-1.6424804e-07
95	0xb504451d	-4.9274405e-07
96	0x00000000	0.0
97	0x00000000	0.0
98	0x00000000	0.0
99	0x00000000	0.0
100	0x00000000	0.0
101	0x00000000	0.0
102	0x00000000	0.0
103	0x00000000	0.0
104	0xb8e94576	-0.00011123244
105	0xb80bdf4c	-3.3348144e-05
106	0xb7af4349	-2.0892958e-05
107	0xb954ca8d	-0.00020293352
108	0xb8c6b4da	-9.475062e-05
109	0xb91b83a5	-0.00014830993
110	0xb8651ba2	-5.462359e-05
111	0xb8dbd18b	-0.00010481764
112	0xb81e0de3	-3.768307e-05
113	0xb7507bf3	-1.2426625e-05
114	0xb1958c36	-4.352411e-09
115	0xb88b6c07	-6.648158e-05
116	0xb80692df	-3.2084874e-05
117	0xb852bd2e	-5.024409e-05
118	0xb78835c1	-1.6237494e-05
119	0xb80c778c	-3.3489938e-05
120	0xb612bd28	-2.1865799e-06
121	0xb58c41c8	-1.0449958e-06
122	0x3592dddf	1.0942421e-06
123	0xb662cc4c	-3.379554e-06
124	0xb5e4a066	-1.7034006e-06
125	0xb643a6e0	-2.9154398e-06
126	0xb4f92b55	-4.6411392e-07
127	0xb5e1a692	-1.6812285e-06
128	0x00000000	0.0
129	0x00000000	0.0
130	0x00000000	0.0
131	0x00000000	0.0
132	0x00000000	0.0
133	0x00000000	0.0
134	0x00000000	0.0
135	0x00000000	0.0
136	0xb8c31c29	-9.30357e-05
137	0xb7eacbd7	-2.7989894e-05
138	0xb78c5fa4	-1.6733837e-05
139	0xb931c827	-0.00016954598
140	0xb8a60106	-7.9156875e-05
141	0xb90212c7	-0.00012404761
142	0xb83ed581	-4.549837e-05
143	0xb8b7d5c3	-8.765936e-05
144	0xb8338b05	-4.2806398e-05
145	0xb76452af	-1.360911e-05
146	0xb638a7f3	-2.7515896e-06
147	0xb8a05bea	-7.646515e-05
148	0xb81aad3b	-3.6877795e-05
149	0xb86f6406	-5.7075194e-05
150	0xb7a2a7a2	-1.9389965e-05
151	0xb8202049	-3.817704e-05
152	0x00000000	0.0
153	0x00000000	0.0
154	0x00000000	0.0
155	0x00000000	0.0
156	0x00000000	0.0
157	0x00000000	0.0
158	0x00000000	0.0
159	0x00000000	0.0
160	0xb8b217b8	-8.4921194e-05
161	0xb7c48279	-2.3425777e-05
162	0xb7fb3424	-2.9945812e-05
163	0xb926f54d	-0.00015922375
164	0xb8952c10	-7.113081e-05
165	0xb8ed74f5	-0.000113228256
166	0xb840eb4a	-4.5995497e-05
167	0xb8b40d79	-8.585578e-05
168	0x00000000	0.0
169	0x00000000	0.0
170	0x00000000	0.0
171	0x00000000	0.0
172	0x00000000	0.0
173	0x00000000	0.0
174	0x00000000	0.0
175	0x00000000	0.0
176	0xb0ec6291	-1.7199274e-09
177	0xb0010903	-4.6942733e-10
178	0x2c6b9205	3.3476566e-12
179	0xb156d541	-3.126232e-09
180	0xb0d6d541	-1.563116e-09
181	0xb11d9709	-2.293236e-09
182	0xb064f8e7	-8.329963e-10
183	0xb12120a4	-2.3447138e-09
184	0x00000000	0.0
185	0x00000000	0.0
186	0x00000000	0.0
187	0x00000000	0.0
188	0x00000000	0.0
189	0x00000000	0.0
190	0x00000000	0.0
191	0x00000000	0.0
192	0x00000000	0.0
193	0x00000000	0.0
194	0x00000000	0.0
195	0x00000000	0.0
196	0x00000000	0.0
197	0x00000000	0.0
198	0x00000000	0.0
199	0x00000000	0.0
200	0xb8659ef7	-5.4745902e-05
201	0xb790f65c	-1.7280858e-05
202	0xb68fc82b	-4.2850347e-06
203	0xb8cd9f74	-9.804862e-05
204	0xb8460e92	-4.722045e-05
205	0xb89914a5	-7.299454e-05
206	0xb7d22b3f	-2.5054089e-05
207	0xb84dc1ef	-4.9056423e-05
208	0xb8c979a2	-9.607083e-05
209	0xb7f5e9a8	-2.931508e-05
210	0xb779d6dc	-1.4891582e-05
211	0xb936a316	-0.00017417627
212	0xb8ac5b36	-8.2185885e-05
213	0xb9065116	-0.00012809443
214	0xb8414800	-4.608184e-05
215	0xb8ba08dc	-8.870821e-05
216	0xb85bbccc	-5.23895e-05
217	0xb7839d9c	-1.568981e-05
218	0xb727dc76	-1.0005306e-05
219	0xb8c8889f	-9.562191e-05
220	0xb83ae1ba	-4.455608e-05
221	0xb8927ddd	-6.9852664e-05
222	0xb7d82b0b	-2.576925e-05
223	0xb84fcaff	-4.95417e-05
224	0x00000000	0.0
225	0x00000000	0.0
226	0x00000000	0.0
227	0x00000000	0.0
228	0x00000000	0.0
229	0x00000000	0.0
230	0x00000000	0.0
231	0x00000000	0.0
232	0xb8d2eaf3	-0.00010057343
233	0xb800df33	-3.072545e-05
234	0xb77acdf5	-1.4949114e-05
235	0xb93f23ea	-0.00018228558
236	0xb8b4491d	-8.596687e-05
237	0xb90c9ca3	-0.00013409792
238	0xb84a1d21	-4.818768e-05
239	0xb8c37592	-9.320224e-05
240	0xb8df52c9	-0.000106488886
241	0xb806c2e7	-3.2129607e-05
242	0xb79d162a	-1.872618e-05
243	0xb94b46d8	-0.0001938598
244	0xb8be5cbe	-9.0771806e-05
245	0xb914e1da	-0.00014198516
246	0xb85993f7	-5.1874635e-05
247	0xb8d1708b	-9.9868594e-05
248	0xb8d0e8d0	-9.9615776e-05
249	0xb80333e1	-3.128115e-05
250	0xb717ed05	-9.055487e-06
251	0xb93b6fdf	-0.00017875385
252	0xb8b3bc82	-8.5704974e-05
253	0xb90b45df	-0.00013282102
254	0xb840a7fe	-4.5932822e-05
255	0xb8bc3403	-8.9742265e-05

exp_avg_sq f4 [64, 8]
0	0x290b2b67	3.0901846e-14
1	0x27ed2a29	6.5826424e-15
2	0x00000000	0.0
3	0x29a4b29a	7.3140455e-14
4	0x28a4b29a	1.8285114e-14
5	0x297769a3	5.4936643e-14
6	0x26bb63b1	1.3002753e-15
7	0x28a4b29a	1.8285114e-14
8	0x385a720f	5.2081476e-05
9	0x360c9d0e	2.0953044e-06
10	0x38a211ba	7.728064e-05
11	0x396c0632	0.00022509022
12	0x382785f2	3.994065e-05
13	0x38c22c8b	9.258938e-05
14	0x3800d338	3.071429e-05
15	0x38906fac	6.8872556e-05
16	0x00000000	0.0
17	0x00000000	0.0
18	0x00000000	0.0
19	0x00000000	0.0
20	0x00000000	0.0
21	0x00000000	0.0
22	0x00000000	0.0
23	0x00000000	0.0
24	0x38142d49	3.5328125e-05
25	0x35b91319	1.3789132e-06
26	0x3877b2b1	5.905581e-05
27	0x3922a57e	0.00015511175
28	0x37e5f06d	2.7410884e-05
29	0x3883b684	6.280563e-05
30	0x37b73ce5	2.1843656e-05
31	0x3854afc9	5.070845e-05
32	0x386711cc	5.5091266e-05
33	0x36209d0a	2.3933267e-06
34	0x38973024	7.209208e-05
35	0x39782a6b	0.00023666925
36	0x384e74de	4.922307e-05
37	0x38cd6520	9.793998e-05
38	0x3804b81d	3.164272e-05
39	0x38abf551	8.199609e-05
40	0x3914a3e8	0.0001417544
41	0x36be96c2	5.679992e-06
42	0x395f672c	0.00021305372
43	0x3a20241f	0.0006108898
44	0x38ffaedc	0.000121919176
45	0x39841fe7	0.0002520077
46	0x38ac7f7a	8.2253435e-05
47	0x39510b7e	0.00019936074
48	0x00000000	0.0
49	0x00000000	0.0
50	0x00000000	0.0
51	0x00000000	0.0
52	0x00000000	0.0
53	0x00000000	0.0
54	0x00000000	0.0
55	0x00000000	0.0
56	0x37532bde	1.2586794e-05
57	0x35100435	5.36503e-07
58	0x37534abc	1.25939805e-05
59	0x385ea9e3	5.3087144e-05
60	0x37347bb2	1.0757636e-05
61	0x37bbb53a	2.2376527e-05
62	0x36e0f0fe	6.7037754e-06
63	0x374f3000	1.2349337e-05
64	0x38050532	3.171451e-05
65	0x358b51f3	1.0380157e-06
66	0x3823eec0	3.908458e-05
67	0x39121693	0.00013932055
68	0x37c9f3e6	2.4074641e-05
69	0x386c7af9	5.6381312e-05
70	0x379d0871	1.871979e-05
71	0x381d16c5	3.7452923e-05
72	0x37dcbf06	2.6314996e-05
73	0x359f8b43	1.1886954e-06
74	0x382e4ebc	4.155816e-05
75	0x38e05611	0.000106971835
76	0x37e024f6	2.6720092e-05
77	0x384437fa	4.6782174e-05
78	0x37577603	1.2842475e-05
79	0x3776099a	1.4664978e-05
80	0x00000000	0.0
81	0x00000000	0.0
82	0x00000000	0.0
83	0x00000000	0.0
84	0x00000000	0.0
85	0x00000000	0.0
86	0x00000000	0.0
87	0x00000000	0.0
88	0x2c04bd02	1.8863249e-12
89	0x2a87614d	2.4048333e-13
90	0x00000000	0.0
91	0x2cc5f28d	5.6260053e-12
92	0x2ac5f28d	3.5162533e-13
93	0x2c6bfabd	3.3534696e-12
94	0x2aa5df48	2.946482e-13
95	0x2c551414	3.0280266e-12
96	0x00000000	0.0
97	0x00000000	0.0
98	0x00000000	0.0
99	0x00000000	0.0
100	0x00000000	0.0
101	0x00000000	0.0
102	0x00000000	0.0
103	0x00000000	0.0
104	0x3891a4be	6.9448244e-05
105	0x3627d40a	2.5008362e-06
106	0x38d848a0	0.0001031321
107	0x39a1726d	0.00030793567
108	0x386a4f05	5.586354e-05
109	0x390175fc	0.00012346351
110	0x38360670	4.3398177e-05
111	0x38edfc46	0.0001134803
112	0x36aa272d	5.0709555e-06
113	0x34d70826	4.00528e-07
114	0x34cb3e0b	3.785684e-07
115	0x37905843	1.7207238e-05
116	0x3690b001	4.312024e-06
117	0x37173f44	9.0150315e-06
118	0x35b3fd92	1.3410338e-06
119	0x3611fc91	2.1753697e-06
120	0x3684aa4c	3.9537317e-06
121	0x33bcab1d	8.7855575e-08
122	0x36f60e29	7.3330198e-06
123	0x379c263e	1.8614457e-05
124	0x36264f3f	2.4782055e-06
125	0x36ebd964	7.0288534e-06
126	0x363b3261	2.7894496e-06
127	0x3715f20a	8.937446e-06
128	0x00000000	0.0
129	0x00000000	0.0
130	0x00000000	0.0
131	0x00000000	0.0
132	0x00000000	0.0
133	0x00000000	0.0
134	0x00000000	0.0
135	0x00000000	0.0
136	0x381a9783	3.6857567e-05
137	0x35976c31	1.1281865e-06
138	0x38908432	6.8910784e-05
139	0x3933fc71	0.00017164812
140	0x37c03b00	2.2915658e-05
141	0x38896a39	6.5524546e-05
142	0x37db869b	2.6169515e-05
143	0x38a39116	7.79947e-05
144	0x37034679	7.824617e-06
145	0x34ccdd42	3.8158947e-07
146	0x36fb532c	7.4900654e-06
147	0x38087a33	3.2538734e-05
148	0x36df45b6	6.6540333e-06
149	0x376960cf	1.3910422e-05
150	0x3689992e	4.1007506e-06
151	0x37190214	9.1199945e-06
152	0x00000000	0.0
153	0x00000000	0.0
154	0x00000000	0.0
155	0x00000000	0.0
156	0x00000000	0.0
157	0x00000000	0.0
158	0x00000000	0.0
159	0x00000000	0.0
160	0x3782c690	1.558967e-05
161	0x351d5efb	5.862527e-07
162	0x37da57d5	2.6028525e-05
163	0x3890c83a	6.90375e-05
164	0x373bdcb7	1.1197458e-05
165	0x37e87d6d	2.7714961e-05
166	0x37245618	9.795207e-06
167	0x37ebce88	2.8110357e-05
168	0x00000000	0.0
169	0x00000000	0.0
170	0x00000000	0.0
171	0x00000000	0.0
172	0x00000000	0.0
173	0x00000000	0.0
174	0x00000000	0.0
175	0x00000000	0.0
176	0x34045b66	1.2326709e-07
177	0x31b22aea	5.1853606e-09
178	0x335cd2bd	5.1414407e-08
179	0x35034699	4.8904036e-07
180	0x34034699	1.2226009e-07
181	0x346b4d25	2.1914146e-07
182	0x3365d1aa	5.3508906e-08
183	0x34924ada	2.724908e-07
184	0x00000000	0.0
185	0x00000000	0.0
186	0x00000000	0.0
187	0x00000000	0.0
188	0x00000000	0.0
189	0x00000000	0.0
190	0x00000000	0.0
191	0x00000000	0.0
192	0x00000000	0.0
193	0x00000000	0.0
194	0x00000000	0.0
195	0x00000000	0.0
196	0x00000000	0.0
197	0x00000000	0.0
198	0x00000000	0.0
199	0x00000000	0.0
200	0x37980406	1.8121686e-05
201	0x357775bf	9.2186013e-07
202	0x37b68e65	2.1762398e-05
203	0x3898fb43	7.294726e-05
204	0x379894c1	1.8189081e-05
205	0x3807200a	3.2216347e-05
206	0x370f603f	8.545873e-06
207	0x372a27ae	1.0142028e-05
208	0x380fe23c	3.4304554e-05
209	0x35922054	1.0887256e-06
210	0x388945a9	6.545644e-05
211	0x3922b011	0.00015515114
212	0x37f046bc	2.8643168e-05
213	0x387fcb10	6.0985854e-05
214	0x37be3576	2.267466e-05
215	0x38570c3d	5.1271392e-05
216	0x3693f7a5	4.409771e-06
217	0x3458a67e	2.0177137e-07
218	0x36d0bedc	6.221102e-06
219	0x379e021a	1.8836046e-05
220	0x3669944f	3.4806033e-06
221	0x370386cd	7.839594e-06
222	0x362be09d	2.5611728e-06
223	0x36e67682	6.8683303e-06
224	0x00000000	0.0
225	0x00000000	0.0
226	0x00000000	0.0
227	0x00000000	0.0
228	0x00000000	0.0
229	0x00000000	0.0
230	0x00000000	0.0
231	0x00000000	0.0
232	0x38d1d69e	0.00010005872
233	0x36693569	3.4750794e-06
234	0x3910d11b	0.00013810808
235	0x39e9d45d	0.00044599446
236	0x388d30c4	6.732487e-05
237	0x393a85e4	0.0001778822
238	0x3882d402	6.2383726e-05
239	0x3938af2a	0.00017612861
240	0x3771c8be	1.4411458e-05
241	0x354e3481	7.6817383e-07
242	0x37a93ca1	2.0174602e-05
243	0x3877697e	5.8987636e-05
244	0x373a530b	1.1105799e-05
245	0x37d6eb59	2.562038e-05
246	0x36fd0e57	7.541657e-06
247	0x3788cf1d	1.6308908e-05
248	0x389338cd	7.020086e-05
249	0x361a4e14	2.2993236e-06
250	0x38ece743	0.00011296433
251	0x39a5cee1	0.0003162539
252	0x38602dde	5.344848e-05
253	0x3902dd25	0.00012480149
254	0x383f43aa	4.5600966e-05
255	0x3904f0e4	0.0001267824

exp_avg f4 [64]
0	0x2a7004a0	2.1317887e-13
1	0xb9814718	-0.00024657766
2	0x00000000	0.0
3	0xb9856aaf	-0.00025447222
4	0xb949ba19	-0.0001923818
5	0xb980d697	-0.00024573944
6	0x00000000	0.0
7	0xb8cb9b66	-9.7087395e-05
8	0xb8e96752	-0.00011129551
9	0xb9059191	-0.00012738096
10	0x00000000	0.0
11	0xb584451d	-9.854881e-07
12	0x00000000	0.0
13	0xb954ca8b	-0.00020293349
14	0xb88b6c08	-6.648159e-05
15	0xb662cc4c	-3.379554e-06
16	0x00000000	0.0
17	0xb931c826	-0.00016954597
18	0xb8a05bea	-7.646515e-05
19	0x00000000	0.0
20	0xb926f54c	-0.00015922374
21	0x00000000	0.0
22	0xb156d541	-3.126232e-09
23	0x00000000	0.0
24	0x00000000	0.0
25	0xb8cd9f73	-9.8048615e-05
26	0xb936a317	-0.00017417628
27	0xb8c8889f	-9.562191e-05
28	0x00000000	0.0
29	0xb93f23ea	-0.00018228558
30	0xb94b46d9	-0.00019385981
31	0xb93b6fdf	-0.00017875385
32	0xb91bdb82	-0.00014863725
33	0xb9a74797	-0.0003190606
34	0xb9305a36	-0.00016818274
35	0x00000000	0.0
36	0xb9519b5c	-0.00019989669
37	0x00000000	0.0
38	0x00000000	0.0
39	0x00000000	0.0
40	0xb8e4ed92	-0.00010916138
41	0x00000000	0.0
42	0x00000000	0.0
43	0xb9816a16	-0.00024683838
44	0xb92a5b52	-0.00016246483
45	0xb2e10de2	-2.619976e-08
46	0xb8dd2d1c	-0.000105465035
47	0xb8b82987	-8.781539e-05
48	0x00000000	0.0
49	0xb93ece3b	-0.00018196639
50	0x00000000	0.0
51	0xb96c5b6c	-0.00022540771
52	0x3600f46d	1.921576e-06
53	0xb8df1d45	-0.000106389205
54	0xb9841529	-0.00025192767
55	0xb946d744	-0.00018962944
56	0x2c5e7615	3.1613646e-12
57	0x00000000	0.0
58	0xb9178d64	-0.00014453154
59	0x3539eb6d	6.926046e-07
60	0xb8d2af7c	-0.00010046267
61	0xb90c353d	-0.00013371273
62	0xb87253fb	-5.777551e-05
63	0x2afdd1db	4.5087445e-13

exp_avg_sq f4 [64]
0	0x29a4b29a	7.3140455e-14
1	0x396c0632	0.00022509022
2	0x00000000	0.0
3	0x3922a57f	0.00015511176
4	0x39782a6b	0.00023666925
5	0x3a20241e	0.00061088975
6	0x00000000	0.0
7	0x385ea9e3	5.3087144e-05
8	0x39121694	0.00013932056
9	0x38e05611	0.000106971835
10	0x00000000	0.0
11	0x2cc5f28d	5.6260053e-12
12	0x00000000	0.0
13	0x39a1726d	0.00030793567
14	0x37905843	1.7207238e-05
15	0x379c263c	1.8614453e-05
16	0x00000000	0.0
17	0x3933fc70	0.0001716481
18	0x38087a34	3.2538737e-05
19	0x00000000	0.0
20	0x3890c83a	6.90375e-05
21	0x00000000	0.0
22	0x35034698	4.890403e-07
23	0x00000000	0.0
24	0x00000000	0.0
25	0x3898fb42	7.294725e-05
26	0x3922b011	0.00015515114
27	0x379e021b	1.8836048e-05
28	0x00000000	0.0
29	0x39e9d45b	0.0004459944
30	0x38776980	5.8987644e-05
31	0x39a5cee1	0.0003162539
32	0x398190a7	0.00024712572
33	0x3a40397a	0.00073327834
34	0x38ec1788	0.0001125774
35	0x00000000	0.0
36	0x391f372f	0.00015183979
37	0x00000000	0.0
38	0x00000000	0.0
39	0x00000000	0.0
40	0x38dae473	0.00010437602
41	0x00000000	0.0
42	0x00000000	0.0
43	0x3a05799b	0.0005091668
44	0x38cd2a65	9.783058e-05
45	0x3561e073	8.414565e-07
46	0x3871aed5	5.7621703e-05
47	0x378bfc61	1.6687614e-05
48	0x00000000	0.0
49	0x3941e572	0.0001849139
50	0x00000000	0.0
51	0x39ca2588	0.00038556405
52	0x3675d303	3.663067e-06
53	0x3889e188	6.5746775e-05
54	0x3a0c612e	0.0005355057
55	0x396382b1	0.00021697093
56	0x34a22cd9	3.0207482e-07
57	0x00000000	0.0
58	0x392402f7	0.00015641363
59	0x38cfe01c	9.912273e-05
60	0x37ae6970	2.0791515e-05
61	0x38cd8d52	9.801485e-05
62	0x36f986b4	7.43646e-06
63	0x327b1de9	1.4616924e-08

exp_avg f4 [64, 64]
0	0x00000000	0.0
1	0x00000000	0.0
2	0x00000000	0.0
3	0x00000000	0.0
4	0x00000000	0.0
5	0x00000000	0.0
6	0x00000000	0.0
7	0x00000000	0.0
8	0x00000000	0.0
9	0x00000000	0.0
10	0x00000000	0.0
11	0x00000000	0.0
12	0x00000000	0.0
13	0x00000000	0.0
14	0x00000000	0.0
15	0x00000000	0.0
16	0x00000000	0.0
17	0x00000000	0.0
18	0x00000000	0.0
19	0x00000000	0.0
20	0x00000000	0.0
21	0x00000000	0.0
22	0x00000000	0.0
23	0x00000000	0.0
24	0x00000000	0.0
25	0x00000000	0.0
26	0x00000000	0.0
27	0x00000000	0.0
28	0x00000000	0.0
29	0x00000000	0.0
30	0x00000000	0.0
31	0x00000000	0.0
32	0x00000000	0.0
33	0x00000000	0.0
34	0x00000000	0.0
35	0x00000000	0.0
36	0x00000000	0.0
37	0x00000000	0.0
38	0x00000000	0.0
39	0x00000000	0.0
40	0x00000000	0.0
41	0x00000000	0.0
42	0x00000000	0.0
43	0x00000000	0.0
44	0x00000000	0.0
45	0x00000000	0.0
46	0x00000000	0.0
47	0x00000000	0.0
48	0x00000000	0.0
49	0x00000000	0.0
50	0x00000000	0.0
51	0x00000000	0.0
52	0x00000000	0.0
53	0x00000000	0.0
54	0x00000000	0.0
55	0x00000000	0.0
56	0x00000000	0.0
57	0x00000000	0.0
58	0x00000000	0.0
59	0x00000000	0.0
60	0x00000000	0.0
61	0x00000000	0.0
62	0x00000000	0.0
63	0x00000000	0.0
64	0xa743b8a9	-2.716179e-15
65	0xb6bfe7a2	-5.719209e-06
66	0x00000000	0.0
67	0x367431eb	3.638789e-06
68	0xb57d08da	-9.4262725e-07
69	0xb638c99d	-2.753549e-06
70	0x00000000	0.0
71	0xb699f7dd	-4.5886104e-06
72	0xb5cd2298	-1.5283758e-06
73	0xb6a21bd9	-4.831218e-06
74	0x00000000	0.0
75	0xb229f1a3	-9.8920365e-09
76	0x00000000	0.0
77	0xb723c677	-9.761766e-06
78	0xb5c6e888	-1.4819825e-06
79	0x33ec33ee	1.0999052e-07
80	0x00000000	0.0
81	0x35088e0d	5.087066e-07
82	0xb70c294d	-8.354266e-06
83	0x00000000	0.0
84	0x34999f14	2.8614215e-07
85	0x00000000	0.0
86	0xae01a5e8	-2.947856e-11
87	0x00000000	0.0
88	0x00000000	0.0
89	0xb6a03945	-4.7750386e-06
90	0x36830473	3.904622e-06
91	0xb3c22d36	-9.042053e-08
92	0x00000000	0.0
93	0xb6a1eb72	-4.8255833e-06
94	0xb67ca852	-3.7648902e-06
95	0xb597a201	-1.1297526e-06
96	0xb59f8bc0	-1.1887096e-06
97	0xb6a0c6c7	-4.7915123e-06
98	0xb6c26079	-5.7928814e-06
99	0x00000000	0.0
100	0x3628004e	2.5034128e-06
101	0x00000000	0.0
102	0x00000000	0.0
103	0x00000000	0.0
104	0x3681b8a9	3.865997e-06
105	0x00000000	0.0
106	0x00000000	0.0
107	0xb667fcda	-3.4568861e-06
108	0xb6883d39	-4.060243e-06
109	0xb0d62529	-1.5581111e-09
110	0x35f2dae9	1.8094116e-06
111	0x356fe504	8.93677e-07
112	0x00000000	0.0
113	0x35db164f	1.6323264e-06
114	0x00000000	0.0
115	0xb67fc70d	-3.8113824e-06
116	0xb4b70b73	-3.4094737e-07
117	0xb631727a	-2.644169e-06
118	0xb6c8dcbb	-5.986161e-06
119	0xb6f902cc	-7.421104e-06
120	0x00000000	0.0
121	0x00000000	0.0
122	0xb5e183b3	-1.6802136e-06
123	0xb1f45398	-7.110838e-09
124	0xb6dd9109	-6.6031976e-06
125	0xb6b5fbc0	-5.423528e-06
126	0x35a9754c	1.2625619e-06
127	0x00000000	0.0
128	0x00000000	0.0
129	0xabf3ee38	-1.7332307e-12
130	0x00000000	0.0
131	0xac6d8a3e	-3.3756466e-12
132	0x2d841fe8	1.5020832e-11
133	0x2e012e21	2.9372175e-11
134	0x00000000	0.0
135	0x2d89b80e	1.5656833e-11
136	0x2e26a218	3.7888e-11
137	0xacd7d05c	-6.1338e-12
138	0x00000000	0.0
139	0x23c3852b	2.1198341e-17
140	0x00000000	0.0
141	0x2ea980af	7.708089e-11
142	0xabe5c220	-1.6325309e-12
143	0x2d9aeeb0	1.7613772e-11
144	0x00000000	0.0
145	0x2df7d45b	2.8174954e-11
146	0x2d591dbd	1.2341625e-11
147	0x00000000	0.0
148	0x2d80eaed	1.4656243e-11
149	0x00000000	0.0
150	0x293369f8	3.9837898e-14
151	0x00000000	0.0
152	0x00000000	0.0
153	0x2d1d57c8	8.943908e-12
154	0x2bd9ee79	1.5484967e-12
155	0x2dd4aac6	2.4177448e-11
156	0x00000000	0.0
157	0x2e5bb4de	4.9955477e-11
158	0xaab17725	-3.152419e-13
159	0x2e9ff093	7.2732174e-11
160	0x2d8b77c5	1.5855659e-11
161	0xac8cffea	-4.0074515e-12
162	0xac525081	-2.9887484e-12
163	0x00000000	0.0
164	0x2c8e2910	4.0404416e-12
165	0x00000000	0.0
166	0x00000000	0.0
167	0x00000000	0.0
168	0x2d3f1d80	1.0863643e-11
169	0x00000000	0.0
170	0x00000000	0.0
171	0x2ba508ea	1.1726429e-12
172	0x2d11fd8b	8.298594e-12
173	0x2904e791	2.951074e-14
174	0x2e2c376e	3.9157504e-11
175	0x2da5ef15	1.8864502e-11
176	0x00000000	0.0
177	0x2e385006	4.190783e-11
178	0x00000000	0.0
179	0x2da70db2	1.8991784e-11
180	0x297ade82	5.5704146e-14
181	0x2d9c230e	1.7750714e-11
182	0x2ea2e331	7.4072644e-11
183	0x2c817cae	3.6802427e-12
184	0x283b1e43	1.0387147e-14
185	0x00000000	0.0
186	0x2e434d88	4.440673e-11
187	0x2d8a2653	1.5705803e-11
188	0xacec9aec	-6.724723e-12
189	0x2eaf53e3	7.97298e-11
190	0x2d07a3c4	7.710225e-12
191	0x25ea31ad	4.062619e-16
192	0x27fbca53	6.9885855e-15
193	0x3613acaa	2.200521e-06
194	0x00000000	0.0
195	0x35eed5ca	1.7794603e-06
196	0x35de3e36	1.6558395e-06
197	0x3648f81a	2.9946737e-06
198	0x00000000	0.0
199	0x36092328	2.0435054e-06
200	0x3612cc1d	2.1874505e-06
201	0x357c3f82	9.396973e-07
202	0x00000000	0.0
203	0x2fa02b0a	2.9134412e-10
204	0x00000000	0.0
205	0x36ae212c	5.189466e-06
206	0x33b1b5f2	8.2753004e-08
207	0x340ad573	1.2929904e-07
208	0x00000000	0.0
209	0x360f20c7	2.132774e-06
210	0x3623f072	2.442885e-06
211	0x00000000	0.0
212	0x35e0057e	1.6690899e-06
213	0x00000000	0.0
214	0x2e7dbd38	5.76936e-11
215	0x00000000	0.0
216	0x00000000	0.0
217	0x35a4d1d8	1.2280025e-06
218	0x35ccd9b4	1.5262544e-06
219	0x35dadcc2	1.6306515e-06
220	0x00000000	0.0
221	0x36763dae	3.6692759e-06
222	0x35dc8833	1.6430917e-06
223	0x368cbcd2	4.1943067e-06
224	0x35ecda76	1.7646951e-06
225	0x35a85cfa	1.2544035e-06
226	0x359c7513	1.1656979e-06
227	0x00000000	0.0
228	0x360badd3	2.0813793e-06
229	0x00000000	0.0
230	0x00000000	0.0
231	0x00000000	0.0
232	0x352a1d9c	6.337302e-07
233	0x00000000	0.0
234	0x00000000	0.0
235	0x36141359	2.206498e-06
236	0x3601ae16	1.932383e-06
237	0x30db3a4e	1.5950918e-09
238	0x361c4ab6	2.32893e-06
239	0x35bfc3e8	1.4287625e-06
240	0x00000000	0.0
241	0x363724f8	2.7290644e-06
242	0x00000000	0.0
243	0x36158016	2.2277286e-06
244	0x32c6aec4	2.3129708e-08
245	0x35f6740c	1.8362202e-06
246	0x36a96b74	5.0491017e-06
247	0x361c6fad	2.3310815e-06
248	0x292615a1	3.6878165e-14
249	0x00000000	0.0
250	0x363be713	2.7999674e-06
251	0x3201274c	7.517723e-09
252	0x35f842f0	1.8496921e-06
253	0x36956578	4.4523586e-06
254	0x34ccb3c4	3.8128758e-07
255	0x26d80968	1.499056e-15
