rl_models/agent_2_B3_ANALYTICAL_BUYER.pt (torch, 68403 bytes, 18 tensors)

fc1.weight f4 [64, 8]
-0.1446427 0.11732427 -0.07654078 0.053560946 -0.21753253 0.03980293 -0.12442762 0.10551842
0.06471934 0.20702954 0.29096702 0.22613692 0.2071684 0.012272542 0.03685758 -0.17223796
0.14592053 0.27238762 -0.0036439062 0.15529637 -0.017962452 0.1232525 -0.20238067 -0.008162601
0.05470095 0.060082916 -0.17833701 -0.17350557 -0.0035751797 0.2258417 -0.26032448 -0.066112794
0.18900934 0.116021074 -0.121454194 0.1474181 0.13022967 0.23074342 0.029800782 0.064864434
-0.1883163 0.24203046 0.24979676 -0.26260886 -0.069254816 -0.1969212 -0.026970768 0.21734428
-0.20003055 0.2549593 -0.018496307 -0.20597927 -0.2208725 -0.17827281 0.0033590293 -0.26680723
-0.12420152 0.23055945 -0.23435858 -0.1303095 -0.13267629 0.037478726 -0.1403364 -0.0076123085
0.04614014 0.23226455 0.18903434 -0.19757327 0.29675734 0.23242997 0.15960336 -0.05159575
0.16795059 0.2026331 -0.043993812 -0.06943497 0.26178634 -0.02903163 0.3201389 0.17888157
-0.028208515 -0.0941818 0.12078348 -0.2707104 0.27409953 -0.08062451 -0.04110566 -0.2546073
0.2726713 0.13057342 -0.16548237 -0.17461362 -0.078970246 -0.23530023 0.19746256 0.24062549
-0.19662423 0.29003274 0.2667036 0.28265646 0.2932708 0.30166882 -0.13109142 -0.09539874
-0.1970873 0.22309633 -0.14629103 0.09661533 -0.12726718 -0.22029932 0.12208913 0.015747106
-0.21298166 -0.049715582 -0.103610486 0.23768048 -0.070305295 -0.07932478 0.32200706 0.35026243
-0.05027939 0.09151111 -0.019639041 0.04174482 0.3118826 0.104372315 -0.19023788 0.3212832
-0.231499 -0.19924946 -0.19444366 0.1110192 0.17544326 -0.0017115998 0.1715785 -0.1915152
0.162126 0.17425512 -0.06787864 -0.043368455 0.23887952 -0.0035478338 -0.03722784 0.11022105
-0.2351136 0.21167308 0.14319633 -0.12787423 -0.2376841 0.19267868 -0.13803566 -0.13398525
0.3030305 0.2604411 -0.14430848 0.13292308 -0.081614025 -0.0082128635 -0.064606346 -0.1355479
-0.20761974 -0.18842585 -0.09973295 -0.17806354 -0.22337241 -0.116673045 0.14795916 -0.12412826
0.17427653 -0.15271483 0.08568295 -0.094154164 -0.22079945 -0.10807347 0.21835816 -0.16593274
0.004829211 0.10463825 -0.03272949 -0.23759872 -0.117776215 -0.20685188 -0.16664416 -0.029892538
-0.13278803 0.14873083 0.23327848 -0.13254151 0.18525498 0.22222081 0.07142897 0.177658
-0.05335262 -0.1945586 -0.06425096 0.29066843 0.071324304 0.108098276 0.2373974 0.119252875
0.31937882 -0.17147303 0.26429215 -0.14383698 0.13345811 -0.22913744 -0.15326595 0.25611976
-0.102792546 0.21214452 -0.28199548 0.18326692 -0.12900798 -0.018129885 -0.29400644 0.1339789
-0.1261273 -0.09312808 -0.19208059 -0.16949205 -0.1524531 -0.18148676 0.012547304 -0.04181353
0.051710267 -0.27466473 -0.21154079 0.27925676 0.013532136 -0.19891588 -0.16019788 0.2792402
0.24879882 -0.21911106 0.269879 0.02660716 -0.032278474 0.35546 0.20869865 0.19253
-0.13166694 -0.089829594 0.20618694 -0.115335464 -0.07429408 0.08096822 0.19953194 -0.058957897
-0.22115922 -0.040381923 0.12676555 -0.2665749 0.14694057 -0.06951387 -0.00039877504 -0.08441043
00000000: 371d 14be b547 f03d 6ac1 9cbd b962 5b3d
00000010: d9c0 5ebe 6608 233d e8d3 febd 0b1a d83d
00000020: 938b 843d 8dff 533e a1f9 943e 7090 673e
00000030: f423 543e c612 493c f9f7 163d 265f 30be
00000040: 316c 153e 6476 8b3e 9ace 6ebb 0306 1f3e
00000050: fe25 93bc cf6b fc3d e13c 4fbe 6ebc 05bc
00000060: 1a0e 603d 8119 763d fa9d 36be 72ab 31be
00000070: 904d 6abb 0c43 673e 4049 85be 2566 87bd
00000080: aa8b 413e 759c ed3d fabc f8bd c5f4 163e
00000090: ed5a 053e 0148 6c3e c520 f43c a5d7 843d
000000a0: fdd5 40be d5d6 773e b9ca 7f3e ab74 86be
000000b0: 78d5 8dbd b6a5 49be cdf1 dcbc 808f 5e3e
000000c0: cfd4 4cbe 068a 823e 9185 97bc 3bec 52be
000000d0: 672c 62be 268d 36be 2923 5c3b f59a 88be
000000e0: 5e5d febd c717 6c3e b2fb 6fbe db6f 05be
000000f0: 4bdc 07be 4b83 193d 58b4 0fbe ac70 f9bb
00000100: 72fd 3c3d c2d6 6d3e 3892 413e a650 4abe
00000110: 94f0 973e 1f02 6e3e 106f 233e 1156 53bd
00000120: 3dfb 2b3e 0d7f 4f3e db32 34bd ec33 8ebd
00000130: dc08 863e bed3 edbc 3fe9 a33e bb2c 373e
00000140: 8b15 e7bc 63e2 c0bd 545d f73d 8e9a 8abe
00000150: c656 8c3e 771e a5bd 695e 28bd e35b 82be
00000160: 939b 8b3e 0ab5 053e 3674 29be eacd 32be
00000170: 27bb a1bd 8bf2 70be a033 4a3e 8766 763e
00000180: dd57 49be 2c7f 943e 608d 883e 59b8 903e
00000190: 9727 963e 5674 9a3e d43c 06be 6a60 c3bd
000001a0: 41d1 49be 5d73 643e 51cd 15be 42de c53d
000001b0: 5452 02be 2596 61be de09 fa3d 1300 813c
000001c0: dd17 5abe 91a2 4bbd bc31 d4bd 8362 733e
000001d0: 39fc 8fbd 0875 a2bd 1cde a43e 9955 b33e
000001e0: c3f1 4dbd 2d6a bb3d 0ee2 a0bc 9efc 2a3d
000001f0: 13af 9f3e 27c1 d53d b8cd 42be 3b7f a43e
00000200: 130e 6dbe 0d08 4cbe 3d1c 47be 095e e33d
00000210: 66a7 333e c257 e0ba 46b2 2f3e 901c 44be
00000220: 5c04 263e ef6f 323e f503 8bbd 1fa3 31bd
00000230: d59c 743e c682 68bb 387c 18bd 93bb e13d
00000240: 9fc1 70be d4c0 583e 0fa2 123e 76f1 02be
00000250: 7663 73be 8f4d 453e 3859 0dbe 6e33 09be
00000260: d026 9b3e 8958 853e 9ac5 13be fd1c 083e
00000270: 4125 a7bd 3f8f 06bc 5550 84bd 12cd 0abe
00000280: 459a 54be b5f2 40be ca40 ccbd 4a56 36be
00000290: bdbb 64be 47f2 eebd 9b82 173e f536 febd
000002a0: 8c75 323e 4761 1cbe 8b7a af3d e6d3 c0bd
000002b0: 4019 62be a055 ddbd 4899 5f3e 46ea 29be
000002c0: 5c3e 9e3b 944c d63d 5c0f 06bd 144d 73be
000002d0: a834 f1bd fbd0 53be c4a4 2abe 32e1 f4bc
000002e0: 96f9 07be e54c 183e 8ee0 6e3e f6b8 07be
000002f0: 7bb3 3d3e da8d 633e 5a49 923d fbeb 353e
00000300: 4788 5abd 5f3a 47be 0296 83bd 7ed2 943e
00000310: 7a12 923d a162 dd3d 4e18 733e da3a f43d
00000320: 9f85 a33e a096 2fbe 4d51 873e 004a 13be
00000330: 3ea9 083e 01a3 6abe c0f1 1cbe 2122 833e
00000340: e684 d2bd 6a3c 593e b661 90be 53aa 3b3e
00000350: ab1a 04be 2085 94bc 0388 96be c431 093e
00000360: 8427 01be efb9 bebd c6b0 44be 538f 2dbe
00000370: aa1c 1cbe aad7 39be 3593 4d3c aa44 2bbd
00000380: 25ce 533d dba0 8cbe 269e 58be befa 8e3e
00000390: e4b5 5d3c 9bb0 4bbe ea0a 24be 92f8 8e3e
000003a0: 1ec5 7e3e a65e 60be 952d 8a3e 42f7 d93c
000003b0: 6f36 04bd dafe b53e 19b5 553e 9626 453e
000003c0: b3d3 06be 94f8 b7bd ab22 533e 0035 ecbd
000003d0: 7f27 98bd abd2 a53d 1a52 4c3e d67d 71bd
000003e0: 9077 62be 8467 25bd d4ce 013e 817c 88be
000003f0: 9777 163e 4a5d 8ebd ae12 d1b9 60df acbd

fc1.bias f4 [64]
0.0 0.046789374 0.07472391 0.0002752596 0.0507859 -0.019211864 0.0 0.0
0.055346787 0.064912796 0.0 -0.0065981415 0.038351126 0.0 0.053125586 0.06262313
-0.025078775 0.044629626 0.0 0.07872544 0.0 0.0 0.0 0.06869147
0.07991946 0.058510594 -0.006968581 0.0 0.002259486 0.084248595 -0.009605492 0.0
0.0 0.08780932 0.013518414 0.0 0.050689597 0.0 0.0 0.07462811
0.0 0.0 0.03232111 0.0 0.029615445 -0.029900895 -0.02553568 0.027908226
0.09594888 -0.028815707 -0.059081934 0.0 0.042652715 0.048196867 -0.00693542 0.0
-0.019652713 0.031242838 0.0032905433 -0.011858494 -0.026963199 0.032939795 0.0 0.042459678
00000000: 0000 0000 37a6 3f3d d908 993d b850 9039
00000010: e004 503d 3362 9dbc 0000 0000 0000 0000
00000020: 50b3 623d 00f1 843d 0000 0000 3935 d8bb
00000030: 1216 1d3d 0000 0000 379a 593d 8e40 803d
00000040: 0172 cdbc 8ecd 363d 0000 0000 ce3a a13d
00000050: 0000 0000 0000 0000 0000 0000 1dae 8c3d
00000060: d0ac a33d cea8 6f3d b258 e4bb 0000 0000
00000070: e213 143b 878a ac3d 5b60 1dbc 0000 0000
00000080: 0000 0000 5fd5 b33d 577c 5d3c 0000 0000
00000090: e59f 4f3d 0000 0000 0000 0000 9fd6 983d
000000a0: 0000 0000 0000 0000 2463 043d 0000 0000
000000b0: 179c f23c b9f2 f4bc 3430 d1bc cb9f e43c
000000c0: d980 c43d eb0e ecbc e6ff 71bd 0000 0000
000000d0: 9db4 2e3d 146a 453d 8542 e3bb 0000 0000
000000e0: bafe a0bc fbf0 ff3c 28a6 573b 214a 42bc
000000f0: ede1 dcbc e1eb 063d 0000 0000 33ea 2d3d

fc2.weight f4 [64, 64]
0.17647532 -0.022502469 0.097068764 0.20627703 0.15777428 -0.18404573 -0.15252908 0.08400818
0.15831919 0.021996135 0.017252019 -0.06591705 0.13884602 -0.16826157 -0.10114038 0.1627126
0.03318942 0.19333065 -0.09021283 0.20188434 -0.14329588 -0.17338899 -0.026930632 -0.10053816
0.092158824 0.07911119 0.16752675 -0.13082358 -0.025152812 0.18242685 0.0036957245 -0.20065545
-0.0009781052 0.15210065 0.22632335 0.05647417 -0.039124887 -0.1289238 0.19506277 -0.023983903
-0.1009366 -0.09500182 -0.013002644 -0.13905165 -0.09362138 0.1673557 -0.112119265 0.16673991
-0.07922277 0.18436761 -0.084755115 0.06541974 0.16669278 0.25968564 0.2040719 0.08119876
0.07280067 -0.02535078 0.115503505 0.1711034 0.005934914 0.098428495 -0.049582295 0.12872186
0.05343192 0.005663527 -0.10099163 -0.21192487 -0.12270276 -0.20723093 0.1557418 0.10022955
-0.0958843 -0.11041718 -0.20486541 0.046844132 -0.1580044 -0.08692125 0.0117961895 0.12327252
0.17061141 -0.11181097 -0.19597393 -0.19261569 -0.17560156 -0.115156874 -0.21213682 -0.1307291
0.066390865 0.19713408 0.12925065 -0.14082919 0.06402075 -0.1355329 -0.11458572 0.16010457
0.20939189 0.090538226 0.15154378 0.12570506 -0.121316925 0.15206888 0.19789492 0.08823541
0.2138554 0.046748795 -0.035115186 -0.11803799 -0.06807217 -0.12007021 0.20671766 -0.03193188
0.12846036 -0.17698888 0.014678676 0.08216504 0.10310364 -0.039345622 0.15981147 -0.20050028
0.11883355 -0.16329174 0.14239511 -0.037037916 0.060223218 -0.030284122 -0.07575949 -0.20850645
0.08323147 0.030341478 0.0026253897 0.03692626 0.17945214 0.193418 0.1359479 0.1602693
-0.25086862 -0.14894082 0.0062117176 -0.21005222 0.023559619 0.19172372 -0.15376395 0.06037964
-0.03980511 -0.05767409 -0.09318335 -0.0735916 -0.001181562 -0.16582097 0.09531505 -0.11835786
-0.17704579 -0.018849228 0.08180281 -0.14109993 -0.17729583 0.18136755 0.10505189 -0.19159862
-0.0006454715 -0.17537637 -0.25239277 0.20791814 0.05056919 -0.15061024 0.15492965 -0.18052562
-0.16636837 -0.20694464 0.12068183 -0.14609042 0.024045454 -0.026062839 -0.14425659 0.06821285
0.21361473 -0.21091181 0.09315653 -0.16187368 0.13583001 -0.04928915 -0.06447104 -0.11646495
0.12460991 -0.2380128 0.11099386 0.19423695 -0.0066510728 0.08089841 0.1149832 -0.0610902
0.013671793 -0.14743619 -0.13938002 -0.037092607 0.08436763 -0.030020697 -0.14043763 0.17729615
-0.16651882 -0.11816585 0.09388357 -0.08526193 -0.20422472 -0.10607051 0.18409745 -0.08613122
-0.1368762 0.20609605 -0.18414392 -0.0064490107 -0.044284314 -0.093816176 0.021492556 0.19202133
-0.0071200696 -0.098464325 0.07973288 -0.18003082 -0.14507051 -0.06322493 0.13994536 0.12845482
0.093701944 0.1636412 0.08995839 -0.2104092 -0.19289058 -0.208027 0.14469755 -0.11070633
-0.026261622 -0.15302877 -0.03017972 -0.06027626 -0.18741594 -0.17269588 -0.21032059 0.08827303
-0.09605481 0.035369482 0.0044612098 0.07678542 -0.04057251 -0.12821507 0.15538844 0.0014558919
-0.14155707 0.02335949 0.16995618 0.053033113 0.036331434 0.09626798 -0.07495259 0.115277775
00000000: f2b5 343e 1957 b8bc fdcb c63d 493a 533e
00000010: 958f 213e 7c76 3cbe 9530 1cbe 7b0c ac3d
00000020: 6d1e 223e 3d31 b43c 1b54 8d3c 85ff 86bd
00000030: a72d 0e3e c34c 2cbe b022 cfbd 229e 263e
00000040: a1f1 073d 78f8 453e 81c1 b8bd c5ba 4e3e
00000050: 28bc 12be e28c 31be a19d dcbc f3e6 cdbd
00000060: c4bd bc3d 0c05 a23d 228c 2b3e 9ef6 05be
00000070: 450d cebc 1bce 3a3e f833 723b 9f78 4dbe
00000080: c433 80ba 46c0 1b3e 4fc1 673e 7651 673d
00000090: 6b41 20bd 9a04 04be 89be 473e e479 c4bc
000000a0: d9b7 cebd 5090 c2bd 0b09 55bc 8e63 0ebe
000000b0: 91bc bfbd 4b5f 2b3e c99e e5bd debd 2a3e
000000c0: 8c3f a2bd ddca 3c3e 1794 adbd c9fa 853d
000000d0: 83b1 2a3e 84f5 843e 39f8 503e 894b a63d
000000e0: 8518 953d 70ac cfbc 1a8d ec3d bb35 2f3e
000000f0: ab79 c23b e194 c93d ce16 4bbd aacf 033e
00000100: 6edb 5a3d 1c95 b93b b3d4 cebd d502 59be
00000110: 964b fbbd 5834 54be c77a 1f3e 2645 cd3d
00000120: fd5e c4bd 6722 e2bd 3dc8 51be a2df 3f3d
00000130: e8cb 21be c503 b2bd ce44 413c 4e76 fc3d
00000140: c2b4 2e3e 26fd e4bd 64ad 48be 0c3d 45be
00000150: e5d0 33be 5ed7 ebbd 653a 59be d9dd 05be
00000160: eff7 873d 84dd 493e 485a 043e 8735 10be
00000170: 501d 833d 23c9 0abe ebab eabd 74f2 233e
00000180: d46a 563e 1b6c b93d 4b2e 1b3e d4b8 003e
00000190: 0275 f8bd f2b7 1b3e f7a4 4a3e c4b4 b43d
000001a0: e9fc 5a3e aa7b 3f3d f1d4 0fbd e7bd f1bd
000001b0: 6c69 8bbd 5fe7 f5bd cbad 533e 01cb 02bd
000001c0: 1d8b 033e 933c 35be d47e 703c 2546 a83d
000001d0: 0028 d33d e028 21bd 9ea5 233e f24f 4dbe
000001e0: 015f f33d f335 27be 06d0 113e 12b5 17bd
000001f0: 9fac 763d 6816 f8bc cb27 9bbd b782 55be
00000200: 4375 aa3d b18e f83c bb0e 2c3b fd3f 173d
00000210: 4dc2 373e 5e0f 463e ed35 0b3e a31d 243e
00000220: da71 80be f183 18be aa8b cb3b ee17 57be
00000230: 1a00 c13c 3953 443e 4c74 1dbe a450 773d
00000240: af0a 23bd ab3b 6cbd ead6 bebd 31b7 96bd
00000250: a4de 9aba f9cc 29be 8934 c33d 9b65 f2bd
00000260: 7e4b 35be b269 9abc 3b88 a73d 807c 10be
00000270: 0a8d 35be 6ab8 393e 7225 d73d 6e32 44be
00000280: dc34 29ba dd95 33be a039 81be 7ee8 543e
00000290: a421 4f3d 9239 1abe e1a5 1e3e b5db 38be
000002a0: 785c 2abe 4ce9 53be 0928 f73d ba98 15be
000002b0: f9fa c43c bc81 d5bc 00b8 13be 2eb3 8b3d
000002c0: d2bd 5a3e 44f9 57be dac8 be3d 37c2 25be
000002d0: 0617 0b3e 6be3 49bd 6509 84bd 2d85 eebd
000002e0: 7b33 ff3d a1b9 73be c050 e33d 0de6 463e
000002f0: 3ef1 d9bb 11ae a53d 507c eb3d b839 7abd
00000300: a8ff 5f3c 83f9 16be a3b9 0ebe 6bee 17bd
00000310: f0c8 ac3d f7ed f5bc e2ce 0fbe 1f8d 353e
00000320: e983 2abe f000 f2bd 0746 c03d cf9d aebd
00000330: 4920 51be 7f3b d9bd 0b84 3c3e 9165 b0bd
00000340: 4629 0cbe d80a 533e 3990 3cbe 3952 d3bb
00000350: 7863 35bd b222 c0bd 2811 b03c 3da1 443e
00000360: 794f e9bb aaa7 c9bd fe4a a33d 005a 38be
00000370: 5d8d 14be 127c 81bd d64d 0f3e a989 033e
00000380: cee6 bf3d 8f91 273e 1b3c b83d 8275 57be
00000390: 1c85 45be 0805 55be 982b 143e 00ba e2bd
000003a0: 9d22 d7bc 93b3 1cbe 763b f7bc 3de4 76bd
000003b0: f7e9 3fbe 30d7 30be 485e 57be 7ec8 b43d
000003c0: 62b8 c4bd 97df 103d 572f 923b ad41 9d3d
000003d0: 5c2f 26bd d04a 03be 261e 1f3e a0d3 be3a
000003e0: 56f4 10be 675c bf3c fe08 2e3e 4039 593d
000003f0: 45d0 143d 2628 c53d be80 99bd c116 ec3d

fc2.bias f4 [64]
0.059616484 -0.008364883 -0.028439866 -0.014865628 -0.006003163 0.0 0.07686874 -0.017912775
-0.0071655377 -0.034922082 0.036961682 0.0 0.079674125 0.0 -0.032753766 -0.008022591
0.0 0.024348335 0.0 0.0 -0.012054842 -0.016856156 0.05817875 0.04923798
0.0 0.0 0.023697054 0.0 0.07382152 -0.013272709 0.0 0.010978261
-0.034531612 0.0 0.0 0.019907806 0.0 0.07062031 0.0 0.0
0.0 0.0 0.0006900439 0.049503047 -0.00010981414 0.06990356 0.0 0.0215531
0.08992698 -0.0024671962 0.0 0.040680423 0.0 0.015664786 -0.01356275 0.0
0.0 0.0 -0.015143217 -0.024313191 0.0 0.0 0.01780619 0.0402068
00000000: 6a30 743d dd0c 09bc b9fa e8bc f78e 73bc
00000010: 2eb6 c4bb 0000 0000 5c6d 9d3d d0bd 92bc
00000020: e3cc eabb 750a 0fbd 2265 173d 0000 0000
00000030: 302c a33d 0000 0000 d028 06bd 2f71 03bc
00000040: 0000 0000 2976 c73c 0000 0000 0000 0000
00000050: ac81 45bc ec15 8abc d74c 6e3d c4ad 493d
00000060: 0000 0000 0000 0000 5320 c23c 0000 0000
00000070: bd2f 973d c775 59bc 0000 0000 2ade 333c
00000080: 0571 0dbd 0000 0000 0000 0000 b215 a33c
00000090: 0000 0000 62a1 903d 0000 0000 0000 0000
000000a0: 0000 0000 0000 0000 10e4 343a b5c3 4a3d
000000b0: 044c e6b8 9929 8f3d 0000 0000 2090 b03c
000000c0: a32b b83d afb0 21bb 0000 0000 84a0 263d
000000d0: 0000 0000 7053 803c 4c36 5ebc 0000 0000
000000e0: 0000 0000 0000 0000 411b 78bc 752c c7bc
000000f0: 0000 0000 0000 0000 49de 913c e3af 243d

fc3.weight f4 [4, 64]
0.079731375 -0.045566976 -0.17640975 0.22186401 0.030974794 -0.001407317 -0.28824547 -0.06823907
0.2324508 0.08710263 -0.129029 -0.18643004 -0.39432952 0.07941495 0.10062385 0.025863385
-0.13077198 -0.2017792 -0.035783768 -0.062133454 0.067247555 -0.026300183 -0.16080026 -0.29267666
-0.24268228 -0.2802686 -0.05138722 0.19784796 -0.15751173 -0.2419427 -0.1339551 -0.1538869
0.17062509 -0.24108106 0.27666003 -0.09133397 0.29411882 -0.23091212 -0.25877023 -0.2050305
0.1739814 0.16777752 0.11700742 -0.17810068 -0.113731325 0.04683342 -0.18714972 -0.17769389
-0.26539624 -0.038661983 -0.047681995 -0.38617796 -0.2901551 -0.08247671 0.081268154 0.111387074
-0.18954666 -0.021610742 0.2790255 0.109188914 0.02006681 -0.29568946 -0.08209367 -0.39500993
-0.073565684 -0.08678787 0.025106702 -0.18498813 -0.004198403 -0.019980658 -0.04553112 0.09920395
-0.028667836 -0.26027784 0.0006095396 -0.17510483 -0.25195345 0.22340219 -0.26999155 -0.09145191
-0.04746879 -0.0500661 0.26150703 -0.045404255 -0.15232053 0.09417503 0.097415894 0.17648599
-0.14683402 -0.06923636 0.17153068 0.033544943 -0.035992317 -0.1645828 0.27365297 4.4190194e-05
-0.15205532 0.27041957 0.030015869 0.23521996 -0.0552275 0.0866849 0.042916033 0.20447838
-0.036317512 -0.29458785 -0.19034876 0.22005075 -0.01192381 0.24283774 -0.042161014 0.12548386
0.023295417 0.13520044 0.12679468 -0.29535994 -0.040389642 -0.16360985 0.057721328 0.1780985
0.014031244 0.14157705 -0.12669152 -0.14756083 0.22105327 -0.042823575 0.10129455 0.017410023
0.28173834 0.043104194 -0.18233004 -0.111047484 -0.014863088 -0.19416255 -0.0026372925 -0.1663557
-0.06230126 -0.111464836 0.22238435 0.060683362 0.019898575 -0.0070671444 -0.073572725 0.14508852
0.15958273 0.122315645 0.19877075 -0.27163574 0.03933008 -0.16268873 0.32775557 0.18556923
0.065922655 0.079294205 -0.20774746 0.29323378 0.33613357 -0.08787287 -0.2645039 0.06846761
0.031173382 0.052062336 0.06613494 -0.27297747 -0.061270326 0.2085049 0.2094789 0.19474189
-0.070335396 0.20784903 0.2273827 -0.13075441 0.056211196 0.27943856 -0.15322004 -0.137592
0.07225725 -0.34017667 -0.21847649 0.20951797 -0.2607602 0.1375119 -0.27896652 0.26772434
-0.18938057 0.08321336 -0.2687347 -0.023367386 0.23080526 0.04973442 0.16712892 -0.28840074
0.25485134 0.09774257 -0.060347058 -0.122681834 -0.25655678 -0.15173195 -0.026424859 -0.25169006
-0.25141248 0.020719314 -0.13779111 -0.12766878 0.19548632 0.16558123 -0.24805376 -0.022121705
0.03797295 -0.31268346 0.06170874 0.22297159 -0.29099715 0.21182665 0.088251255 -0.11052127
-0.098325506 -0.18491954 0.2991368 0.2952558 0.28590637 0.20316054 -0.28155887 -0.09755684
0.23575759 0.11761435 -0.08545176 0.3670691 -0.1141238 0.049396247 -0.042540684 -0.20998818
-0.22441077 0.21961549 -0.054068252 0.3071216 -0.120873384 0.20793404 -0.08453378 0.048809182
0.17987466 0.1119285 -0.02372503 -0.13515413 -0.11757186 -0.24831147 0.3174046 -0.2933946
0.08974577 -0.29000553 0.08076165 -0.02112198 -0.26386994 -0.22783203 -0.3114348 0.02381909
00000000: 344a a33d 70a4 3abd c2a4 34be 5230 633e
00000010: dabe fd3c b975 b8ba e994 93be edc0 8bbd
00000020: 9507 6e3e dd62 b23d 2e20 04be 84e7 3ebe
00000030: 8fe5 c9be 4ea4 a23d e113 ce3d 73df d33c
00000040: 17e9 05be 359f 4ebe 0092 12bd a67f 7ebd
00000050: 16b9 893d 7b73 d7bc d3a8 24be b7d9 95be
00000060: b481 78be 5e7f 8fbe 687b 52bd a898 4a3e
00000070: c14a 21be d4bf 77be 872b 09be 8794 1dbe
00000080: 58b8 2e3e f4dd 76be 62a6 8d3e 4e0d bbbd
00000090: be96 963e 3a74 6cbe 887d 84be 84f3 51be
000000a0: 2e28 323e dfcd 2b3e 96a1 ef3d 0660 36be
000000b0: f8eb e8bd 66d4 3f3d 2da4 3fbe 63f5 35be
000000c0: 04e2 87be 075c 1ebd 324e 43bd 1eb9 c5be
000000d0: 368f 94be 8de9 a8bd eb6f a63d e81e e43d
000000e0: 8518 42be 0309 b1bc 6edc 8e3e 709e df3d
000000f0: 2763 a43c 9c64 97be ba20 a8bd be3e cabe
00000100: 9ba9 96bd d7bd b1bd 92ac cd3c 876d 3dbe
00000110: c292 89bb 7aae a3bc d77e 3abd 712b cb3d
00000120: cfd8 eabc 2343 85be 83c9 1f3a ae4e 33be
00000130: 0b00 81be 8bc3 643e 553c 8abe 244b bbbd
00000140: a26e 42bd 1c12 4dbd 40e4 853e d0f9 39bd
00000150: eaf9 1bbe d7de c03d fc81 c73d beb8 343e
00000160: a85b 16be cbcb 8dbd bda5 2f3e 6c66 093d
00000170: ae6c 13bd 6588 28be 3e1c 8c3e dc58 3938
00000180: 64b4 1bbe 6f74 8a3e d7e3 f53c 80dd 703e
00000190: 3b36 62bd da87 b13d b9c8 2f3d c862 513e
000001a0: acc1 14bd 38d4 96be c9ea 42be fc54 613e
000001b0: 155c 43bc 75aa 783e 07b1 2cbd d77e 003e
000001c0: 08d6 be3c fc71 0a3e 77d6 013e 6b39 97be
000001d0: 9c6f 25bd 5789 27be 336d 6c3d 745f 363e
000001e0: 4ee3 653c 93f9 103e 6cbb 01be 301a 17be
000001f0: ca5b 623e c667 2fbd 8473 cf3d 779f 8e3c
00000200: 0240 903e 068e 303d bab4 3abe dd6c e3bd
00000210: 4f84 73bc 8cd2 46be 6dd6 2cbb 2659 2abe
00000220: 9b2f 7fbd ad47 e4bd b9b8 633e 1e8f 783d
00000230: 5602 a33c 8193 e7bb 4cad 96bd 1692 143e
00000240: a869 233e a080 fa3d 8f8a 4b3e d713 8bbe
00000250: 9418 213d e097 26be 94cf a73e dc05 3e3e
00000260: 7502 873d 0065 a23d c0bb 54be bd22 963e
00000270: b319 ac3e b1f6 b3bd 0e6d 87be bf38 8c3d
00000280: 525f ff3c 513f 553d c171 873d b4c3 8bbe
00000290: 98f6 7abd 4f82 553e a381 563e 6b6a 473e
000002a0: 010c 90bd 60d6 543e 03d7 683e 7ce4 05be
000002b0: b63d 663d 9212 8f3e b7e5 1cbe ebe4 0cbe
000002c0: 9cfb 933d a32b aebe 4db8 5fbe e18b 563e
000002d0: 5c82 85be ebcf 0c3e b3d4 8ebe 2a13 893e
000002e0: fbec 41be c46b aa3d 9897 89be f66c bfbc
000002f0: 3758 6c3e 52b6 4b3d d823 2b3e 43a9 93be
00000300: e07b 823e 422d c83d 7a2e 77bd 9d40 fbbd
00000310: 695b 83be 9f5f 1bbe f278 d8bc 85dd 80be
00000320: 23b9 80be 8dbb a93c 1d19 0dbe 9bbb 02be
00000330: 912d 483e 208e 293e ce01 7ebe 9438 b5bc
00000340: 8689 1b3d 0c18 a0be 4ec2 7c3d aa52 643e
00000350: 94fd 94be 16e9 583e 13bd b43d fa58 e2bd
00000360: e25e c9bd 8c5b 3dbe 7528 993e c52b 973e
00000370: 5262 923e 5109 503e 7c28 90be e1cb c7bd
00000380: 706a 713e cbdf f03d 5501 afbd 7bf0 bb3e
00000390: bdb9 e9bd b853 4a3d 243f 2ebd 2407 57be
000003a0: f0cb 65be e2e2 603e ac76 5dbd 0b3f 9d3e
000003b0: 778c f7bd a9ec 543e 0c20 adbd 23ec 473d
000003c0: 1031 383e c53a e53d fe5a c2bc d865 0abe
000003d0: 84c9 f0bd 5d45 7ebe db82 a23e d137 96be
000003e0: a1cc b73d 9b7b 94be 5d66 a53d 0108 adbc
000003f0: f619 87be cd4c 69be 6274 9fbe 4120 c33c

fc3.bias f4 [4]
-0.06884839 -0.02956991 0.045508225 0.033095654
00000000: 6200 8dbd 993c f2bc d566 3a3d 4f8f 073d

exp_avg f4 [64, 8]
0.0 0.0 0.0 0.0 0.0 0.0 0.0 0.0
-0.0013858561 0.0002790632 -0.011659482 -0.0033185694 -0.00062529184 -0.0019797953 -0.0013387746 -0.0025345027
-0.000520846 0.0007024047 -0.011852834 -0.0019044274 0.00068530696 -0.0007440655 -0.0011603602 -0.0023765198
0.0011455286 0.00045461368 0.0006373125 0.0019119364 0.0009559682 0.0016364689 0.00027546723 0.0009559682
1.7867764e-05 0.0010723873 -0.0057573305 -0.0014767783 0.0018730654 2.5525782e-05 -0.0015023032 -0.003192852
5.7486783e-11 0.0 1.4371687e-10 1.4371687e-10 0.0 8.212397e-11 6.159301e-11 1.4371687e-10
0.0 0.0 0.0 0.0 0.0 0.0 0.0 0.0
0.0 0.0 0.0 0.0 0.0 0.0 0.0 0.0
-0.0039014996 0.0003870834 -0.018812342 -0.009479007 -0.0015342253 -0.0055735693 -0.0039054356 -0.0077143623
-0.0026728471 -0.0007760842 0.0003388231 -0.005113321 -0.002953595 -0.0038183525 -0.001294968 -0.0022202057
0.0 0.0 0.0 0.0 0.0 0.0 0.0 0.0
1.1411316e-09 -1.5161337e-11 2.9918075e-09 2.8907323e-09 -5.053779e-11 1.6301879e-09 1.260544e-09 2.9159999e-09
-0.00016026177 0.00032387278 -0.00040152814 -0.00089783024 0.00011682108 -0.00022894586 -0.0006688842 -0.00095616654
0.0 0.0 0.0 0.0 0.0 0.0 0.0 0.0
0.0035149357 -0.00038210358 0.030855732 0.008207743 0.0014641935 0.0050213384 0.0031864052 0.0064112563
-0.00091116695 0.00055903674 0.001484888 -0.003161015 0.00015529382 -0.0013016675 -0.0018593471 -0.0032599985
4.0032023e-11 9.549297e-12 2.4109714e-11 7.63058e-11 3.81529e-11 5.7188615e-11 1.9117147e-11 2.3457914e-11
-0.002637911 -0.00035103102 -0.013844524 -0.005297988 -0.0019153232 -0.0037684455 -0.0015295432 -0.0032711776
0.0 0.0 0.0 0.0 0.0 0.0 0.0 0.0
-0.0017565563 0.0005817616 -0.017208451 -0.0046290965 4.9870272e-05 -0.0025093677 -0.002119731 -0.0044408613
0.0 0.0 0.0 0.0 0.0 0.0 0.0 0.0
0.0 0.0 0.0 0.0 0.0 0.0 0.0 0.0
0.0 0.0 0.0 0.0 0.0 0.0 0.0 0.0
-0.0008641881 3.36782e-05 -0.00024655927 -0.0022203587 0.000143763 -0.0012345547 -0.0009858035 -0.0023668944
-0.00073731894 0.00015123475 0.003440297 -0.0019272685 -0.00083102175 -0.0010533127 -0.0008739569 -0.0010938187
0.003971609 -0.0001342345 0.026568878 0.00909278 0.0019786558 0.005673727 0.00341906 0.0068491423
-7.210398e-05 -0.00013868784 6.0587656e-05 0.0001822307 0.00011526267 -0.000103005244 0.0002852357 9.111535e-05
0.0 0.0 0.0 0.0 0.0 0.0 0.0 0.0
0.0065236604 -0.0007718186 0.037293516 0.016078673 0.0017420636 0.009319513 0.006759159 0.013927151
-0.00082562346 0.00044779747 0.00086214265 -0.0027554326 0.0006444547 -0.0011794626 -0.0015759715 -0.003369019
0.0034222377 0.00037033766 0.009027959 0.0076336614 0.0027264343 0.004888911 0.0027447508 0.004905457
0.0 0.0 0.0 0.0 0.0 0.0 0.0 0.0
00000000: 0000 0000 0000 0000 0000 0000 0000 0000
00000010: 0000 0000 0000 0000 0000 0000 0000 0000
00000020: 9da5 b5ba 3b4f 9239 6907 3fbc 5b7c 59bb
00000030: a0ea 23ba 74bf 01bb d279 afba e619 26bb
00000040: 6289 08ba 9521 383a 6432 42bc fb9d f9ba
00000050: 2ca6 333a 640d 43ba 3a17 98ba 63bf 1bbb
00000060: 9025 963a 3759 ee39 5111 273a f199 fa3a
00000070: f199 7a3a c97e d63a 966c 9039 f199 7a3a
00000080: bbe2 9537 598f 8c3a fda7 bcbb 7590 c1ba
00000090: a581 f53a 3320 d637 eee8 c4ba 2b3f 51bb
000000a0: 5dd4 7c2e 0000 0000 b404 1e2f b404 1e2f
000000b0: 0000 0000 af97 b42e c871 872e b404 1e2f
000000c0: 0000 0000 0000 0000 0000 0000 0000 0000
000000d0: 0000 0000 0000 0000 0000 0000 0000 0000
000000e0: 0000 0000 0000 0000 0000 0000 0000 0000
000000f0: 0000 0000 0000 0000 0000 0000 0000 0000
00000100: 4db0 7fbb 74f1 ca39 571c 9abc d64d 1bbc
00000110: 0f18 c9ba 7da2 b6bb 56f2 7fbb c3c8 fcbb
00000120: ef2a 2fbb 2172 4bba 11a4 b139 a58d a7bb
00000130: 1a91 41bb 533d 7abb eabb a9ba df80 11bb
00000140: 0000 0000 0000 0000 0000 0000 0000 0000
00000150: 0000 0000 0000 0000 0000 0000 0000 0000
00000160: 00d6 9c30 4c5c 85ad 6f98 4d31 4da6 4631
00000170: 7e44 5eae 230d e030 733f ad30 d062 4831
00000180: f10b 28b9 78cd a939 3284 d2b9 5e5c 6bba
00000190: d7fd f438 3011 70b9 0f58 2fba 40a7 7aba
000001a0: 0000 0000 0000 0000 0000 0000 0000 0000
000001b0: 0000 0000 0000 0000 0000 0000 0000 0000
000001c0: d65a 663b 1355 c8b9 29c5 fc3c c579 063c
000001d0: 2eea bf3a 0a8a a43b 02d3 503b 8415 d23b
000001e0: 61db 6eba 528c 123a 93a0 c23a 0829 4fbb
000001f0: 5ed6 2239 b79c aaba 56b5 f3ba b3a5 55bb
00000200: 0d10 302e 36fe 272d 4012 d42d 59cc a72e
00000210: 59cc 272e a884 7b2e fd27 a82d 8756 ce2d
00000220: cde0 2cbb 960a b8b9 24d4 62bc bf9a adbb
00000230: 950b fbba 06f8 76bb f47a c8ba 4161 56bb
00000240: 0000 0000 0000 0000 0000 0000 0000 0000
00000250: 0000 0000 0000 0000 0000 0000 0000 0000
00000260: 403c e6ba 5c81 183a bdf8 8cbc adaf 97bb
00000270: cc2b 5138 3474 24bb 2feb 0abb a584 91bb
00000280: 0000 0000 0000 0000 0000 0000 0000 0000
00000290: 0000 0000 0000 0000 0000 0000 0000 0000
000002a0: 0000 0000 0000 0000 0000 0000 0000 0000
000002b0: 0000 0000 0000 0000 0000 0000 0000 0000
000002c0: 0000 0000 0000 0000 0000 0000 0000 0000
000002d0: 0000 0000 0000 0000 0000 0000 0000 0000
000002e0: af8a 62ba b141 0d38 a044 81b9 7083 11bb
000002f0: 16bf 1639 c8d0 a1ba 1436 81ba e61d 1bbb
00000300: a348 41ba c594 1e39 9b76 613b 669c fcba
00000310: edd8 59ba 4f0f 8aba 411a 65ba 775e 8fba
00000320: 4524 823b 4dc1 0cb9 faa6 d93c e2f9 143c
00000330: 56ac 013b acea b93b 4f12 603b c56e e03b
00000340: 8836 97b8 bc6c 11b9 801f 7e38 2e15 3f39
00000350: 2db9 f138 8504 d8b8 b08b 9539 2e15 bf38
00000360: 0000 0000 0000 0000 0000 0000 0000 0000
00000370: 0000 0000 0000 0000 0000 0000 0000 0000
00000380: 6ec4 d53b df53 4aba 16c1 183d 6cb7 833c
00000390: f455 e43a dfb0 183c ef7b dd3b b52e 643c
000003a0: a76e 58ba 5cc6 ea39 6a01 623a 7d94 34bb
000003b0: 9ff0 283a 3398 9aba d490 ceba c2ca 5cbb
000003c0: 9f47 603b e129 c239 01ea 133c cb23 fa3b
000003d0: faad 323b 2833 a03b 47e1 333b f5bd a03b
000003e0: 0000 0000 0000 0000 0000 0000 0000 0000
000003f0: 0000 0000 0000 0000 0000 0000 0000 0000

exp_avg_sq f4 [64, 8]
0.0 0.0 0.0 0.0 0.0 0.0 0.0 0.0
5.306075e-05 3.935873e-06 0.00012695475 0.00020938921 5.957516e-05 0.00010828721 2.1189768e-05 0.00011641317
9.2601564e-05 6.8051477e-06 0.00014948078 0.00034665398 9.590357e-05 0.0001889828 2.8618782e-05 0.000106193525
8.7672976e-07 1.2554081e-07 2.6019939e-07 2.437351e-06 6.0933775e-07 1.7892442e-06 5.0001912e-08 5.913981e-07
5.7251596e-05 4.5986103e-06 0.00011106247 0.00021885123 6.0362607e-05 0.000116840034 2.0077798e-05 9.438272e-05
1.9664036e-07 0.0 1.2290011e-06 1.2290011e-06 0.0 4.0130666e-07 2.2573514e-07 1.2290011e-06
0.0 0.0 0.0 0.0 0.0 0.0 0.0 0.0
0.0 0.0 0.0 0.0 0.0 0.0 0.0 0.0
8.362916e-05 6.1771866e-06 0.00017291134 0.00032383003 8.881986e-05 0.00017067188 3.0553183e-05 0.00013948136
3.3278287e-05 2.0780928e-06 5.4989097e-05 0.00012789512 3.424831e-05 6.79149e-05 1.0994959e-05 4.5268367e-05
0.0 0.0 0.0 0.0 0.0 0.0 0.0 0.0
7.9797324e-10 5.3244555e-14 4.9828603e-09 4.985225e-09 5.916063e-13 1.6285165e-09 9.153279e-10 4.98419e-09
3.1083244e-05 1.9474976e-06 4.1872012e-05 0.000119654775 2.586361e-05 6.343518e-05 9.885619e-06 3.1232907e-05
0.0 0.0 0.0 0.0 0.0 0.0 0.0 0.0
0.0001375414 9.510006e-06 0.00032712583 0.0005678639 0.0001580133 0.00028069684 6.277177e-05 0.00027721765
6.38692e-05 4.453751e-06 7.3304705e-05 0.00024122302 5.569684e-05 0.00013034535 1.930253e-05 6.0253886e-05
1.4874712e-06 9.186247e-08 5.0958556e-07 5.312137e-06 1.3280343e-06 3.0356543e-06 3.2353944e-07 6.6929186e-07
5.5233635e-05 4.2110014e-06 9.905368e-05 0.00020892984 5.8457514e-05 0.000112721675 1.8811845e-05 7.65462e-05
0.0 0.0 0.0 0.0 0.0 0.0 0.0 0.0
7.842385e-05 5.969794e-06 0.00015818646 0.00029838245 8.534469e-05 0.00016004867 2.6848098e-05 9.096953e-05
0.0 0.0 0.0 0.0 0.0 0.0 0.0 0.0
0.0 0.0 0.0 0.0 0.0 0.0 0.0 0.0
0.0 0.0 0.0 0.0 0.0 0.0 0.0 0.0
2.3082746e-05 1.5202686e-06 2.6257745e-05 8.54855e-05 2.3777011e-05 4.7107624e-05 6.458551e-06 2.5868265e-05
3.5569996e-05 2.5943596e-06 3.5670106e-05 0.00013034174 2.8741024e-05 7.2591836e-05 9.620412e-06 3.0979805e-05
0.000121059085 7.4921927e-06 0.00033344104 0.0005226297 0.00012417285 0.00024705927 6.234246e-05 0.00028109332
4.4133294e-06 4.452615e-07 1.5990352e-06 1.4388835e-05 3.4364812e-06 9.006795e-06 6.7349856e-07 3.5872151e-06
0.0 0.0 0.0 0.0 0.0 0.0 0.0 0.0
0.00017143704 1.2003274e-05 0.0004460734 0.0007154572 0.00017502469 0.00034987155 8.179238e-05 0.00039651143
7.818792e-05 3.8169264e-06 0.00012740989 0.00031762745 4.9677645e-05 0.0001595671 2.8911369e-05 0.000101624806
4.7566064e-05 1.4594441e-06 0.00014963177 0.00022032725 5.572104e-05 9.7073585e-05 2.67914e-05 9.984992e-05
0.0 0.0 0.0 0.0 0.0 0.0 0.0 0.0
00000000: 0000 0000 0000 0000 0000 0000 0000 0000
00000010: 0000 0000 0000 0000 0000 0000 0000 0000
00000020: 8c8d 5e38 e410 8436 281f 0539 7d8f 5b39
00000030: 57e0 7938 4118 e338 aec0 b137 d822 f438
00000040: 1633 c238 c657 e436 f1bd 1c39 1cbf b539
00000050: d61f c938 af29 4639 5e12 f037 37b4 de38
00000060: 6958 6b35 65cc 0634 88b1 8b34 5f91 2336
00000070: 5f91 2335 f625 f035 afc1 5633 91c0 1e35
00000080: 6f21 7038 c34d 9a36 36ea e838 6e7b 6539
00000090: db2d 7d38 0408 f538 be6c a837 56ef c538
000000a0: 1724 5334 0000 0000 28f4 a435 28f4 a435
000000b0: 0000 0000 2b73 d734 9a61 7234 28f4 a435
000000c0: 0000 0000 0000 0000 0000 0000 0000 0000
000000d0: 0000 0000 0000 0000 0000 0000 0000 0000
000000e0: 0000 0000 0000 0000 0000 0000 0000 0000
000000f0: 0000 0000 0000 0000 0000 0000 0000 0000
00000100: 1062 af38 a145 cf36 894f 3539 bbc7 a939
00000110: cd44 ba38 62f6 3239 3b26 0038 be41 1239
00000120: 4a94 0b38 5d75 0b36 18a4 6638 961b 0639
00000130: d8a5 0f38 896d 8e38 fd76 3837 8ade 3d38
00000140: 0000 0000 0000 0000 0000 0000 0000 0000
00000150: 0000 0000 0000 0000 0000 0000 0000 0000
00000160: 6058 5b30 cbca 6f29 b435 ab31 814a ab31
00000170: ba85 262b 55d2 df30 7a9a 7b30 6641 ab31
00000180: 615f 0238 c1b1 0236 bb9f 2f38 2bef fa38
00000190: aef5 d837 8108 8538 69da 2537 1400 0338
000001a0: 0000 0000 0000 0000 0000 0000 0000 0000
000001b0: 0000 0000 0000 0000 0000 0000 0000 0000
000001c0: fd38 1039 2a8d 1f37 1682 ab39 b4dc 143a
000001d0: 5fb0 2539 7e2a 9339 56a4 8338 8657 9139
000001e0: 84f1 8538 6e71 9536 2abb 9938 d0f0 7c39
000001f0: 079c 6938 50ad 0839 deeb a137 1eb9 7c38
00000200: 1fa5 c735 ed45 c533 74ca 0835 e93e b236
00000210: e93e b235 25b8 4b36 ecb2 ad34 63a9 3335
00000220: aaaa 6738 3a4c 8d36 0abb cf38 2d14 5b39
00000230: 4730 7538 fd64 ec38 21ce 9d37 6e87 a038
00000240: 0000 0000 0000 0000 0000 0000 0000 0000
00000250: 0000 0000 0000 0000 0000 0000 0000 0000
00000260: 7c77 a438 2450 c836 dbde 2539 3770 9c39
00000270: 15fb b238 bdd2 2739 da37 e137 e5c6 be38
00000280: 0000 0000 0000 0000 0000 0000 0000 0000
00000290: 0000 0000 0000 0000 0000 0000 0000 0000
000002a0: 0000 0000 0000 0000 0000 0000 0000 0000
000002b0: 0000 0000 0000 0000 0000 0000 0000 0000
000002c0: 0000 0000 0000 0000 0000 0000 0000 0000
000002d0: 0000 0000 0000 0000 0000 0000 0000 0000
000002e0: d2a1 c137 080c cc35 1444 dc37 ae46 b338
000002f0: be74 c737 6d95 4538 88b6 d836 adff d837
00000300: fe30 1538 c21a 2e36 7c9c 1538 58ac 0839
00000310: e118 f137 723c 9838 5b67 2137 50f0 0138
00000320: 1ae1 fd38 7265 fb36 b3d1 ae39 1601 093a
00000330: 6534 0239 bc87 8139 dabd 8238 b55f 9339
00000340: 3616 9436 460c ef34 6e9e d635 9367 7137
00000350: 4c9e 6636 e41b 1737 78ca 3435 e3bb 7036
00000360: 0000 0000 0000 0000 0000 0000 0000 0000
00000370: 0000 0000 0000 0000 0000 0000 0000 0000
00000380: c8c3 3339 ab61 4937 f5de e939 858d 3b3a
00000390: d586 3739 f76e b739 f387 ab38 dde2 cf39
000003a0: d2f8 a338 2613 8036 5599 0539 3c87 a639
000003b0: f75c 5038 7851 2739 b186 f237 671f d538
000003c0: ac81 4738 1ee2 c335 79e6 1c39 a507 6739
000003d0: 03b6 6938 fc93 cb38 18be e037 8566 d138
000003e0: 0000 0000 0000 0000 0000 0000 0000 0000
000003f0: 0000 0000 0000 0000 0000 0000 0000 0000

exp_avg f4 [64]
0.0 -0.0033185687 -0.0019044267 0.0019119364 -0.0014767773 1.4371687e-10 0.0 0.0
-0.009479006 -0.005113321 0.0 2.8907323e-09 -0.0008978297 0.0 0.008207745 -0.0031610136
7.63058e-11 -0.0052979877 0.0 -0.0046290956 0.0 0.0 0.0 -0.0022203587
-0.0019272683 0.0090927845 0.00018223039 0.0 0.016078675 -0.002755433 0.007633662 0.0
0.0 0.0032465663 -0.0110342065 0.0 0.00027733063 0.0 0.0 -0.000893389
0.0 0.0 -0.003633547 0.0 -0.0010694868 5.145749e-10 2.241837e-10 -0.007919182
0.0024951752 1.5552365e-06 1.9506468e-08 0.0 -0.0036695898 -0.008263802 0.010087973 0.0
1.1309159e-09 -0.0014359197 0.0016590758 2.2015631e-06 1.9934536e-10 -0.0009538534 0.0 0.003552191
00000000: 0000 0000 587c 59bb f59d f9ba f199 fa3a
00000010: 6c90 c1ba b404 1e2f 0000 0000 0000 0000
00000020: d54d 1bbc a58d a7bb 0000 0000 4da6 4631
00000030: 555c 6bba 0000 0000 c779 063c 0229 4fbb
00000040: 59cc a72e be9a adbb 0000 0000 abaf 97bb
00000050: 0000 0000 0000 0000 0000 0000 7083 11bb
00000060: 659c fcba e7f9 143c 1915 3f39 0000 0000
00000070: 6db7 833c 7f94 34bb cc23 fa3b 0000 0000
00000080: 0000 0000 58c4 543b d1c8 34bc 0000 0000
00000090: b066 9139 0000 0000 0000 0000 5232 6aba
000000a0: 0000 0000 0000 0000 ce20 6ebb 0000 0000
000000b0: 062e 8cba fd71 0d30 1a7e 762f 75bf 01bc
000000c0: 1886 233b 85bd d035 2d8f a732 0000 0000
000000d0: 807d 70bb e664 07bc 0748 253c 0000 0000
000000e0: 916e 9b30 7835 bcba 5975 d93a 91be 1336
000000f0: bb2e 5b2f 050c 7aba 0000 0000 e0cb 683b

exp_avg_sq f4 [64]
0.0 0.0002093892 0.0003466539 2.437351e-06 0.00021885122 1.229001e-06 0.0 0.0
0.00032383003 0.00012789514 0.0 4.985225e-09 0.00011965478 0.0 0.000567864 0.00024122301
5.312137e-06 0.00020892982 0.0 0.00029838242 0.0 0.0 0.0 8.548551e-05
0.00013034174 0.0005226297 1.4388835e-05 0.0 0.0007154571 0.00031762748 0.00022032725 0.0
0.0 0.00032533004 0.00051671284 0.0 0.00028941536 0.0 0.0 0.0001241124
0.0 0.0 0.00020895337 0.0 0.0003134143 2.5913054e-05 5.4321195e-06 0.0006750397
0.0002084948 2.5531807e-07 8.453878e-05 0.0 0.00040413052 0.0012222973 0.00040845273 0.0
1.6241764e-05 0.0004462944 0.00069592387 7.5344126e-08 1.2424289e-05 0.0004429883 0.0 0.00012454738
00000000: 0000 0000 7c8f 5b39 19bf b539 5f91 2336
00000010: 6d7b 6539 27f4 a435 0000 0000 0000 0000
00000020: bbc7 a939 971b 0639 0000 0000 814a ab31
00000030: 2cef fa38 0000 0000 b5dc 143a cff0 7c39
00000040: e93e b236 2c14 5b39 0000 0000 3670 9c39
00000050: 0000 0000 0000 0000 0000 0000 af46 b338
00000060: 58ac 0839 1601 093a 9367 7137 0000 0000
00000070: 838d 3b3a 3d87 a639 a507 6739 0000 0000
00000080: 0000 0000 0f91 aa39 0374 073a 0000 0000
00000090: acbc 9739 0000 0000 0000 0000 2b24 0239
000000a0: 0000 0000 0000 0000 7e1a 5b39 0000 0000
000000b0: c151 a439 dc5f d937 8d45 b636 26f5 303a
000000c0: 669f 5a39 a612 8934 694a b138 0000 0000
000000d0: 7be1 d339 7e35 a03a 9925 d639 0000 0000
000000e0: ec3e 8837 9ffc e939 a96e 363a dfcc a133
000000f0: ea71 5037 e240 e839 0000 0000 ef98 0239

exp_avg f4 [64, 64]
0.0 0.0011784381 0.0011186391 9.9183744e-08 0.0012457324 -2.0856946e-11 0.0 0.0
0.0012926683 0.00044014992 0.0 -8.355106e-11 0.001781812 0.0 -0.0014962994 0.00076066196
-1.688769e-12 0.0009782474 0.0 0.0011356964 0.0 0.0 0.0 0.00022788705
-0.00017053903 -0.00057193195 0.00015743254 0.0 -0.00069362746 -0.00033638134 -0.0005209347 0.0
0.0 -0.00023138575 0.0010226328 0.0 0.00020936175 0.0 0.0 0.0006981189
0.0 0.0 0.00045361044 0.0 0.0019885185 -9.510756e-12 -8.952524e-12 0.0013607487
-0.0009892317 -1.5516568e-08 -1.2242659e-09 0.0 -0.00014382116 0.00045739996 -0.0007539325 0.0
2.6934557e-11 0.0013207373 0.0014631789 -4.0594488e-09 -9.660199e-13 0.0017603812 0.0 0.00015567882
0.0 7.7908124e-10 3.5930206e-10 0.0 6.145007e-10 0.0 0.0 0.0
3.3330524e-10 4.6538512e-10 0.0 0.0 7.054093e-10 0.0 7.9039597e-10 5.0506277e-10
0.0 0.0 0.0 0.0 0.0 0.0 0.0 6.5736255e-10
8.9839275e-10 4.918805e-10 0.0 0.0 1.7883584e-10 1.6433639e-09 2.1058817e-10 0.0
0.0 1.3604436e-09 1.3104921e-10 0.0 6.581937e-10 0.0 0.0 5.4751825e-10
0.0 0.0 1.0088049e-10 0.0 2.5535782e-12 0.0 0.0 0.0
6.734814e-10 0.0 0.0 0.0 1.4119701e-09 4.7801635e-10 3.4915237e-10 0.0
0.0 0.0 0.0 0.0 0.0 0.0 0.0 5.039167e-10
0.0 2.46052e-10 1.076226e-10 3.5261406e-14 2.3179676e-10 -5.2775406e-12 0.0 0.0
1.2623891e-10 4.829332e-11 0.0 0.0 3.3007805e-10 0.0 -5.4800484e-11 4.951751e-11
2.2375205e-12 -2.2835009e-12 0.0 2.163274e-12 0.0 0.0 0.0 3.807436e-12
1.3271599e-10 -1.5407016e-11 5.9917273e-13 0.0 -1.4749984e-11 1.9811744e-10 -9.455042e-12 0.0
0.0 1.7215687e-10 1.5046962e-10 0.0 5.8511e-11 0.0 0.0 1.4996922e-10
0.0 0.0 3.6408355e-11 0.0 2.0560934e-10 1.06589425e-11 -6.1180327e-12 5.560143e-11
-2.3135842e-11 8.843139e-13 1.3706004e-10 0.0 1.7863577e-10 1.14129595e-10 -2.4921853e-12 0.0
-8.805461e-12 7.544912e-11 2.2921162e-10 0.0 -2.4796372e-12 1.9699085e-10 0.0 1.09750195e-10
0.0 1.0426732e-11 0.0 0.0 4.781878e-12 2.637156e-12 0.0 0.0
0.0 7.54381e-13 0.0 0.0 1.0387162e-11 0.0 8.483615e-12 1.3597483e-12
0.0 0.0 0.0 0.0 0.0 0.0 0.0 5.2037203e-12
5.9978676e-12 1.8421924e-12 0.0 0.0 4.1863474e-12 1.8680404e-11 5.2413286e-12 0.0
0.0 1.5161178e-11 1.2267982e-12 0.0 6.629406e-12 0.0 0.0 2.0769788e-12
0.0 0.0 0.0 0.0 0.0 0.0 3.4111737e-12 0.0
1.4733422e-12 0.0 0.0 0.0 1.9948928e-11 2.3654527e-12 8.032294e-12 0.0
0.0 0.0 0.0 0.0 2.8224077e-12 0.0 0.0 7.4258065e-12
00000000: 0000 0000 d275 9a3a 4d9f 923a d7fe d433
00000010: d847 a33a ab75 b7ad 0000 0000 0000 0000
00000020: c06e a93a ecc3 e639 0000 0000 11bb b7ae
00000030: b18b e93a 0000 0000 7a1f c4ba 2967 473a
00000040: 51ac edab 8938 803a 0000 0000 a6db 943a
00000050: 0000 0000 0000 0000 0000 0000 f7f4 6e39
00000060: b9d2 32b9 b4ed 15ba 7a14 2539 0000 0000
00000070: 8dd4 35ba 575c b0b9 568f 08ba 0000 0000
00000080: 0000 0000 24a0 72b9 dd09 863a 0000 0000
00000090: 1e88 5b39 0000 0000 0000 0000 f701 373a
000000a0: 0000 0000 0000 0000 90d2 ed39 0000 0000
000000b0: ce51 023b a350 27ad 957e 1dad 265b b23a
000000c0: 1ca9 81ba 4b49 85b2 0743 a8b0 0000 0000
000000d0: b3ce 16b9 2fcf ef39 8ea3 45ba 0000 0000
000000e0: 3beb ec2d 971c ad3a 23c8 bf3a 4a7b 8bb1
000000f0: 89f4 87ab 97bc e63a 0000 0000 b73d 2339
00000100: 0000 0000 f826 5630 4587 c52f 0000 0000
00000110: a4e9 2830 0000 0000 0000 0000 0000 0000
00000120: 8b3c b72f 22d9 ff2f 0000 0000 0000 0000
00000130: c4e6 4130 0000 0000 2c43 5930 a2d4 0a30
00000140: 0000 0000 0000 0000 0000 0000 0000 0000
00000150: 0000 0000 0000 0000 0000 0000 c7b1 3430
00000160: c5f2 7630 0335 0730 0000 0000 0000 0000
00000170: d0a1 442f badc e130 4d8b 672f 0000 0000
00000180: 0000 0000 5bfa ba30 1317 102f 0000 0000
00000190: 44ec 3430 0000 0000 0000 0000 2c80 1630
000001a0: 0000 0000 0000 0000 abd6 dd2e 0000 0000
000001b0: 2db1 332c 0000 0000 0000 0000 0000 0000
000001c0: 0a20 3930 0000 0000 0000 0000 0000 0000
000001d0: 480f c230 6965 0330 d4f2 bf2f 0000 0000
000001e0: 0000 0000 0000 0000 0000 0000 0000 0000
000001f0: 0000 0000 0000 0000 0000 0000 fc83 0a30
00000200: 0000 0000 be44 872f 23aa ec2e a2cd 1e29
00000210: fddc 7e2f dcaf b9ac 0000 0000 0000 0000
00000220: 18cd 0a2f 7265 542e 0000 0000 0000 0000
00000230: 5b76 b52f 0000 0000 dc03 71ae c3c7 592e
00000240: 9673 1d2c e5af 20ac 0000 0000 143a 182c
00000250: 0000 0000 0000 0000 0000 0000 56f6 852c
00000260: 3bec 112f 8485 87ad f2a6 282b 0000 0000
00000270: 03be 81ad 1ad5 592f b955 26ad 0000 0000
00000280: 0000 0000 da49 3d2f 6f71 252f 0000 0000
00000290: c4aa 802e 0000 0000 0000 0000 95e4 242f
000002a0: 0000 0000 0000 0000 2a20 202e 0000 0000
000002b0: e211 622f 9c83 3b2d 5742 d7ac a589 742e
000002c0: 4981 cbad 88e9 782b f9b2 162f 0000 0000
000002d0: 8069 442f 40f9 fa2e 385f 2fac 0000 0000
000002e0: 45e8 1aad 14ea a52e 5605 7c2f 0000 0000
000002f0: 2c7d 2eac ff97 582f 0000 0000 de57 f12e
00000300: 0000 0000 d46d 372d 0000 0000 0000 0000
00000310: 543f a82c c792 392c 0000 0000 0000 0000
00000320: 0000 0000 e156 542b 0000 0000 0000 0000
00000330: 9ebb 362d 0000 0000 ce3e 152d 185e bf2b
00000340: 0000 0000 0000 0000 0000 0000 0000 0000
00000350: 0000 0000 0000 0000 0000 0000 f216 b72c
00000360: fd07 d32c fda1 012c 0000 0000 0000 0000
00000370: 444b 932c 8850 a42d b169 b82c 0000 0000
00000380: 0000 0000 f05b 852d 10a8 ac2b 0000 0000
00000390: 6140 e92c 0000 0000 0000 0000 8627 122c
000003a0: 0000 0000 0000 0000 0000 0000 0000 0000
000003b0: 0000 0000 0000 0000 3e0a 702c 0000 0000
000003c0: bf5a cf2b 0000 0000 0000 0000 0000 0000
000003d0: fe78 af2d 3574 262c 3c4e 0d2d 0000 0000
000003e0: 0000 0000 0000 0000 0000 0000 0000 0000
000003f0: fa9b 462c 0000 0000 0000 0000 dca2 022d

exp_avg_sq f4 [64, 64]
0.0 6.3690524e-05 2.3854314e-05 4.2187456e-12 5.7422538e-05 1.585481e-08 0.0 0.0
2.2480528e-05 2.1966192e-05 0.0 3.8615296e-12 9.055532e-05 0.0 2.0173258e-05 2.9202347e-05
4.1403463e-09 7.904303e-06 0.0 6.0865773e-06 0.0 0.0 0.0 2.4782017e-05
5.171275e-05 9.122221e-06 5.7375352e-08 0.0 3.6919425e-06 0.00013111426 1.7757876e-06 0.0
0.0 0.0001076259 8.570625e-06 0.0 2.5929605e-05 0.0 0.0 3.6609472e-05
0.0 0.0 3.7939712e-06 0.0 3.0117582e-05 4.9577235e-08 2.1364137e-08 6.292246e-06
1.9972274e-05 1.1707232e-09 1.5108506e-06 0.0 8.7744505e-05 2.0885605e-05 4.0370182e-06 0.0
4.957399e-08 1.2400623e-05 1.6899729e-05 2.5616594e-13 9.335688e-09 2.0613794e-05 0.0 2.9182047e-05
0.0 1.4794863e-07 3.146769e-08 0.0 9.204281e-08 0.0 0.0 0.0
2.7078793e-08 5.279221e-08 0.0 0.0 1.2129075e-07 0.0 1.5227688e-07 6.21779e-08
0.0 0.0 0.0 0.0 0.0 0.0 0.0 1.05330706e-07
1.967332e-07 5.897446e-08 0.0 0.0 7.795685e-09 6.582825e-07 1.080968e-08 0.0
0.0 4.511345e-07 4.1861434e-09 0.0 1.0559723e-07 0.0 0.0 7.307046e-08
0.0 0.0 2.480615e-09 0.0 1.589436e-12 0.0 0.0 0.0
1.1055951e-07 0.0 0.0 0.0 4.8595524e-07 5.569689e-08 2.9714975e-08 0.0
0.0 0.0 0.0 0.0 0.0 0.0 0.0 6.189604e-08
0.0 5.129566e-06 3.339001e-07 7.397261e-12 3.9549896e-06 2.3363263e-08 0.0 0.0
8.617355e-07 2.4097818e-07 0.0 0.0 9.219292e-06 0.0 6.505138e-07 3.6034044e-07
8.864723e-09 2.2180868e-09 0.0 5.3223002e-11 0.0 0.0 0.0 4.6396556e-07
1.5030628e-06 1.0428514e-07 1.0327654e-09 0.0 2.1348579e-07 6.102435e-06 2.4286672e-07 0.0
0.0 4.4208155e-06 1.0559162e-06 0.0 6.440811e-07 0.0 0.0 1.2764714e-06
0.0 0.0 6.8308594e-08 0.0 2.5916988e-06 8.852852e-08 3.34704e-08 1.0477574e-07
8.9514714e-08 2.650306e-09 2.0076077e-06 0.0 5.4212346e-06 9.2066955e-07 4.5810683e-07 0.0
1.9037588e-08 4.384897e-07 3.8549783e-06 0.0 2.5108518e-08 2.6894033e-06 0.0 1.4823967e-06
0.0 1.0256144e-06 0.0 0.0 2.1960486e-07 7.360995e-08 0.0 0.0
0.0 4.5121875e-09 0.0 0.0 1.0603652e-06 0.0 6.895599e-07 2.020025e-08
0.0 0.0 0.0 0.0 0.0 0.0 0.0 2.6480805e-07
3.344482e-07 2.92449e-08 0.0 0.0 1.6958697e-07 3.302243e-06 2.5393751e-07 0.0
0.0 2.1722647e-06 1.6501417e-08 0.0 4.3275418e-07 0.0 0.0 3.7208324e-08
0.0 0.0 0.0 0.0 0.0 0.0 1.2054531e-07 0.0
1.8027427e-08 0.0 0.0 0.0 3.8512676e-06 5.212815e-08 6.365494e-07 0.0
0.0 0.0 0.0 0.0 8.426519e-08 0.0 0.0 5.4745857e-07
00000000: 0000 0000 9791 8538 c01a c837 156f 942c
00000010: fbd8 7038 1931 8832 0000 0000 0000 0000
00000020: 9194 bc37 0a44 b837 0000 0000 91dd 872c
00000030: 84e8 bd38 0000 0000 be39 a937 90f7 f437
00000040: df42 8e31 b99c 0437 0000 0000 4d3b cc36
00000050: 0000 0000 0000 0000 0000 0000 fae2 cf37
00000060: 24e6 5838 a40b 1937 de6c 7633 0000 0000
00000070: 17c3 7736 b77b 0939 9957 ee35 0000 0000
00000080: 0000 0000 37b5 e138 8eca 0f37 0000 0000
00000090: 6783 d937 0000 0000 0000 0000 1f8d 1938
000000a0: 0000 0000 0000 0000 ee9b 7e36 0000 0000
000000b0: 04a5 fc37 bfee 5433 3c84 b732 fb21 d336
000000c0: 228a a737 29e7 a030 6ec8 ca35 0000 0000
000000d0: 7903 b838 7f33 af37 b975 8736 0000 0000
000000e0: 2eeb 5433 450c 5037 e4c3 8d37 6735 902a
000000f0: ca62 2032 c9eb ac37 0000 0000 f8cb f437
00000100: 0000 0000 cfdb 1e34 1727 0733 0000 0000
00000110: 12a9 c533 0000 0000 0000 0000 0000 0000
00000120: e59a e832 a6bd 6233 0000 0000 0000 0000
00000130: 263c 0234 0000 0000 8d81 2334 a986 8533
00000140: 0000 0000 0000 0000 0000 0000 0000 0000
00000150: 0000 0000 0000 0000 0000 0000 2b32 e233
00000160: 9c3d 5334 1b4b 7d33 0000 0000 0000 0000
00000170: c9ed 0532 d4b4 3035 7ab5 3932 0000 0000
00000180: 0000 0000 7433 f234 b5d5 8f31 0000 0000
00000190: b1c4 e233 0000 0000 0000 0000 e9ea 9c33
000001a0: 0000 0000 0000 0000 7177 2a31 0000 0000
000001b0: 78b1 df2b 0000 0000 0000 0000 0000 0000
000001c0: bc6c ed33 0000 0000 0000 0000 0000 0000
000001d0: 9772 0235 6137 6f33 ec3f ff32 0000 0000
000001e0: 0000 0000 0000 0000 0000 0000 0000 0000
000001f0: 0000 0000 0000 0000 0000 0000 b5eb 8433
00000200: 0000 0000 a31e ac36 e142 b334 4d22 022d
00000210: 1ab5 8436 5cb0 c832 0000 0000 0000 0000
00000220: 0352 6735 ca5f 8134 0000 0000 0000 0000
00000230: 8fac 1a37 0000 0000 f89e 2e35 d074 c134
00000240: 774b 1832 ff6c 1831 0000 0000 c613 6a2e
00000250: 0000 0000 0000 0000 0000 0000 f116 f934
00000260: d8bc c935 5df3 df33 34f1 8d30 0000 0000
00000270: 873a 6534 84c3 cc36 5963 8234 0000 0000
00000280: 0000 0000 8456 9436 01b9 8d35 0000 0000
00000290: ebe4 2c35 0000 0000 0000 0000 3953 ab35
000002a0: 0000 0000 0000 0000 0cb1 9233 0000 0000
000002b0: 0ced 2d36 121d be33 18c1 0f33 1201 e133
000002c0: 3c3b c033 ad20 3631 70ba 0636 0000 0000
000002d0: 0de8 b536 ee23 7735 b9f1 f534 0000 0000
000002e0: 1988 a332 9169 eb34 035a 8136 0000 0000
000002f0: 37ae d732 997b 3436 0000 0000 c3f6 c635
00000300: 0000 0000 d8a7 8935 0000 0000 0000 0000
00000310: 86cc 6b34 7f13 9e33 0000 0000 0000 0000
00000320: 0000 0000 9f09 9b31 0000 0000 0000 0000
00000330: df51 8e35 0000 0000 321a 3935 d284 ad32
00000340: 0000 0000 0000 0000 0000 0000 0000 0000
00000350: 0000 0000 0000 0000 0000 0000 f12a 8e34
00000360: 368e b334 3736 fb32 0000 0000 0000 0000
00000370: b617 3634 1a9c 5d36 e854 8834 0000 0000
00000380: 0000 0000 39c7 1136 00bf 8d32 0000 0000
00000390: 4855 e834 0000 0000 0000 0000 fcce 1f33
000003a0: 0000 0000 0000 0000 0000 0000 0000 0000
000003b0: 0000 0000 0000 0000 3e6f 0134 0000 0000
000003c0: bbda 9a32 0000 0000 0000 0000 0000 0000
000003d0: 233a 8136 82e3 5f33 57df 2a35 0000 0000
000003e0: 0000 0000 0000 0000 0000 0000 0000 0000
000003f0: 47f5 b433 0000 0000 0000 0000 11f5 1235

exp_avg f4 [64]
0.0005492816 1.980054e-09 6.160241e-10 3.597357e-11 5.9652634e-15 0.0 -0.0021883638 1.9530195e-11
3.9704975e-12 7.343736e-07 -0.007204103 0.0 0.0016834084 0.0 -0.0021156976 7.636871e-10
0.0 -0.00068367424 0.0 0.0 -6.975283e-05 2.1851925e-07 -0.006223606 -0.008637134
0.0 0.0 0.0074131885 0.0 -0.0020764072 1.4205471e-11 0.0 -0.003923836
0.017170947 0.0 0.0 0.008997982 0.0 -0.005191756 0.0 0.0
0.0 0.0 -0.0026398227 0.0048089335 0.000868318 -0.0026339297 0.0 0.001303345
-0.0003518519 0.0069965 0.0 -0.0069619417 0.0 -0.0060715377 0.010922227 0.0
0.0 0.0 1.258134e-10 1.7617931e-10 0.0 0.0 -0.00033687043 0.0025172248
00000000: aafd 0f3a 7a11 0831 d854 2930 a436 1e2e
00000010: d8eb d627 0000 0000 a76a 0fbb 17ca ab2d
00000020: 10b3 8b2c c521 4535 6510 ecbb 0000 0000
00000030: d0a5 dc3a 0000 0000 84a7 0abb b4eb 5130
00000040: 0000 0000 9a38 33ba 0000 0000 0000 0000
00000050: 4448 92b8 1da2 6a34 64ef cbbb c482 0dbc
00000060: 0000 0000 0000 0000 55ea f23b 0000 0000
00000070: 5514 08bb c1e7 792d 0000 0000 8693 80bb
00000080: 16aa 8c3c 0000 0000 0000 0000 466c 133c
00000090: 0000 0000 9b1f aabb 0000 0000 0000 0000
000000a0: 0000 0000 0000 0000 e000 2dbb 4294 9d3b
000000b0: d69f 633a 029e 2cbb 0000 0000 00d5 aa3a
000000c0: c378 b8b9 e542 e53b 0000 0000 0021 e4bb
000000d0: 0000 0000 c0f3 c6bb 24f3 323c 0000 0000
000000e0: 0000 0000 0000 0000 5355 0a2f 11b6 412f
000000f0: 0000 0000 0000 0000 fc9d b0b9 06f8 243b

exp_avg_sq f4 [64]
0.0002906351 9.556496e-07 4.0198953e-05 1.2419313e-05 3.8476305e-12 0.0 6.870626e-05 9.922604e-07
2.5482635e-10 0.00010824733 0.00052017666 0.0 0.00069160224 0.0 0.00017026966 5.0033236e-07
0.0 0.00041006732 0.0 0.0 0.00023823472 8.0030364e-11 0.00058085425 0.00060475373
0.0 0.0 0.0005401074 0.0 0.000671198 1.6226828e-06 0.0 4.2552147e-05
0.00026010975 0.0 0.0 0.00096300157 0.0 0.0001819584 0.0 0.0
0.0 0.0 0.0003879649 0.0004814893 1.4753114e-06 3.437995e-05 0.0 6.27095e-05
0.000168954 0.000607394 0.0 0.00082474604 0.0 0.0004664087 0.0008283734 0.0
0.0 0.0 0.0001472009 3.2633994e-05 0.0 0.0 0.00053272577 0.00029533196
00000000: 6260 9839 df43 8035 4c9b 2838 8b5c 5037
00000010: 6060 872c 0000 0000 6416 9038 cf2d 8535
00000020: 9f17 8c2f d802 e338 775c 083a 0000 0000
00000030: a44c 353a 0000 0000 6a8a 3239 944e 0635
00000040: 0000 0000 4efe d639 0000 0000 0000 0000
00000050: a5ce 7939 17fd af2e 7844 183a 5688 1e3a
00000060: 0000 0000 0000 0000 fe95 0d3a 0000 0000
00000070: 56f3 2f3a f5ca d935 0000 0000 057a 3238
00000080: 575f 8839 0000 0000 0000 0000 f171 7c3a
00000090: 0000 0000 16cc 3e39 0000 0000 0000 0000
000000a0: 0000 0000 0000 0000 c467 cb39 6670 fc39
000000b0: 5003 c635 3133 1038 0000 0000 e882 8338
000000c0: 3e29 3139 8539 1f3a 0000 0000 c533 583a
000000d0: 0000 0000 5188 f439 3327 593a 0000 0000
000000e0: 0000 0000 0000 0000 f159 1a39 7ce0 0838
000000f0: 0000 0000 0000 0000 9fa6 0b3a c9d6 9a39
