rl_models/agent_0_B1_CONSERVATIVE_INVESTOR.pt (torch, 68553 bytes, 18 tensors)

fc1.weight f4 [64, 8]
000000 6c e3 b0 3e 23 90 bc bd c0 68 47 3d ad 63 be 3c
       0.3454851 -0.092071794 0.04868388 0.023240888
000010 10 e0 b2 3e 9c 56 b1 3e 14 23 ca bd 06 dd ab 3e
       0.3493657 0.3463639 -0.09869972 0.33567065
000020 da e8 28 be e0 64 a6 3e 41 11 67 be b6 a9 86 3e
       -0.16495076 0.32498837 -0.22565176 0.26301354
000030 e3 0a 0b 3e 2a 03 a6 3d 93 a0 a3 3e 13 eb 64 3e
       0.13578372 0.08106072 0.31958446 0.22355299
000040 4c 88 88 3d d8 f7 b9 3d 10 ab 99 bd 31 36 34 3e
       0.066666216 0.090804756 -0.07503331 0.17598797
000050 fc f5 91 3d 59 b1 ee 3d 08 4f cb 3d cf f5 94 bd
       0.07126996 0.1165492 0.099271834 -0.07273447
000060 6e 3f 36 3e 7a 0c 45 bd 6e dc ac 3d a9 65 b7 3e
       0.17797634 -0.0481076 0.08440481 0.35819748
000070 61 ad b4 3e 67 3d bb 3e 02 06 28 bd 24 87 0c 3e
       0.35288528 0.36570284 -0.041021354 0.13723427
000080 3d 45 25 bc a6 a2 b0 3c 2d 2f c5 3c f8 29 00 be
       -0.0100873085 0.021561932 0.024070347 -0.1251601
000090 83 bf 83 be 7a 72 ae 3c 1d 43 2b 3c 42 62 ca 3c
       -0.2573205 0.021294821 0.010453013 0.024705056
0000a0 55 51 d3 3d 82 40 78 3e d8 5f a5 3e 98 0c 6c 3e
       0.10318247 0.24243358 0.32299685 0.23051679
0000b0 42 16 b7 3e ee f2 8a 3e 37 ab e3 bd 23 a4 19 3e
       0.3575917 0.27138466 -0.11116641 0.1500402
0000c0 fc bc ee 3d be 90 19 be a5 11 8c bd 8f 78 bb 3e
       0.1165714 -0.14996621 -0.06839303 0.36615416
0000d0 bd 97 c0 3d 56 8f 8f bd e3 2e 24 3d 7e 84 5b 3e
       0.09403942 -0.07009761 0.040083777 0.2143726
0000e0 13 bd 00 be d4 07 f8 3d ae 7b 4d 3c f0 b4 86 be
       -0.12572126 0.12110868 0.012541695 -0.2630992
0000f0 83 00 6c be 52 09 4c be e2 97 ce bb d2 3f 53 3b
       -0.2304707 -0.1992543 -0.006304727 0.0032234085
000100 e5 5e 9f 3d 4d 9a f8 bc dd 7c 9e 3d 23 6b 07 3e
       0.077817716 -0.030347014 0.077386595 0.13224463
000110 50 51 a3 3e 04 06 c6 3e 66 7a 8e bd e0 63 af 3e
       0.31897974 0.38676465 -0.069569394 0.34255886
000120 70 a6 60 3d 43 87 c7 3d 89 b2 a4 3d 2c ba 91 be
       0.054846227 0.09742596 0.080418654 -0.2846235
000130 41 ef 20 be 8d 86 0c be 68 45 53 3e 3b 3e 4d 3e
       -0.15716268 -0.13723202 0.20631945 0.2004327
000140 63 28 76 3e 2c a4 56 3e 2c 23 0a bd ec e8 7a 3e
       0.24038844 0.20961064 -0.03372495 0.24502915
000150 cd 5e 81 bd 17 02 3a be ba 6a af bd 0f 04 8a 3e
       -0.0631691 -0.1816486 -0.08565278 0.2695622
000160 3f b8 0f 3e 65 0d 79 bd 4a 79 c5 3d d8 59 d3 bc
       0.14035128 -0.06080379 0.09642275 -0.025799677
000170 c4 f3 79 3e 29 26 59 3e 1c 77 66 3e 35 4b 78 3e
       0.24409395 0.21205963 0.22506374 0.24247439
000180 fe 65 6b 3e 64 53 30 bc 45 53 8f be 22 e8 b0 bd
       0.22988126 -0.010762069 -0.27993217 -0.08638026
000190 d9 72 51 be c3 10 69 3e a1 5a 89 3e a3 8c 81 be
       -0.20453967 0.227603 0.26826957 -0.2530261
0001a0 85 fe 3e 3d 2d 08 93 3e 8e f5 20 3e c5 93 dc bd
       0.046629447 0.28717175 0.15718672 -0.10770372
0001b0 81 c7 e2 bd 4a e5 80 bd 81 d0 f9 3d f3 a7 99 3e
       -0.110732086 -0.062937334 0.12197972 0.30010948
0001c0 42 11 2d bd 61 a5 82 be 94 02 8f 3e dd 0d 21 3e
       -0.042252786 -0.255168 0.27931654 0.15727945
0001d0 dc 4a 91 be 24 f8 f4 bd 29 2f 10 3d 39 bb 92 3e
       -0.28377426 -0.119613916 0.035201225 0.28658465
0001e0 0a 3a 64 3e 26 c7 d2 3d b6 8a 59 3e b9 4e fc bc
       0.22287765 0.10291891 0.2124432 -0.030799257
0001f0 26 43 eb 3c d5 32 96 3e 8d 2e ed 3c b9 9a 94 3e
       0.028718542 0.29335657 0.028952861 0.29024294
000200 c6 5c 41 be 0b 05 0a be ce e2 c5 bd 0b e3 4c 3d
       -0.18883047 -0.13478486 -0.096624 0.050021213
000210 a6 2c f3 3c 29 f2 c9 bd 45 21 b3 bd 1e 4c 51 be
       0.029684376 -0.098606415 -0.0874658 -0.20439193
000220 c3 2e 15 be 39 eb 21 bd 3f 1d 70 3e 57 67 90 be
       -0.1456862 -0.039530966 0.23448656 -0.28203842
000230 ae b9 2e be 62 a6 55 3e 13 c9 80 3e d8 d5 89 be
       -0.17063019 0.20864251 0.25153407 -0.26920962
000240 f5 7b 2b be 7a 42 a1 bd ec a1 37 bd 04 a0 05 3e
       -0.16746505 -0.078740075 -0.044832155 0.13049322
000250 76 05 b6 bd 86 be 2c be 22 e3 85 be dd e6 0c 3e
       -0.0888776 -0.16869554 -0.2614985 0.13759942
000260 2f 81 c3 3d ac 52 96 3c f5 ec e6 bd a3 ff 10 3d
       0.09546124 0.018349968 -0.11275665 0.035400044
000270 cd 34 10 be f9 7b 69 be 61 9c f7 3d 56 0d 73 3e
       -0.14082642 -0.22801198 0.12090374 0.23735556
000280 b3 87 32 3a ab cb 3a be a4 a4 2c 3e 01 80 ec bd
       0.0006810382 -0.18241756 0.1685968 -0.11547852
000290 2c 19 c1 bd 95 c0 b7 3d 1d 15 e7 3d 16 44 22 be
       -0.09428629 0.08972279 0.11283324 -0.15846285
0002a0 df 42 83 bd 97 9a 6a 3e 7a d3 12 be d8 70 f6 3c
       -0.06409239 0.22910534 -0.14338484 0.030083105
0002b0 33 6f 25 bd 2a c4 e7 3d 61 8c 8a 3e 30 d3 48 3e
       -0.04038925 0.11316712 0.27060226 0.19611812
0002c0 a6 1d 51 bd 09 d9 14 3e 8d a1 9b bd 0c c1 8d be
       -0.051053666 0.14535917 -0.07599173 -0.27686346
0002d0 47 9b 87 3e 33 dd 27 be f6 28 03 3d 29 01 51 be
       0.26485655 -0.16392975 0.032021485 -0.20410599
0002e0 8f 50 81 bd 31 36 19 3e ec 53 8a 3c ed 89 4b 3e
       -0.063141935 0.14962079 0.01688572 0.19876833
0002f0 90 49 1f bd 83 45 84 be db 93 7d 3d 5c 13 72 be
       -0.038888514 -0.25834283 0.061908584 -0.23640198
000300 cf 1c 97 3d 2d ef c3 3d 61 69 5a 3e 5e 73 e4 bd
       0.07378542 0.095671035 0.21329261 -0.11154817
000310 97 61 46 3e 44 c2 17 3e 5e fe 2a 3d ca 52 95 3e
       0.19373165 0.148202 0.04174649 0.29164726
000320 40 63 aa 3d 94 c6 6d 3d 99 8b 60 3e ed 9b ac 3d
       0.08319712 0.058050707 0.21928252 0.08428178
000330 cd f9 0b be 0c b2 8a bb ab ce 03 be ab 0b 6c be
       -0.1366951 -0.0042326506 -0.12871806 -0.23051326
000340 04 ad 4d 3e 2e 23 3d be d9 10 c6 3d 66 cd 24 be
       0.20085531 -0.18470451 0.09671182 -0.16093978
000350 23 c6 3b 3e a4 86 33 3e 08 e8 b5 3e 0b b9 72 3e
       0.18337302 0.1753183 0.35528588 0.23703401
000360 9c 42 91 3e 46 4e e7 3d c9 1f 92 3e bf 6b 16 be
       0.2837113 0.11294226 0.28539875 -0.1468954
000370 d0 77 2d 3c 38 02 80 be dd 65 a1 3e f3 64 a0 3e
       0.010587648 -0.25001693 0.31523028 0.31327018
000380 b1 87 1b be 04 48 3c bd 3e 9b 90 3d 04 3f 96 3e
       -0.15188481 -0.045967117 0.0706086 0.29344952
000390 60 14 0b be 3e e8 6c 3e 14 29 33 3d 0d df 3b 3e
       -0.13581991 0.23135468 0.043740347 0.18346806
0003a0 cc 95 b2 3d e1 c9 3d be ef 17 69 3e 16 6c 53 3d
       0.08719978 -0.18534042 0.22763036 0.05161675
0003b0 6b a9 3e 3e ac 60 ce bd 02 04 9c be 09 de 62 be
       0.18619315 -0.100770324 -0.30471808 -0.22155012
0003c0 53 af 5f 3e e0 8b 40 bd 03 28 53 3e 8f f8 95 3e
       0.21844225 -0.047008395 0.20620732 0.29291198
0003d0 64 e8 4a 3e bc 04 8f 3e 0c 53 fd bd f0 b1 96 3e
       0.19815212 0.279333 -0.123693556 0.2943263
0003e0 92 3d 02 be 77 01 90 be d2 08 b9 3c a2 21 25 3e
       -0.127188 -0.28126118 0.022587214 0.16126111
0003f0 31 80 29 3e 9e 86 80 be 31 23 31 3e 42 f3 43 be
       0.16552807 -0.25102705 0.1729858 -0.19135764

fc1.bias f4 [64]
000000 6a 2a aa 3d b4 f2 e5 3d 84 9c 3a 3d 8c 15 a5 3d
       0.08308871 0.112279326 0.04555942 0.0806075
000010 00 00 00 00 79 84 d9 3d 33 04 b1 3d 00 00 00 00
       0.0 0.1062097 0.08643379 0.0
000020 cd 10 de 3d 00 00 00 00 91 34 92 3d d8 5c 00 bb
       0.10843048 0.0 0.071389325 -0.001958659
000030 00 c9 e0 3c bc 03 1f 3d cd 51 87 3c 67 44 1d 3d
       0.027439594 0.03882192 0.016518498 0.03839531
000040 00 00 00 00 00 00 00 00 09 63 82 bc 3b f1 b4 bc
       0.0 0.0 -0.015916364 -0.022087684
000050 79 84 48 bc 11 4a 26 bb 00 00 00 00 00 00 00 00
       -0.012238615 -0.0025373737 0.0 0.0
000060 7f 15 e4 3d 2d 9e 24 bc a1 cb 99 3d 39 e7 44 3c
       0.111369126 -0.010047478 0.07509542 0.012018018
000070 46 a7 0b 3d ae cf 5b bd db 77 8d 3d b1 a1 aa bb
       0.03409507 -0.053664856 0.06907626 -0.0052072634
000080 00 00 00 00 82 9b e2 3d 6c 5f a3 3d 00 00 00 00
       0.0 0.11064817 0.07977185 0.0
000090 00 00 00 00 be 5d 69 3d 00 00 00 00 22 9c 41 3d
       0.0 0.056974165 0.0 0.04726804
0000a0 00 00 00 00 34 aa 3e 3d e7 26 8b 3d 6a 58 95 3d
       0.0 0.046549037 0.067945294 0.07292254
0000b0 27 07 81 3d 00 00 00 00 de 4c b2 3d 48 61 65 3d
       0.06300192 0.0 0.087060675 0.056000978
0000c0 b2 98 ce 3d 00 00 00 00 00 00 00 00 00 00 00 00
       0.10087718 0.0 0.0 0.0
0000d0 00 00 00 00 00 00 00 00 16 09 bf bb 9f f9 aa 3d
       0.0 0.0 -0.0058299406 0.08348393
0000e0 00 00 00 00 00 00 00 00 f4 f2 bf 3d f5 25 68 3d
       0.0 0.0 0.093725115 0.056676824
0000f0 00 00 00 00 23 d6 c4 3d d0 db db 3d d3 08 9d 3d
       0.0 0.09611156 0.10735285 0.07667699

fc2.weight f4 [64, 64]
000000 8a 0e 4f be 55 9d c5 3d 92 f1 a9 bd 19 0d e1 bc
       -0.2022039 0.09649149 -0.08298029 -0.027472066
000010 b2 0d 74 bd c0 9b 5a 3e 00 bd a9 3d 8d 15 41 3e
       -0.059583373 0.21348476 0.08288002 0.18855877
000020 71 bd 3d be 5e 84 71 bc a9 8d 36 3e f0 1f 50 bd
       -0.18529297 -0.014741031 0.17827477 -0.050811708
000030 c7 d4 09 be a7 a8 4f be 48 31 19 be 22 97 48 3e
       -0.13460074 -0.2027918 -0.14960206 0.19588903
000040 11 01 a3 3d 2c 34 16 3e e1 ba 6d 3d 3c 27 11 3e
       0.07959188 0.1466834 0.05803955 0.14175123
000050 71 2f 30 3e 7f b2 23 be 5a 9e 43 bb a0 aa 39 be
       0.17205597 -0.1598606 -0.0029849024 -0.18131495
000060 16 35 84 bd 78 4b 2e 3c b0 39 bb 3d a9 42 8f 3b
       -0.06455438 0.01063811 0.091418624 0.00437196
000070 6c 9e 00 bd e2 d3 d0 bd 2b 33 ac 3d 86 23 2a be
       -0.031401083 -0.101966634 0.08408197 -0.16615114
000080 6a 68 9f bd 50 ed af bd 5c 08 eb bd a5 f0 81 3d
       -0.07783587 -0.08590186 -0.11476204 0.063447274
000090 50 fe a0 bd 14 56 25 be d3 3f 66 3d 19 97 37 3e
       -0.07861006 -0.16146117 0.05621321 0.17928733
0000a0 37 27 b5 bd 00 ad 46 be b5 4b 13 be d4 79 99 3d
       -0.0884537 -0.19401932 -0.14384349 0.0749394
0000b0 0f 50 4a be fe b8 1e 3d ce 13 db 3a 5b 5c 4e 3e
       -0.19757102 0.03875064 0.0016714276 0.20152418
0000c0 ad 00 c2 bd 76 9a e6 bd 05 5e 99 bd c0 56 69 bd
       -0.09472785 -0.1125993 -0.07488636 -0.056967497
0000d0 6c 0e 3e 3e e7 f9 4b 3e be e7 4a be 96 37 42 be
       0.18560189 0.19919549 -0.19814965 -0.18966517
0000e0 e5 be 4c 3e 12 87 81 bd 18 fa 2a 3e a2 1f 86 bc
       0.19994695 -0.06324591 0.16696966 -0.016372506
0000f0 67 fc 3b 3e f5 fc 32 3e d9 4a 5c be 8a c2 db bd
       0.18358003 0.17479308 -0.21512927 -0.10730465
000100 59 b5 14 be 5a ae 37 be dd 26 2b 3e 04 b3 9f bd
       -0.14522304 -0.17937604 0.16714044 -0.077978164
000110 0c d6 be 3d 89 e1 94 3d 31 bf f4 bd 33 61 38 3d
       0.0931817 0.0726958 -0.11950529 0.04501457
000120 20 97 2a be d5 36 36 3c 53 47 cf bc b7 e4 ef 3d
       -0.16659212 0.011121471 -0.025302565 0.11713546
000130 9b 50 a5 3d c3 cc 02 3c 17 13 9b bd ca bc f8 bc
       0.08072015 0.007983389 -0.075720005 -0.03036346
000140 1e 73 01 3e 6a 5a e6 3d 3d 07 54 be 97 65 2e 3e
       0.1264157 0.11247714 -0.20705886 0.17030941
000150 48 bd 19 3e 4a 24 02 3e 29 58 55 3e 94 f9 38 3e
       0.15013611 0.12709156 0.20834412 0.18063956
000160 15 cb c7 3c 5c e2 21 be de b5 5b 3e 67 df 4c 3e
       0.02438883 -0.15809005 0.21456096 0.20007096
000170 d6 cd 38 be 6a 34 f7 bd 60 86 39 bd 8b 32 07 3e
       -0.1804727 -0.12070544 -0.045294166 0.13202874
000180 5b c1 1d be 91 f3 20 be 5f ec 99 3c c3 e8 3a 3e
       -0.1540579 -0.15717913 0.018789468 0.18252854
000190 5a 49 14 be 6a eb 01 be 9c 98 9e 3d 08 04 8e bd
       -0.14481106 -0.1268746 0.07743952 -0.06934363
0001a0 cf f6 57 3e 55 f3 3d 3e a2 ad b2 bd 68 45 d5 3d
       0.21090244 0.18549855 -0.08724524 0.10413629
0001b0 58 32 77 bd 7d 37 06 be 78 fb 3a 3d ac cf 8f bd
       -0.060350746 -0.13107105 0.045649976 -0.07022032
0001c0 20 c2 4b 3e 85 0b 50 3e be 20 06 3e 41 ec e0 bd
       0.19898272 0.20316894 0.13098428 -0.10982562
0001d0 dc 04 d5 bd 3e 79 a8 bd 71 a9 b0 bd 1b 1d 4f 3c
       -0.104013175 -0.0822625 -0.086260684 0.012641217
0001e0 e3 dd 5a be 4c 7c 2b be 79 14 5f bd be 17 c6 bd
       -0.21373706 -0.16746634 -0.054462884 -0.09672497
0001f0 2d 3e 00 3e 23 84 79 3d ee 2f 94 bd 82 d0 a3 3d
       0.12523718 0.06091703 -0.07235704 0.07998754
000200 a3 46 07 3e f6 e2 03 be e0 25 1e be 26 b0 09 be
       0.1321054 -0.12879547 -0.15444136 -0.13446102
000210 1e 00 4c 3e 49 de 9e 3b e5 03 43 3e 91 34 44 3e
       0.1992192 0.004848276 0.19044454 0.19160677
000220 b2 43 33 3e e5 5d 24 3e 69 ae 34 3e 7c 39 13 be
       0.17506292 0.16051443 0.17644657 -0.14377397
000230 e4 84 8e bd de dd 4d 3c 5f 5b 57 be 49 a6 25 be
       -0.069589406 0.012565104 -0.21030949 -0.16176714
000240 2b 20 4c be d5 30 32 bd 33 a7 8c bd 35 37 48 3e
       -0.19934146 -0.0435036 -0.06867828 0.1955231
000250 7b 41 bb 3c 52 c4 5d bd a5 0b 39 be ee e0 11 be
       0.022858372 -0.054142304 -0.18070848 -0.1424596
000260 ed 8d 50 3d 15 22 af bc 5a 2e 80 3d ed f4 5d bd
       0.0509166 -0.021378556 0.06258841 -0.054188658
000270 bc 3a 00 be 4e b8 51 be 52 00 cc 3d 3e a4 98 bd
       -0.12522405 -0.20480463 0.099609986 -0.07453202
000280 cd 6b 40 3e ee 26 c5 bd d6 c5 56 3e 45 53 d1 bc
       0.18791123 -0.09626566 0.20973906 -0.025552401
000290 b1 10 09 3e f2 b5 47 be cb e1 82 3d a3 0b fe bd
       0.13385274 -0.19503 0.06390723 -0.12404563
0002a0 d8 77 95 bd 22 a6 85 bd 85 b5 19 3e f5 29 5b be
       -0.07298249 -0.06525828 0.1501065 -0.21402724
0002b0 f6 53 e1 bd 04 84 30 be 1a 04 0f be c0 66 0a bd
       -0.110023424 -0.1723786 -0.13966408 -0.033789396
0002c0 69 22 04 3c dd 8a 11 be e5 06 41 3d 6e 2c 31 3d
       0.008064845 -0.14213128 0.047125716 0.043255262
0002d0 d7 3b 26 bc 74 ee c7 3d 02 3a 13 be 03 ec 4b 39
       -0.010146103 0.09762278 -0.14377597 0.0001944751
0002e0 a5 b6 1a be d0 a7 92 bd 07 be e7 bd e7 66 1d be
       -0.15108736 -0.07160914 -0.11315542 -0.15371285
0002f0 6c d8 32 be f0 e7 a9 3d 45 c5 39 bd 8e 13 8f 3d
       -0.17465371 0.08296192 -0.045354147 0.06986152
000300 2a bd 53 be 1f e9 91 bd c9 83 3d be 85 13 07 3e
       -0.20677629 -0.071245424 -0.18507303 0.1319104
000310 b2 14 17 3e a7 98 a6 bd 67 8e 2d be a4 12 c9 3d
       0.14753988 -0.08134585 -0.16948853 0.098180085
000320 cc e5 56 be 6d e4 31 be bf cc ca bd 4b 7e da 3d
       -0.20986098 -0.17372294 -0.099023335 0.1066862
000330 29 aa d2 bd 31 f2 22 be 0c 87 fe bd ee 0d 4e 3d
       -0.10286362 -0.15912701 -0.12428102 0.050306253
000340 7e 0b ea 3d e8 2e 15 bd c2 9f 50 3d f1 61 3d bc
       0.11427973 -0.036421686 0.050933607 -0.011558996
000350 df 21 c5 bd 61 3c 91 3d e3 30 13 be be a0 04 be
       -0.09625601 0.070915945 -0.14374118 -0.12951943
000360 f0 0d ec 3d d0 16 d7 3c a3 13 3a be 66 69 44 be
       0.11526096 0.026255995 -0.18171553 -0.19180831
000370 59 81 84 3c 24 7b 13 be a6 c4 1a be 37 15 44 be
       0.016174959 -0.14402443 -0.15114078 -0.19148718
000380 35 96 2f 3e fb d8 76 bd ce da 3f be 79 8a 3a 3e
       0.17147143 -0.060265522 -0.18735811 0.18216886
000390 29 36 52 be 97 e2 40 be 62 87 9e 3d 0e 4f 5d bd
       -0.20528473 -0.18836437 0.07740666 -0.05403047
0003a0 e7 d9 07 3e bb ed 60 3d b1 b1 1a 3e 0c 4c 89 3d
       0.13266717 0.054914217 0.15106846 0.06703958
0003b0 02 05 0c bc 74 1d 6d ba 78 a4 27 be cf 5e ce bd
       -0.008546116 -0.00090452214 -0.16371334 -0.10076677
0003c0 47 9b 37 be 13 12 40 be 77 38 96 bd 81 ea da bd
       -0.17930327 -0.18756895 -0.073349886 -0.10689259
0003d0 64 7c 88 bd d3 12 cd bd cb 75 11 bb d6 01 24 3e
       -0.06664351 -0.10013356 -0.0022195454 0.16016325
0003e0 2f d7 2e be 44 ef 04 3e 39 7c 03 be 10 b2 9b 3c
       -0.17074274 0.12981898 -0.12840356 0.019005805
0003f0 a4 ec 81 3d 53 6c 58 3e 90 c5 ca bd 8b e9 69 bc
       0.06343964 0.21135072 -0.09900963 -0.014276872

fc2.bias f4 [64]
000000 00 00 00 00 00 00 00 00 00 00 00 00 00 00 00 00
       0.0 0.0 0.0 0.0
000010 1e 7a 72 3d 13 17 aa 3d 08 98 83 3c e7 29 88 bc
       0.05919849 0.08305182 0.016063705 -0.016621543
000020 00 00 00 00 00 00 00 00 ef 39 55 bc 50 5a 96 bc
       0.0 0.0 -0.013014301 -0.018353611
000030 00 00 00 00 7a 79 c3 bc 26 46 07 bc cb b6 f7 3c
       0.0 -0.023861635 -0.008256471 0.03023853
000040 00 00 00 00 0a 69 7c 3d ed 33 76 3d 63 e3 51 bb
       0.0 0.06162361 0.060108114 -0.0032026402
000050 00 00 00 00 30 7f 78 bc 00 00 00 00 00 00 00 00
       0.0 -0.015167043 0.0 0.0
000060 d7 5b c6 3c 00 00 00 00 a0 10 84 3d 18 1e 96 bc
       0.024213715 0.0 0.064484835 -0.018324897
000070 00 00 00 00 4c e3 96 bb 42 05 80 3d 00 00 00 00
       0.0 -0.0046047326 0.06251003 0.0
000080 26 ea 36 3d 7a 9d 1e bc c4 cb 59 3b 00 00 00 00
       0.044656895 -0.0096811 0.0033233026 0.0
000090 67 12 de 3a 49 e2 5f 3d ac 5a cc bb 00 00 00 00
       0.001694274 0.05465916 -0.006236395 0.0
0000a0 5c 87 c4 bc 61 c3 99 3d 00 00 00 00 00 00 00 00
       -0.023990326 0.07507969 0.0 0.0
0000b0 00 1a af 3d 51 30 fb bc 00 00 00 00 00 00 00 00
       0.08549881 -0.030662687 0.0 0.0
0000c0 80 77 af 3d 03 06 21 bd 6e a2 9a 3d ff 88 0a bd
       0.08567715 -0.039312374 0.07550512 -0.033822056
0000d0 bd 62 68 bc 02 fa 4d 3d e6 15 99 3d 20 53 94 3d
       -0.014183697 0.050287254 0.0747488 0.07242417
0000e0 69 be 1b 3d 43 4b 9b 3a 8a 05 b1 3d 8d 3b 44 3b
       0.038023386 0.0011847991 0.086436346 0.0029942722
0000f0 00 00 00 00 57 b5 85 bc bc 44 c3 3d a1 a7 02 bd
       0.0 -0.016321821 0.095345944 -0.031898145

fc3.weight f4 [4, 64]
000000 57 8e 5d 3e 46 54 4e 3e da 54 86 3e f4 2e 15 3e
       0.2163633 0.20149335 0.26236612 0.14568692
000010 ab 2e ad bd ec db 2b bd 81 aa ca bd 73 e8 46 be
       -0.08456167 -0.04195778 -0.09895802 -0.1942461
000020 1a 07 fa 3a f1 80 56 bc 6d eb 92 3e 05 b8 80 be
       0.0019075603 -0.013092265 0.2869524 -0.25140396
000030 7d 2a 16 3e 77 ee 80 bd c8 20 6e bd 53 e9 af be
       0.14664645 -0.062954836 -0.05813673 -0.343577
000040 4f 93 82 be f4 89 20 3e 39 33 aa be 83 58 17 be
       -0.25503013 0.15677625 -0.33242205 -0.14779858
000050 a9 0d b4 3d 71 60 88 be 51 63 94 3e 24 69 5b 3d
       0.08791668 -0.2663608 0.28982022 0.053567067
000060 6e 23 71 3e 16 ac ec bd 39 c1 59 3e 21 13 3a be
       0.23548672 -0.1155626 0.21265115 -0.1817136
000070 8c b4 cd 3d 69 1f 53 3d 3c c6 b9 be 4b d7 da 3d
       0.10044202 0.051543627 -0.36284053 0.10685595
000080 9a 22 79 be 81 28 90 be 12 86 ac be 0d 87 f0 3c
       -0.24329606 -0.28155902 -0.33696038 0.029361272
000090 fc 76 63 3c eb 88 88 be 3e 67 cd 3d 81 95 91 be
       0.013883349 -0.2666696 0.100294575 -0.28434375
0000a0 6e 25 94 be 3b 5c 87 be 3c 5d 3b be d1 7a 5b be
       -0.28934807 -0.26437554 -0.18297285 -0.2143357
0000b0 bd 02 a3 be 9f 69 7d 3e 93 34 21 3e 6e 74 4e 3e
       -0.31838027 0.24747322 0.15742712 0.20161602
0000c0 a1 1f 46 be 07 17 2c 3e b7 2f 70 be 61 c4 59 3d
       -0.19348003 0.16805659 -0.23455702 0.053165797
0000d0 f5 94 a0 3d cb f9 28 bb 52 6e 18 3e 10 92 82 be
       0.07840911 -0.0025783654 0.14885834 -0.25502062
0000e0 d7 a3 81 3c ad 8d 85 3e 88 64 e1 bd 60 2e 59 3e
       0.015825195 0.26084653 -0.11005503 0.21209097
0000f0 5b 96 93 3e f5 65 05 bd af 4b 9e 3d bc cf 47 3e
       0.2882565 -0.032567937 0.07729279 0.19512838
000100 e2 d1 42 bc dd 0e 95 3e 47 43 ae bd 2a fb df 3d
       -0.01189086 0.29112902 -0.08508926 0.109365776
000110 0c 48 8a 3e ed 98 7a be 70 43 b0 bd bd 4a 95 be
       0.27008092 -0.24472399 -0.08606613 -0.29158583
000120 67 f0 28 3e 14 12 8a be a4 b3 74 3e b9 3e d5 3d
       0.16497956 -0.26966918 0.23896652 0.10412354
000130 c6 8c 91 be 3f de 21 3e c7 e1 e5 3c ae 0d 47 3d
       -0.28427714 0.15807436 0.02806176 0.04859703
000140 99 4c de 3d 34 25 29 bb 7c 80 87 be 29 77 93 3e
       0.108544536 -0.0025809528 -0.26465213 0.2880185
000150 f0 6a fc bd b4 7e 38 be ba 99 95 be 0c bd 84 3c
       -0.12325084 -0.18017083 -0.29218847 0.016203426
000160 b8 42 9e be 32 4e 40 be 10 d0 a2 bd 59 42 32 be
       -0.30910277 -0.18779829 -0.07949841 -0.17408122
000170 4f b8 ea 3d 5a 0c 87 3e 7f ae 39 3d 0d 32 d8 3d
       0.11460935 0.2637661 0.045332428 0.105564214
000180 e1 30 f1 bc 02 3e 40 3e 45 e0 85 3e 5c b8 1c be
       -0.029442253 0.18773654 0.26147667 -0.15304703
000190 28 4c 4c bd 1d 50 de 3b cf 26 5d be 27 71 0f 3e
       -0.049877316 0.0067844526 -0.21596836 0.14008008
0001a0 0f 42 86 bd c6 ea 4b 3e 07 6a 9e bd 53 c1 7e 3e
       -0.065555684 0.19913778 -0.07735067 0.24878435
0001b0 76 ab 82 be 46 91 c3 bd ba 44 a9 3d 89 74 b8 3c
       -0.2552144 -0.09549193 0.08265062 0.022516506
0001c0 a5 c4 96 be 09 7c 61 3e 7a 72 a4 be 65 30 1c be
       -0.29446903 0.22019972 -0.3211859 -0.15252836
0001d0 9f d4 73 3d b4 e7 11 3e c8 72 8e be 23 bb 38 be
       0.059528943 0.14248544 -0.27821946 -0.18040137
0001e0 0f 3b a3 be 9f 04 76 3e 4a 43 59 3e 8c 8a b5 bc
       -0.31880996 0.240252 0.21217075 -0.02216079
0001f0 6a 48 23 3e af f5 76 3e f9 5d 0f 3e ad 14 8e 3e
       0.15945593 0.24117158 0.14000691 0.2775015
000200 84 15 92 be 21 86 e4 3c 33 05 1e 3e b6 c0 66 bd
       -0.2853204 0.027895989 0.15431671 -0.056336127
000210 e6 15 aa 3e 2b 8d 8b 3e 49 36 ac bd 6d 24 0a be
       0.33219832 0.2725614 -0.084087916 -0.13490458
000220 d8 b4 dd bc dc b2 5a 3e 07 6c 41 3e 6f 2b 5c be
       -0.027063772 0.21357292 0.18888865 -0.21500944
000230 32 32 42 3e eb 4c 4b bd 05 26 2d be b8 4d 27 3e
       0.1896446 -0.0496339 -0.16909035 0.16338241
000240 78 7f 21 3e 12 70 a2 3e f7 b3 92 3e db ad 11 bd
       0.15771282 0.31726128 0.28652927 -0.035566192
000250 73 ed 60 3e 6c 12 53 bc b0 b5 bb 3d 70 29 75 3e
       0.2196558 -0.01288281 0.091655135 0.23941588
000260 26 87 b0 3e be 73 8c 3d d8 80 bd 3e 52 f6 ff bd
       0.3447811 0.068580136 0.37012362 -0.12498154
000270 1e 1f 82 be 27 97 ee 3c a2 0c e6 3d 8e 25 78 3e
       -0.25414366 0.02912481 0.11232878 0.24233076
000280 ad 48 e0 bc ff 8d 5c bd 01 22 6c bc 3e bc 65 bd
       -0.027378405 -0.053846356 -0.014412404 -0.056087725
000290 17 50 8b bd 1d af 19 3d 0e 00 37 be e9 2b 71 bd
       -0.06802385 0.037520517 -0.17871115 -0.058879767
0002a0 48 a9 6c be fa 58 bb 3e ed 09 30 bc 0b 39 6a be
       -0.2311145 0.3659132 -0.010744554 -0.22873323
0002b0 e3 e8 8d 3e 58 0a 59 be f9 a8 94 be e9 be 2f 3e
       0.2771674 -0.21195352 -0.29035166 0.1716267
0002c0 b9 eb b6 3e bd de 93 3d 5e 4d 75 bc 8c 8b 83 be
       0.35726717 0.07220218 -0.014972059 -0.25692403
0002d0 7f 12 35 be 73 a7 41 3e 67 e6 df 3e f5 33 ab 3e
       -0.17682837 0.18911533 0.4373047 0.33438078
0002e0 ad f4 3e 3e 83 92 8a be 14 0d c2 3e c6 0d de bd
       0.18648024 -0.27064905 0.37900603 -0.10842471
0002f0 b1 1a 84 be 90 e3 f4 bc fc 09 d1 3e 7b f5 71 be
       -0.25801614 -0.029893667 0.4082793 -0.236288
000300 b9 29 b6 3c ac fe 90 be 82 99 ef bd 7b 21 7b 3d
       0.022236692 -0.283193 -0.11699201 0.061311226
000310 34 04 89 be fc b9 7b be 9c e3 97 be 30 f5 54 3c
       -0.2676102 -0.24582666 -0.2966584 0.01299791
000320 af d8 45 bd 09 77 74 3d d8 30 84 be 1d 87 3b be
       -0.04830235 0.059683833 -0.25818515 -0.1831326
000330 e8 21 41 be 93 20 f3 3c 6c 6c 86 be c6 95 18 3e
       -0.1886059 0.029678619 -0.26254594 0.14900884
000340 a2 bd c1 bd 23 e3 95 3d f2 d9 e9 3d 55 79 2d be
       -0.09459998 0.073187135 0.11418523 -0.16940816
000350 0b 98 96 3e cd 9e 5f 3e 19 8a b5 3d 50 61 45 bd
       0.29412875 0.21837921 0.08864231 -0.048188508
000360 b6 00 5c 3e 11 43 2b be 2b 08 27 be fa e7 06 3e
       0.21484646 -0.16724803 -0.1631171 0.1317443
000370 43 be 5c 3d c9 b4 01 be ef f2 87 be fe 1a 33 3e
       0.053892385 -0.1266662 -0.2655253 0.17490765
000380 75 44 aa be 2e 57 04 be 20 2d ad bd fd 7d 84 3e
       -0.33255354 -0.12923881 -0.084558725 0.2587737
000390 8a d4 4c be 75 c9 75 be 05 8d 9d 3c e7 11 61 be
       -0.20002952 -0.24002631 0.019232282 -0.21979485
0003a0 67 b6 5f ba bc 0e 5a be 24 48 93 be 50 bb 5d 3e
       -0.0008533955 -0.21294683 -0.28765976 0.21653485
0003b0 ae 90 72 bd df f7 9c bd 6a 7d 1f be e8 b9 aa 3d
       -0.05922001 -0.07664465 -0.15575185 0.0833624
0003c0 fb c1 96 3b 79 6d 4d 3e 37 5b ab be d6 7b ee 3d
       0.004600761 0.20061292 -0.3346803 0.116447136
0003d0 0d ff 0c be 84 73 98 be bc 53 3e be 6c 7a aa 3d
       -0.13769169 -0.2977563 -0.1858663 0.08324131
0003e0 2f 27 08 3b 19 b5 60 bd f7 0e 62 bd 9a 22 91 3e
       0.0020775308 -0.05486021 -0.055190053 0.2834671
0003f0 dc 29 76 be b6 ba b3 bd 4b b6 4e 3e f9 b2 64 be
       -0.24039406 -0.08775847 0.20186727 -0.22333898

fc3.bias f4 [4]
000000 b8 07 3f bd a6 54 a4 bc bd 93 bb 3d cd 7b 39 bd
       -0.04663822 -0.020059895 0.09159038 -0.04528408

exp_avg f4 [64, 8]
000000 1b 48 f6 ba ca 91 7e b9 fd 71 20 bb 5a e1 85 bb
       -0.00187898 -0.00024277638 -0.0024482005 -0.004085702
000010 bd 84 cf ba 17 3c 4d bb 05 1e 7a ba eb c0 21 bb
       -0.0015832406 -0.0031316334 -0.00095412164 -0.0024681638
000020 ee ab f4 ba 2c a6 7a b9 f1 44 20 bb 56 24 85 bb
       -0.0018666962 -0.00023903762 -0.0024455155 -0.0040631695
000030 c5 ff cd ba 99 e4 4b bb 9d 91 79 ba ac ee 20 bb
       -0.0015716484 -0.0031111597 -0.0009520294 -0.0024556322
000040 21 ea b4 ba 78 8b 38 b9 5a e6 ec ba da e8 44 bb
       -0.0013802686 -0.00017599564 -0.0018074021 -0.0030046017
000050 29 3b 97 ba 1c c3 16 bb 1d 9d 38 ba 28 55 ef ba
       -0.0011538017 -0.0023004478 -0.00070424547 -0.0018259631
000060 f8 22 ce ba 26 8a 53 b9 4e 04 07 bb 3b 54 60 bb
       -0.0015726974 -0.00020173992 -0.002060193 -0.0034229893
000070 dc c1 ad ba cc c7 2b bb e0 31 52 ba 20 6e 07 bb
       -0.0013256627 -0.0026211618 -0.0008018296 -0.0020665005
000080 00 00 00 00 00 00 00 00 00 00 00 00 00 00 00 00
       0.0 0.0 0.0 0.0
000090 00 00 00 00 00 00 00 00 00 00 00 00 00 00 00 00
       0.0 0.0 0.0 0.0
0000a0 7d e7 b1 ba 10 47 36 b9 28 2a e9 ba c6 a0 41 bb
       -0.0013573017 -0.00017383345 -0.0017789053 -0.0029545291
0000b0 d8 ab 96 ba e8 40 14 bb e1 7d 35 ba 5c 21 e9 ba
       -0.0011495305 -0.0022621695 -0.00069233595 -0.0017786431
0000c0 1e aa a3 ba c6 3e 2a b9 2e 94 d5 ba 25 ef 31 bb
       -0.0012486612 -0.00016235848 -0.0016294771 -0.0027150598
0000d0 11 a4 8a ba 19 63 08 bb 4f 2f 26 ba a2 38 d6 ba
       -0.001057746 -0.002081102 -0.0006339447 -0.0016343782
0000e0 00 00 00 00 00 00 00 00 00 00 00 00 00 00 00 00
       0.0 0.0 0.0 0.0
0000f0 00 00 00 00 00 00 00 00 00 00 00 00 00 00 00 00
       0.0 0.0 0.0 0.0
000100 10 66 02 bb 89 8e 85 b9 2d bc 2a bb b7 e7 8d bb
       -0.001989726 -0.00025473934 -0.0026052103 -0.004330601
000110 22 c5 db ba c7 54 59 bb b5 f7 84 ba 53 60 2b bb
       -0.0016767124 -0.0033162104 -0.0010144623 -0.0026149943
000120 00 00 00 00 00 00 00 00 00 00 00 00 00 00 00 00
       0.0 0.0 0.0 0.0
000130 00 00 00 00 00 00 00 00 00 00 00 00 00 00 00 00
       0.0 0.0 0.0 0.0
000140 bc 6e 99 ba ff 17 1f b9 c3 a8 c7 ba f5 c5 26 bb
       -0.0011705975 -0.00015172361 -0.001523279 -0.0025447581
000150 53 e2 82 ba 8e b8 ff ba 8b a1 1b ba fe cf c7 ba
       -0.0009985663 -0.0019509958 -0.00059368525 -0.0015244482
000160 5a 5d 70 ba f8 18 f7 b8 4c c3 9d ba 17 d1 02 bb
       -0.0009169184 -0.000117825286 -0.0012036352 -0.0019961053
000170 ee 55 49 ba cb 4d c8 ba 95 51 f5 b9 90 82 9e ba
       -0.0007680346 -0.0015281973 -0.00046790825 -0.0012093354
000180 0f 48 5e 38 58 36 82 35 99 6b bd 38 f5 be 01 39
       5.2996034e-05 9.701571e-07 9.032264e-05 0.00012373536
000190 cb b4 86 38 0d 3c b9 38 44 a7 13 38 75 d9 38 38
       6.423293e-05 8.832673e-05 3.520331e-05 4.407154e-05
0001a0 39 f1 83 b9 73 da 12 b8 98 8d a6 b9 d1 7b 0e ba
       -0.00025165992 -3.501256e-05 -0.00031767483 -0.000543532
0001b0 1d 86 67 b9 5f e7 db b9 9b 21 02 b9 7d 58 a6 b9
       -0.00022079838 -0.0004194332 -0.00012410285 -0.00031727916
0001c0 ac 2a 2a 39 fb af b6 37 41 77 59 39 3d 3f b8 39
       0.0001622836 2.1778038e-05 0.00020739158 0.0003514233
0001d0 c6 4d 03 39 3a ce 8d 39 57 c0 a9 38 3b 4a 6a 39
       0.00012522106 0.00027047266 8.094374e-05 0.00022343632
0001e0 20 16 6b ba 5b 05 f6 b8 d9 5a 98 ba 71 51 ff ba
       -0.00089678355 -0.000117311916 -0.0011623754 -0.0019479227
0001f0 90 ea 47 ba c7 e7 c3 ba c9 9b ed b9 eb 2e 99 ba
       -0.00076262 -0.0014946394 -0.00045320232 -0.0011686956
000200 00 00 00 00 00 00 00 00 00 00 00 00 00 00 00 00
       0.0 0.0 0.0 0.0
000210 00 00 00 00 00 00 00 00 00 00 00 00 00 00 00 00
       0.0 0.0 0.0 0.0
000220 00 00 00 00 00 00 00 00 00 00 00 00 00 00 00 00
       0.0 0.0 0.0 0.0
000230 00 00 00 00 00 00 00 00 00 00 00 00 00 00 00 00
       0.0 0.0 0.0 0.0
000240 5c 0c 08 31 61 48 8b 2b e6 d0 a9 31 6a fc a9 31
       1.979763e-09 9.896633e-13 4.9422963e-09 4.9472435e-09
000250 7b 1a ae 2b 3d bf 62 31 20 73 e2 30 85 f1 a9 31
       1.2370793e-12 3.2996035e-09 1.6476385e-09 4.946005e-09
000260 dc 39 dd b8 ad f4 44 ae 1b 44 8a b9 27 44 8a b9
       -0.00010548878 -4.4782556e-11 -0.00026372154 -0.0002637219
000270 45 9c de ae e5 5a 38 b9 d3 5a b8 b8 24 44 8a b9
       -1.012315e-10 -0.00017581468 -8.790721e-05 -0.0002637218
000280 55 5b 9b 2e 7f b0 20 2d f1 4d 29 2f 98 16 29 2f
       7.064808e-11 9.134137e-12 1.5398151e-10 1.5378487e-10
000290 de 5a a4 2e cc 76 01 2f 41 7f 1e 2e 87 b6 95 2e
       7.473998e-11 1.1774687e-10 3.6038065e-11 6.808159e-11
0002a0 e6 26 c8 b9 8b 8f 40 b8 db 01 08 ba 24 5e 5b ba
       -0.00038175954 -4.5910052e-05 -0.0005188265 -0.0008368215
0002b0 67 db a9 b9 16 cb 26 ba cd 32 52 b9 e9 57 04 ba
       -0.0003239766 -0.00063626596 -0.00020046085 -0.00050485
0002c0 00 00 00 00 00 00 00 00 00 00 00 00 00 00 00 00
       0.0 0.0 0.0 0.0
0002d0 00 00 00 00 00 00 00 00 00 00 00 00 00 00 00 00
       0.0 0.0 0.0 0.0
0002e0 00 00 00 00 00 00 00 00 00 00 00 00 00 00 00 00
       0.0 0.0 0.0 0.0
0002f0 00 00 00 00 00 00 00 00 00 00 00 00 00 00 00 00
       0.0 0.0 0.0 0.0
000300 e7 e2 b5 ba 21 f6 3a b9 d3 01 ee ba 68 e5 45 bb
       -0.0013876826 -0.00017830032 -0.0018158503 -0.0030196551
000310 38 e7 99 ba 6a 92 17 bb 42 4d 39 ba d0 8c ee ba
       -0.0011741882 -0.002312804 -0.0007068702 -0.0018199924
000320 2d ad e0 39 b1 4f 15 38 7c 4c 43 3a 04 c2 80 3a
       0.00042853635 3.5598587e-05 0.0007450057 0.0009823446
000330 d5 54 9a 39 fa 3a 3b 3a 16 92 8c 39 32 e8 30 3a
       0.00029436374 0.0007142272 0.00026811723 0.0006748467
000340 fc e0 58 ba 28 e8 e0 b8 3b 0a 8e ba d9 ef eb ba
       -0.00082732714 -0.00010724395 -0.0010836789 -0.0018000557
000350 ec d8 38 ba 7c bb b4 ba f6 c3 dc b9 1a 5a 8d ba
       -0.0007051367 -0.0013788785 -0.00042107672 -0.0010784299
000360 25 33 10 39 2d 12 94 37 80 45 3d 39 9f e7 9c 39
       0.00013751963 1.7651439e-05 0.00018050335 0.0002992721
000370 f0 10 dd 38 3c 55 70 39 01 f4 92 38 e7 ad 4a 39
       0.00010541256 0.00022919936 7.007272e-05 0.00019329005
000380 3d 25 92 ba d2 4b 14 b9 81 93 c0 ba 72 39 1f bb
       -0.0011150014 -0.00014142625 -0.0014692397 -0.0024295715
000390 a6 3a 77 ba 66 93 f3 ba 2e c0 15 ba 47 b9 bf ba
       -0.00094310415 -0.0018583357 -0.0005712536 -0.001462736
0003a0 5c 84 86 38 c7 aa 01 37 cf b4 bb 38 c5 e2 13 39
       6.414272e-05 7.728761e-06 8.950533e-05 0.0001410349
0003b0 97 e2 93 38 f3 31 e0 38 24 27 0f 38 93 aa 8c 38
       7.051712e-05 0.00010690456 3.413031e-05 6.707492e-05
0003c0 b1 50 a8 ba 36 26 2f b9 16 20 da ba 48 d2 36 bb
       -0.0012841431 -0.00016703535 -0.0016641642 -0.0027896333
0003d0 09 6f 8e ba 3f 43 0c bb 90 40 2a ba 66 4f dc ba
       -0.0010866831 -0.0021402386 -0.0006494606 -0.001680833
0003e0 cb 8e 01 26 2a 53 66 24 fe f3 8f 26 fe f3 8f 26
       4.4949386e-16 4.9943743e-17 9.988752e-16 9.988752e-16
0003f0 fe f3 0f 26 ed ed 57 26 fe f3 8f 25 fe f3 8f 25
       4.994376e-16 7.491556e-16 2.497188e-16 2.497188e-16

exp_avg_sq f4 [64, 8]
000000 22 24 a4 38 83 b2 96 36 a3 32 37 39 a6 bd b3 39
       7.82686e-05 4.49113e-06 0.00017471104 0.0003428284
000010 b2 97 9d 38 5a f9 63 39 97 fb b0 37 c9 4e 34 39
       7.514599e-05 0.00021741298 2.109799e-05 0.00017195487
000020 5c ab 35 38 e8 f8 0f 36 89 2d ac 38 5a 7f 47 39
       4.3313354e-05 2.1453543e-06 8.210081e-05 0.00019025561
000030 d1 4c 1b 38 7b 51 fc 38 64 5f 33 37 02 b9 ad 38
       3.702642e-05 0.00012031473 1.0691441e-05 8.283743e-05
000040 79 1f dd 37 51 c7 9b 35 66 f3 a4 38 63 e0 03 39
       2.6359909e-05 1.1606409e-06 7.865466e-05 0.00012576724
000050 34 93 c1 37 c6 8e 99 38 7b 61 19 37 dd 9c 9d 38
       2.307594e-05 7.322202e-05 9.142207e-06 7.5155614e-05
000060 56 54 2c 38 39 df 0f 36 70 7b a5 38 9b ca 3b 39
       4.108654e-05 2.1438593e-06 7.890805e-05 0.00017909186
000070 8c aa 11 38 a3 58 ef 38 e4 e0 26 37 38 54 a7 38
       3.4729528e-05 0.00011412918 9.9467325e-06 7.9788675e-05
000080 00 00 00 00 00 00 00 00 00 00 00 00 00 00 00 00
       0.0 0.0 0.0 0.0
000090 00 00 00 00 00 00 00 00 00 00 00 00 00 00 00 00
       0.0 0.0 0.0 0.0
0000a0 97 73 37 38 bf 0c 1e 36 d7 30 9e 38 76 d7 42 39
       4.373825e-05 2.3551254e-06 7.543124e-05 0.00018581547
0000b0 9d f1 22 38 3c cb fe 38 48 14 25 37 fe 18 9e 38
       3.884883e-05 0.00012149519 9.8394885e-06 7.538682e-05
0000c0 ea 44 46 38 4a 94 4c 36 73 10 97 38 e8 d0 4c 39
       4.727106e-05 3.0484684e-06 7.203305e-05 0.0001953278
0000d0 2c e8 14 38 d7 af 09 39 47 f5 17 37 a9 51 a4 38
       3.5502177e-05 0.00013130844 9.057409e-06 7.83534e-05
0000e0 00 00 00 00 00 00 00 00 00 00 00 00 00 00 00 00
       0.0 0.0 0.0 0.0
0000f0 00 00 00 00 00 00 00 00 00 00 00 00 00 00 00 00
       0.0 0.0 0.0 0.0
000100 0c fb 9d 38 b3 67 83 36 a5 59 20 39 41 57 ac 39
       7.5331045e-05 3.9161764e-06 0.00015292184 0.00032871406
000110 54 7e 96 38 e1 6a 5b 39 68 35 a3 37 2a 5b 1d 39
       7.176088e-05 0.00020925283 1.9455983e-05 0.00015006648
000120 00 00 00 00 00 00 00 00 00 00 00 00 00 00 00 00
       0.0 0.0 0.0 0.0
000130 00 00 00 00 00 00 00 00 00 00 00 00 00 00 00 00
       0.0 0.0 0.0 0.0
000140 be fc a1 38 ab bf 80 36 6b 21 0a 39 67 e6 ac 39
       7.724155e-05 3.8370104e-06 0.00013173155 0.0003297806
000150 78 dd 87 38 75 fb 60 39 20 6e 8c 37 40 4d 10 39
       6.4785534e-05 0.0002145598 1.6740581e-05 0.00013761688
000160 13 b7 e9 37 92 9a a9 35 c2 4a 74 38 b1 ea 02 39
       2.7861015e-05 1.2636467e-06 5.8243757e-05 0.00012485195
000170 5b 5f c1 37 5c 4d a2 38 7d c7 f1 36 96 d0 89 38
       2.3051796e-05 7.739171e-05 7.205583e-06 6.571521e-05
000180 18 e0 aa 30 47 78 5e 2e b2 ac 36 30 3b f6 ab 31
       1.2432819e-09 5.0583784e-11 6.645663e-10 5.004748e-09
000190 91 b1 aa 30 b2 53 6d 31 8a fb 24 2f 57 d6 98 30
       1.2419595e-09 3.4535614e-09 1.5005078e-10 1.1120375e-09
0001a0 36 2d 17 37 60 ca 76 34 e4 93 31 38 4f ed 51 38
       9.010828e-06 2.2984159e-07 4.2337822e-05 5.0050494e-05
0001b0 f1 44 18 36 c0 f7 d1 37 57 7f a0 36 42 a4 33 38
       2.2689894e-06 2.503011e-05 4.783196e-06 4.2829903e-05
0001c0 65 3b 6f 37 5c da 2f 35 24 e5 23 38 52 ed 86 38
       1.4259339e-05 6.5510335e-07 3.9075632e-05 6.433822e-05
0001d0 be a2 24 37 18 22 26 38 14 36 82 36 b4 6e 09 38
       9.813053e-06 3.9609236e-05 3.8805974e-06 3.2766446e-05
0001e0 77 57 4c 38 8f 6a 4c 36 e1 e3 95 38 24 d4 4d 39
       4.8718848e-05 3.0460394e-06 7.1473194e-05 0.00019629352
0001f0 7d 28 01 38 5c e7 0d 39 37 f5 ff 36 61 0f a6 38
       3.0793704e-05 0.00013532996 7.628139e-06 7.9183614e-05
000200 00 00 00 00 00 00 00 00 00 00 00 00 00 00 00 00
       0.0 0.0 0.0 0.0
000210 00 00 00 00 00 00 00 00 00 00 00 00 00 00 00 00
       0.0 0.0 0.0 0.0
000220 00 00 00 00 00 00 00 00 00 00 00 00 00 00 00 00
       0.0 0.0 0.0 0.0
000230 00 00 00 00 00 00 00 00 00 00 00 00 00 00 00 00
       0.0 0.0 0.0 0.0
000240 29 3d 8e 37 0c ab 5e 30 e9 26 de 38 49 33 de 38
       1.6956199e-05 8.10062e-10 0.000105930325 0.000105953375
000250 a4 f5 ad 30 d4 8d 45 38 37 78 45 37 2a 2e de 38
       1.2657222e-09 4.7100548e-05 1.1770105e-05 0.00010594384
000260 eb c9 89 36 68 06 87 32 1a bb b8 37 79 bd cc 37
       4.1064245e-06 1.5718982e-08 2.2021635e-05 2.4406925e-05
000270 58 20 9e 35 91 5f 3f 37 c4 73 27 36 62 c0 bc 37
       1.1781331e-06 1.1406738e-05 2.4952324e-06 2.2500932e-05
000280 f8 26 34 33 6f 9c a0 2f 33 33 8c 34 18 79 84 34
       4.1944958e-08 2.9214983e-10 2.6114284e-07 2.4675023e-07
000290 61 7c 9a 32 2b 36 fa 33 38 8e d8 32 95 85 54 34
       1.798452e-08 1.1651385e-07 2.5210383e-08 1.9792635e-07
0002a0 43 07 74 37 30 f8 51 35 3f 45 df 37 ac ab 81 38
       1.4545224e-05 7.821973e-07 2.6615917e-05 6.183176e-05
0002b0 c2 86 33 37 d0 76 29 38 b9 1e 4b 36 f2 cf 0a 38
       1.0700607e-05 4.0403393e-05 3.026724e-06 3.3095428e-05
0002c0 00 00 00 00 00 00 00 00 00 00 00 00 00 00 00 00
       0.0 0.0 0.0 0.0
0002d0 00 00 00 00 00 00 00 00 00 00 00 00 00 00 00 00
       0.0 0.0 0.0 0.0
0002e0 00 00 00 00 00 00 00 00 00 00 00 00 00 00 00 00
       0.0 0.0 0.0 0.0
0002f0 00 00 00 00 00 00 00 00 00 00 00 00 00 00 00 00
       0.0 0.0 0.0 0.0
000300 c9 a4 2d 38 38 eb 23 36 90 9f 92 38 9e cf 35 39
       4.1399882e-05 2.4425808e-06 6.991543e-05 0.00017338849
000310 c2 80 1b 38 fb 2b f1 38 16 37 1a 37 71 19 93 38
       3.7074795e-05 0.000114999675 9.191941e-06 7.014245e-05
000320 60 94 26 38 b4 24 2a 36 61 fb 00 39 ef 9f 3e 39
       3.971567e-05 2.5353338e-06 0.00012300677 0.00018179392
000330 b9 8f f6 37 49 5c e7 38 8c 41 58 37 b2 c1 f9 38
       2.9392411e-05 0.00011032128 1.2889865e-05 0.00011909324
000340 c7 50 a2 37 5b 11 aa 35 ef cb bc 37 35 47 a2 38
       1.934952e-05 1.2671038e-06 2.250631e-05 7.738025e-05
000350 f5 c9 79 37 2f 70 61 38 e3 23 44 36 31 09 dd 37
       1.4888578e-05 5.374866e-05 2.9227165e-06 2.6349533e-05
000360 ea 98 62 37 0c bd 3f 35 a4 30 0b 38 93 d3 7b 38
       1.3506253e-05 7.1428144e-07 3.3185483e-05 6.0040107e-05
000370 cc 40 26 37 e6 5b 1d 38 ec 2a 5d 36 02 dd fb 37
       9.909458e-06 3.7517304e-05 3.295655e-06 3.0024446e-05
000380 cc 4e 12 38 d5 4a 0c 36 99 35 5d 38 22 3d 17 39
       3.4882498e-05 2.0905184e-06 5.2740423e-05 0.00014423256
000390 cd e3 0b 38 83 34 cb 38 92 1f f2 36 e0 fd 7c 38
       3.335234e-05 9.6895754e-05 7.2158373e-06 6.031792e-05
0003a0 22 f7 dc 36 72 c4 00 35 98 db 3e 37 d5 f7 eb 37
       6.585281e-06 4.796958e-07 1.1376011e-05 2.8129589e-05
0003b0 10 f4 bb 36 b3 72 99 37 2f 2f c4 35 10 68 64 37
       5.601447e-06 1.8292432e-05 1.461687e-06 1.3614088e-05
0003c0 90 b2 4e 38 0f ed 17 36 05 d3 b9 38 50 ea 5f 39
       4.9280527e-05 2.263874e-06 8.860793e-05 0.00021354225
0003d0 08 ff 20 38 40 8a 0f 39 26 73 3b 37 68 5c c3 38
       3.838449e-05 0.00013689045 1.1172879e-05 9.3155366e-05
0003e0 21 c7 51 28 1a c0 25 25 12 7e 81 29 12 7e 81 29
       1.164501e-14 1.4376555e-16 5.7506205e-14 5.7506205e-14
0003f0 12 7e 81 28 d3 ad 11 29 12 7e 81 27 12 7e 81 27
       1.4376551e-14 3.2347236e-14 3.594138e-15 3.594138e-15

exp_avg f4 [64]
000000 5a e1 85 bb 56 24 85 bb d9 e8 44 bb 39 54 60 bb
       -0.004085702 -0.0040631695 -0.0030046015 -0.0034229888
000010 00 00 00 00 c7 a0 41 bb 25 ef 31 bb 00 00 00 00
       0.0 -0.0029545294 -0.0027150598 0.0
000020 b6 e7 8d bb 00 00 00 00 f4 c5 26 bb 17 d1 02 bb
       -0.0043306006 0.0 -0.002544758 -0.0019961053
000030 f5 be 01 39 d1 7b 0e ba 3d 3f b8 39 71 51 ff ba
       0.00012373536 -0.000543532 0.0003514233 -0.0019479227
000040 00 00 00 00 00 00 00 00 6a fc a9 31 27 44 8a b9
       0.0 0.0 4.9472435e-09 -0.0002637219
000050 98 16 29 2f 24 5e 5b ba 00 00 00 00 00 00 00 00
       1.5378487e-10 -0.0008368215 0.0 0.0
000060 68 e5 45 bb 04 c2 80 3a d7 ef eb ba 9f e7 9c 39
       -0.0030196551 0.0009823446 -0.0018000555 0.0002992721
000070 72 39 1f bb c5 e2 13 39 48 d2 36 bb fe f3 8f 26
       -0.0024295715 0.0001410349 -0.0027896333 9.988752e-16
000080 00 00 00 00 8f 77 60 bb 97 94 a0 bb 00 00 00 00
       0.0 -0.003425095 -0.004900526 0.0
000090 00 00 00 00 98 7d 1d bb 00 00 00 00 9e b2 96 ba
       0.0 -0.0024031159 0.0 -0.0011497324
0000a0 00 00 00 00 fb dc 50 bb 9e 42 d8 ba be b7 4f bb
       0.0 -0.0031869996 -0.0016499346 -0.0031695212
0000b0 ec 7e 2c bb 00 00 00 00 d7 7f 9e bb eb 20 b9 ba
       -0.0026320769 0.0 -0.004837017 -0.001412419
0000c0 8c 67 33 bb 00 00 00 00 00 00 00 00 00 00 00 00
       -0.0027374951 0.0 0.0 0.0
0000d0 00 00 00 00 00 00 00 00 bb a1 68 ba 33 44 5f bb
       0.0 0.0 -0.00088741974 -0.003406775
0000e0 00 00 00 00 00 00 00 00 98 b4 38 bb 38 87 23 bb
       0.0 0.0 -0.0028183814 -0.0024952423
0000f0 00 00 00 00 d0 5f 25 bb c7 e0 9e bb 58 84 2a bb
       0.0 -0.002523411 -0.004848573 -0.0026018824

exp_avg_sq f4 [64]
000000 a7 bd b3 39 5a 7f 47 39 63 e0 03 39 99 ca 3b 39
       0.00034282843 0.00019025561 0.00012576724 0.00017909183
000010 00 00 00 00 75 d7 42 39 e7 d0 4c 39 00 00 00 00
       0.0 0.00018581546 0.00019532778 0.0
000020 41 57 ac 39 00 00 00 00 69 e6 ac 39 b1 ea 02 39
       0.00032871406 0.0 0.00032978065 0.00012485195
000030 3b f6 ab 31 4f ed 51 38 51 ed 86 38 24 d4 4d 39
       5.004748e-09 5.0050494e-05 6.4338215e-05 0.00019629352
000040 00 00 00 00 00 00 00 00 49 33 de 38 79 bd cc 37
       0.0 0.0 0.000105953375 2.4406925e-05
000050 18 79 84 34 ac ab 81 38 00 00 00 00 00 00 00 00
       2.4675023e-07 6.183176e-05 0.0 0.0
000060 9f cf 35 39 ef 9f 3e 39 35 47 a2 38 93 d3 7b 38
       0.0001733885 0.00018179392 7.738025e-05 6.0040107e-05
000070 22 3d 17 39 d4 f7 eb 37 4e ea 5f 39 12 7e 81 29
       0.00014423256 2.8129587e-05 0.00021354223 5.7506205e-14
000080 00 00 00 00 0b 30 82 39 42 51 ce 39 00 00 00 00
       0.0 0.00024831327 0.00039351924 0.0
000090 00 00 00 00 55 58 d8 38 00 00 00 00 16 de 0f 39
       0.0 0.00010316136 0.0 0.00013720276
0000a0 00 00 00 00 c5 a9 d8 39 17 ec 35 39 6c d2 e1 37
       0.0 0.0004132522 0.00017349455 2.6920075e-05
0000b0 ee 00 7c 37 00 00 00 00 96 ec 20 3a a3 32 38 39
       1.5020587e-05 0.0 0.00061387697 0.00017566471
0000c0 d4 19 09 39 00 00 00 00 00 00 00 00 00 00 00 00
       0.0001307496 0.0 0.0 0.0
0000d0 00 00 00 00 00 00 00 00 ee 70 42 38 74 bd e8 38
       0.0 0.0 4.635838e-05 0.000110979105
0000e0 00 00 00 00 00 00 00 00 aa 62 72 39 9f 7a 03 39
       0.0 0.0 0.00023115674 0.00012538813
0000f0 00 00 00 00 a0 3d 4f 39 88 45 06 3a ca 26 35 39
       0.0 0.00019764015 0.00051220553 0.00017275955

exp_avg f4 [64, 64]
000000 00 00 00 00 00 00 00 00 00 00 00 00 00 00 00 00
       0.0 0.0 0.0 0.0
000010 00 00 00 00 00 00 00 00 00 00 00 00 00 00 00 00
       0.0 0.0 0.0 0.0
000020 00 00 00 00 00 00 00 00 00 00 00 00 00 00 00 00
       0.0 0.0 0.0 0.0
000030 00 00 00 00 00 00 00 00 00 00 00 00 00 00 00 00
       0.0 0.0 0.0 0.0
000040 00 00 00 00 00 00 00 00 00 00 00 00 00 00 00 00
       0.0 0.0 0.0 0.0
000050 00 00 00 00 00 00 00 00 00 00 00 00 00 00 00 00
       0.0 0.0 0.0 0.0
000060 00 00 00 00 00 00 00 00 00 00 00 00 00 00 00 00
       0.0 0.0 0.0 0.0
000070 00 00 00 00 00 00 00 00 00 00 00 00 00 00 00 00
       0.0 0.0 0.0 0.0
000080 00 00 00 00 00 00 00 00 00 00 00 00 00 00 00 00
       0.0 0.0 0.0 0.0
000090 00 00 00 00 00 00 00 00 00 00 00 00 00 00 00 00
       0.0 0.0 0.0 0.0
0000a0 00 00 00 00 00 00 00 00 00 00 00 00 00 00 00 00
       0.0 0.0 0.0 0.0
0000b0 00 00 00 00 00 00 00 00 00 00 00 00 00 00 00 00
       0.0 0.0 0.0 0.0
0000c0 00 00 00 00 00 00 00 00 00 00 00 00 00 00 00 00
       0.0 0.0 0.0 0.0
0000d0 00 00 00 00 00 00 00 00 00 00 00 00 00 00 00 00
       0.0 0.0 0.0 0.0
0000e0 00 00 00 00 00 00 00 00 00 00 00 00 00 00 00 00
       0.0 0.0 0.0 0.0
0000f0 00 00 00 00 00 00 00 00 00 00 00 00 00 00 00 00
       0.0 0.0 0.0 0.0
000100 00 00 00 00 00 00 00 00 00 00 00 00 00 00 00 00
       0.0 0.0 0.0 0.0
000110 00 00 00 00 00 00 00 00 00 00 00 00 00 00 00 00
       0.0 0.0 0.0 0.0
000120 00 00 00 00 00 00 00 00 00 00 00 00 00 00 00 00
       0.0 0.0 0.0 0.0
000130 00 00 00 00 00 00 00 00 00 00 00 00 00 00 00 00
       0.0 0.0 0.0 0.0
000140 00 00 00 00 00 00 00 00 00 00 00 00 00 00 00 00
       0.0 0.0 0.0 0.0
000150 00 00 00 00 00 00 00 00 00 00 00 00 00 00 00 00
       0.0 0.0 0.0 0.0
000160 00 00 00 00 00 00 00 00 00 00 00 00 00 00 00 00
       0.0 0.0 0.0 0.0
000170 00 00 00 00 00 00 00 00 00 00 00 00 00 00 00 00
       0.0 0.0 0.0 0.0
000180 00 00 00 00 00 00 00 00 00 00 00 00 00 00 00 00
       0.0 0.0 0.0 0.0
000190 00 00 00 00 00 00 00 00 00 00 00 00 00 00 00 00
       0.0 0.0 0.0 0.0
0001a0 00 00 00 00 00 00 00 00 00 00 00 00 00 00 00 00
       0.0 0.0 0.0 0.0
0001b0 00 00 00 00 00 00 00 00 00 00 00 00 00 00 00 00
       0.0 0.0 0.0 0.0
0001c0 00 00 00 00 00 00 00 00 00 00 00 00 00 00 00 00
       0.0 0.0 0.0 0.0
0001d0 00 00 00 00 00 00 00 00 00 00 00 00 00 00 00 00
       0.0 0.0 0.0 0.0
0001e0 00 00 00 00 00 00 00 00 00 00 00 00 00 00 00 00
       0.0 0.0 0.0 0.0
0001f0 00 00 00 00 00 00 00 00 00 00 00 00 00 00 00 00
       0.0 0.0 0.0 0.0
000200 00 00 00 00 00 00 00 00 00 00 00 00 00 00 00 00
       0.0 0.0 0.0 0.0
000210 00 00 00 00 00 00 00 00 00 00 00 00 00 00 00 00
       0.0 0.0 0.0 0.0
000220 00 00 00 00 00 00 00 00 00 00 00 00 00 00 00 00
       0.0 0.0 0.0 0.0
000230 00 00 00 00 00 00 00 00 00 00 00 00 00 00 00 00
       0.0 0.0 0.0 0.0
000240 00 00 00 00 00 00 00 00 00 00 00 00 00 00 00 00
       0.0 0.0 0.0 0.0
000250 00 00 00 00 00 00 00 00 00 00 00 00 00 00 00 00
       0.0 0.0 0.0 0.0
000260 00 00 00 00 00 00 00 00 00 00 00 00 00 00 00 00
       0.0 0.0 0.0 0.0
000270 00 00 00 00 00 00 00 00 00 00 00 00 00 00 00 00
       0.0 0.0 0.0 0.0
000280 00 00 00 00 00 00 00 00 00 00 00 00 00 00 00 00
       0.0 0.0 0.0 0.0
000290 00 00 00 00 00 00 00 00 00 00 00 00 00 00 00 00
       0.0 0.0 0.0 0.0
0002a0 00 00 00 00 00 00 00 00 00 00 00 00 00 00 00 00
       0.0 0.0 0.0 0.0
0002b0 00 00 00 00 00 00 00 00 00 00 00 00 00 00 00 00
       0.0 0.0 0.0 0.0
0002c0 00 00 00 00 00 00 00 00 00 00 00 00 00 00 00 00
       0.0 0.0 0.0 0.0
0002d0 00 00 00 00 00 00 00 00 00 00 00 00 00 00 00 00
       0.0 0.0 0.0 0.0
0002e0 00 00 00 00 00 00 00 00 00 00 00 00 00 00 00 00
       0.0 0.0 0.0 0.0
0002f0 00 00 00 00 00 00 00 00 00 00 00 00 00 00 00 00
       0.0 0.0 0.0 0.0
000300 00 00 00 00 00 00 00 00 00 00 00 00 00 00 00 00
       0.0 0.0 0.0 0.0
000310 00 00 00 00 00 00 00 00 00 00 00 00 00 00 00 00
       0.0 0.0 0.0 0.0
000320 00 00 00 00 00 00 00 00 00 00 00 00 00 00 00 00
       0.0 0.0 0.0 0.0
000330 00 00 00 00 00 00 00 00 00 00 00 00 00 00 00 00
       0.0 0.0 0.0 0.0
000340 00 00 00 00 00 00 00 00 00 00 00 00 00 00 00 00
       0.0 0.0 0.0 0.0
000350 00 00 00 00 00 00 00 00 00 00 00 00 00 00 00 00
       0.0 0.0 0.0 0.0
000360 00 00 00 00 00 00 00 00 00 00 00 00 00 00 00 00
       0.0 0.0 0.0 0.0
000370 00 00 00 00 00 00 00 00 00 00 00 00 00 00 00 00
       0.0 0.0 0.0 0.0
000380 00 00 00 00 00 00 00 00 00 00 00 00 00 00 00 00
       0.0 0.0 0.0 0.0
000390 00 00 00 00 00 00 00 00 00 00 00 00 00 00 00 00
       0.0 0.0 0.0 0.0
0003a0 00 00 00 00 00 00 00 00 00 00 00 00 00 00 00 00
       0.0 0.0 0.0 0.0
0003b0 00 00 00 00 00 00 00 00 00 00 00 00 00 00 00 00
       0.0 0.0 0.0 0.0
0003c0 00 00 00 00 00 00 00 00 00 00 00 00 00 00 00 00
       0.0 0.0 0.0 0.0
0003d0 00 00 00 00 00 00 00 00 00 00 00 00 00 00 00 00
       0.0 0.0 0.0 0.0
0003e0 00 00 00 00 00 00 00 00 00 00 00 00 00 00 00 00
       0.0 0.0 0.0 0.0
0003f0 00 00 00 00 00 00 00 00 00 00 00 00 00 00 00 00
       0.0 0.0 0.0 0.0
