rl_models/agent_4_B5_FOMO_BIDDER.pt (torch, 68253 bytes, 18 tensors)

fc1.weight f4 [64, 8]
00000000: c4af 63bd d911 86be f2e7 45be 0626 71be
00000010: 11a8 813e cb57 25be c249 3fbe 3dfb 41be
00000020: 39e8 6bbc 724d 21be e411 b33e 1747 92bc
00000030: 3e7e 4d3d 7a95 803e c72a b03e 897d ab3e
00000040: f02e 84be 1036 a1bd a76d f03c 3987 51be
00000050: e7e4 ccbd 4966 cfba dcfa b3bb e5b5 2a3e
00000060: a457 80be 2427 703d e161 163e c76a 8fbe
00000070: 86af efbd 591d 80be e18d 84be a288 aebd
00000080: 9a2c 4dbe a2fe 5ebe 85cb d03d 7f48 503e
00000090: f9ae 8d3e c276 77be 812f 163e 37c8 57be
000000a0: ea6e ee3d 7c63 333e d4ba 41be 2469 a4bd
000000b0: c0df 87be cc36 1ebe 64da a13d b365 94bd
000000c0: 3f36 0fbe a97a 8dbe d101 0d3d 8e7a 5e3d
000000d0: 0208 12bd 6126 6a3c fde4 c4bd 0e9d 2cbd
000000e0: e9ab 87bd 6506 a13d 0177 2d3e 4bae 823e
000000f0: c014 35bc a8f3 bfbc f2f4 83bd 8f7b 813e
00000100: aea5 18be 5647 39be 9649 09be 663d 9c3e
00000110: 7cc8 17be 2ed4 aa3e efdb 8a3e fb50 803d
00000120: cd66 8a3e 22ba 263d 0772 1b3e c856 24be
00000130: 956c b8bd 3ea9 ef3d 7eec 933d 58f2 91be
00000140: 87d5 afbd d38c 6cbe 7912 623e 60d2 76be
00000150: 1c97 babd b8f0 7e3d 981b 23bd fbbd 38be
00000160: a34a c7bd 47e8 673e 2bf1 6dbe 9d2b b93d
00000170: 9a28 39bc bf67 353c a6d1 61bc 9398 173e
00000180: ad1c 89be 508f 053e 1a95 fe3d cc84 88be
00000190: 38d0 4dbe 0949 0b3e b9cb 7dbe a130 93be
000001a0: a30c d53d d55e d03b 048c 3a3e 3b4f 3abe
000001b0: 2fb8 bfbd 91ef 03bd 93e3 323e 9871 cbbd
000001c0: 5e15 123e 457f 3bbe 529e 59be 383c 67be
000001d0: 8989 6dbe 097d 033e fac3 5cbe 97e7 99bd
000001e0: 14f9 81be 6cec c6bd ef63 5ebe 7344 c8bd
000001f0: f78f 16be 15eb 57be 88f9 3abe dcea 683c
00000200: 820a ef3d 4238 cfbd cfad 573d 796d a7bd
00000210: dcf1 41be ad99 893e 39e3 b13c c3b2 8dbe
00000220: a9f7 dc3c c471 72be be87 3abc f982 733e
00000230: 572a c1bc 84fa 363c a57d 05be 5baf 553e
00000240: c588 5bbd fdda d7bc 7884 8a3d a97c 573e
00000250: 56d9 3c3e e639 313e f7b4 8b3e dc10 b1bc
00000260: 1722 8bbe cdf1 26be d8f8 2abe f119 933d
00000270: e75b 42be fd31 f33c 1406 2ebe d46c 82be
00000280: b55c 5e3e c0e8 373e 9c84 ac3e d070 473e
00000290: 77de 5fbe 0ed4 0ebe 1e57 0e3e ec85 463e
000002a0: deb9 ab3d 3db9 79be 5138 0abd 1bab 1bbe
000002b0: e4f4 05be 25f9 7f3e 4859 a63d 46cb 0dbd
000002c0: 61a3 bdbd 8a3e 83bc 03fd ac3c e153 ea3d
000002d0: fdb8 36be a691 c8bc 0a49 093e b70c a13e
000002e0: c951 9a3e 1874 013e 97bc 62bd dcb9 c13e
000002f0: a278 8abe 376b 413e 8a2f 873d 8d89 c23e
00000300: 5885 683e 7a2d 84be c36e bdbd a7ca febc
00000310: 38d4 d33d 2798 2ebd 4adb 553e 2a37 743e
00000320: 3217 2cbe 9333 a43c 09ec ca3d 8a1a 823e
00000330: 1fee 65bd 866f 893e 8c85 c83d 4d4b 07bd
00000340: b0a6 a9bd f3f1 5bbe 50d8 0f3e ec35 27be
00000350: bb2f 3e3e 174b 3a3e d464 8b3d 003c 31be
00000360: 3e98 aebc e70c cd3c 16da b23d f685 b03e
00000370: 5c74 5f3e 242a 0abe 8a98 ed3d 0db9 713e
00000380: bd09 aabd ddc9 d3bd bc96 49be 316c 4f3e
00000390: 3380 bd3d b119 e1bc 3295 813e d924 6bbe
000003a0: 7de6 2ebe 8c87 f53b f397 953d bd39 37be
000003b0: 6aa6 7fbe 9d4f 003e 3017 b33d eee0 47be
000003c0: 0989 91bd 948d cebd 8106 df3d 1026 b33e
000003d0: 3c33 86be 6742 833e 730b 09be 280e 843d
000003e0: 1c89 a83d f3cb 013c 1a94 583d d2ef 2c3e
000003f0: 5381 6c3e 4832 b33e bc72 52be 956b e43b
-0.055587545 -0.26185492 -0.19326761 -0.23549661 0.25323537 -0.16146772 -0.1868048 -0.18943496
-0.014398628 -0.157522 0.34974587 -0.017856164 0.050169222 0.25114042 0.34407637 0.33494213
-0.2581706 -0.0787164 0.029349161 -0.2046174 -0.10004597 -0.001582333 -0.0054925513 0.1667095
-0.25066864 0.058631077 0.14685775 -0.28011152 -0.117034 -0.2502239 -0.25889495 -0.085221544
-0.20036545 -0.21776822 0.10195068 0.20340155 0.27672556 -0.24166396 0.14666559 -0.2107247
0.11642249 0.17518419 -0.18918926 -0.080278665 -0.26537895 -0.15450591 0.07902983 -0.0724596
-0.13985537 -0.27632645 0.03442556 0.054316096 -0.035652168 0.014291377 -0.096139885 -0.042141967
-0.06624586 0.07862548 0.16939928 0.255236 -0.0110523105 -0.023431614 -0.06443204 0.2528958
-0.14906952 -0.18093619 -0.13406977 0.30515593 -0.14822572 0.33365005 0.2712092 0.06265446
0.27031556 0.040704854 0.15180217 -0.1604873 -0.090050854 0.11702202 0.07222842 -0.28505206
-0.08585649 -0.23100595 0.2207736 -0.24103689 -0.09110853 0.062241286 -0.039821237 -0.18041222
-0.09731033 0.226472 -0.2323653 0.09041522 -0.011301184 0.011072098 -0.013782894 0.14804296
-0.2677969 0.1304295 0.124307826 -0.26663816 -0.2009896 0.1360208 -0.24784745 -0.28748038
0.10402801 0.006358961 0.18217474 -0.18194287 -0.09361302 -0.03221089 0.17469625 -0.09933776
0.14265963 -0.18310268 -0.212518 -0.22581565 -0.23196997 0.12840666 -0.21559134 -0.075148754
-0.25385344 -0.09713063 -0.21717809 -0.09778681 -0.14703356 -0.2108577 -0.18259251 0.014216151
0.11671926 -0.10118152 0.05265599 -0.08175177 -0.18939918 0.26875058 0.021714794 -0.27675447
0.026973562 -0.2367621 -0.0113849025 0.23780431 -0.02357976 0.011168126 -0.13036211 0.20867674
-0.05359723 -0.026349539 0.06763548 0.21043648 0.18442282 0.17307243 0.27286503 -0.021614484
-0.27174446 -0.16303177 -0.16696489 0.07182682 -0.1898037 0.029686922 -0.16994506 -0.25473654
0.21715052 0.17959881 0.33694923 0.19476628 -0.21862207 -0.1394808 0.1390042 0.19387025
0.08385061 -0.24387069 -0.033745114 -0.1520199 -0.130817 0.24997385 0.08122498 -0.034617685
-0.09259678 -0.016021032 0.02111674 0.1144178 -0.17844005 -0.024483513 0.13406768 0.31455013
0.30140522 0.12641943 -0.055355635 0.37837112 -0.2704516 0.18888555 0.06600864 0.37995568
0.22707117 -0.25815946 -0.09249642 -0.031102492 0.10343212 -0.042625573 0.20884433 0.23849168
-0.16805723 0.020044124 0.099083014 0.25410873 -0.056135293 0.26842898 0.09791097 -0.033030797
-0.08283746 -0.21479015 0.1404736 -0.16329163 0.18572895 0.18192707 0.06806341 -0.17308044
-0.02131283 0.025030566 0.08733003 0.34477204 0.21821731 -0.13492638 0.1160136 0.23605748
-0.08302639 -0.10341237 -0.19686407 0.20256115 0.09252968 -0.02747807 0.2530914 -0.22963275
-0.17080112 0.007492965 0.07304373 -0.17893119 -0.24965826 0.1253037 0.08744657 -0.19519398
-0.071062155 -0.10085598 0.108899124 0.34989977 -0.26210964 0.25636598 -0.13383274 0.064480126
0.082292765 0.00792216 0.052875616 0.16888359 0.23096208 0.349993 -0.2055158 0.0069708326

fc1.bias f4 [64]
00000000: 0000 0000 e248 8d3d 0000 0000 0000 0000
00000010: 0000 0000 0000 0000 0000 0000 8cfc 5d3c
00000020: ef5d c33d 0000 0000 0000 0000 0000 0000
00000030: 0000 0000 0000 0000 0000 0000 0000 0000
00000040: 0000 0000 ff56 a6b9 1f44 ab3d 0000 0000
00000050: bf17 963d 0000 0000 8f7f b63d b32d cf3d
00000060: 0b29 18bb a688 7f3d 0000 0000 bb27 d53d
00000070: 0000 0000 0000 0000 92d2 b33d 3067 9f3d
00000080: 09bb 353d ff77 873d dd53 cc3d 3ba7 813d
00000090: f444 c9bc 0000 0000 f12d cb3d 0000 0000
000000a0: 0000 0000 f291 cb3d 2da6 18bd 0000 0000
000000b0: 0000 0000 0000 0000 c91b 96bc 0000 0000
000000c0: 9360 c53d 0000 0000 a95d aa3d 0000 0000
000000d0: 0000 0000 0000 0000 0000 0000 a357 643d
000000e0: 0000 0000 0000 0000 b6d0 07bd 8fca fbbc
000000f0: 0000 0000 8565 963d 9839 c8bc 0000 0000
0.0 0.06898667 0.0 0.0 0.0 0.0 0.0 0.013548981
0.09539401 0.0 0.0 0.0 0.0 0.0 0.0 0.0
0.0 -0.00031726804 0.083626024 0.0 0.07328748 0.0 0.089110486 0.10116138
-0.0023217823 0.062386177 0.0 0.104079686 0.0 0.0 0.087803975 0.07783353
0.044367824 0.06614684 0.09976933 0.06330725 -0.024569012 0.0 0.09920872 0.0
0.0 0.09939946 -0.037267853 0.0 0.0 0.0 -0.018323796 0.0
0.09637561 0.0 0.083186455 0.0 0.0 0.0 0.0 0.05574764
0.0 0.0 -0.033158027 -0.030736236 0.0 0.07343582 -0.024441525 0.0

fc2.weight f4 [64, 64]
00000000: 5db3 d5bd 1ded fe3d ba8d 51be 3d95 bdbd
00000010: 3ea2 61bd 7668 c43c f285 2fbc a632 adbd
00000020: 5b27 a0bd 2edc f53d b770 213e 150c 4b3e
00000030: 76a4 253e 11ea 933d fe3e 173d 4a08 49be
00000040: 9a8e efbd 81ab 8d3e dd5c b7bd cd24 db3d
00000050: db77 103e d5dd 03be 4320 923e f9ad 983e
00000060: f2ab 2c3e 7f1f 4ebd 921b 583e e9ab 273d
00000070: 93f4 c3bd c809 0abe dc79 793e 621b a93d
00000080: 9708 51bd e268 863e 8da7 e73d 17e6 663d
00000090: 5bbf 313e c42a 8d3d 1849 3a3e db4b cfbd
000000a0: 3e50 a6bc 6df5 953d 3689 493d 33fe 833c
000000b0: e23f 33be f234 493e 0d82 443d 52f3 483e
000000c0: b0da b3bd 0a91 573e 302e 9f3e c179 03bd
000000d0: f0a4 453e 88ae a63d 3708 d53c 7d1a 8f3e
000000e0: 3fd0 11be 27a0 be3d 77fb 4b3e 9f8b 373d
000000f0: 9295 e23d 691d 4b3d 25fb 463e 6510 f53c
00000100: 7842 febd 37f9 353e 27b8 45bb 6230 b93d
00000110: 169e 06be 6fe2 443d fc6a 673d b7eb 1e3c
00000120: cafe 7b3e 965a 163e 0c43 593d d973 ecbd
00000130: a364 373e 7573 4cbe e7a7 1cbb ee6b 34be
00000140: e061 26be ec6f 583e 8ab2 f73d 9474 8a3c
00000150: ed38 8f3c 68fe bfbc cf2f 1d3e 907d 943d
00000160: 7e50 63bb b009 29bd a87f 9e3d 65a0 583e
00000170: 6917 713d a290 00be 446f 1b3e 6c5c 803d
00000180: 56fe 9dbd 587e 813e a56b 843e a9c8 84bd
00000190: 84b6 99bd 2228 1abe 1d66 803d b338 40be
000001a0: 661b a03d 52cc da3d 9d73 4abe f7dd 24bc
000001b0: 043f 1b3d 7328 143c c918 2ebd b319 7c3d
000001c0: fecd 2b3d 9984 a13c 1fca 5f3d d02f c3bd
000001d0: 7201 31be 6e80 f43d 1fb9 3f3a 6604 013e
000001e0: 0b26 c33d 4fca 893d b5a9 0ebe 0001 a8bd
000001f0: 5d81 333e 4b88 433b 52d1 5b3d a5fa ca3d
00000200: 0b5f 14be 540c d7bd e4fa 10be a9aa 383e
00000210: 47e4 59be 36cb f53d e63a 8bbc edb8 db3c
00000220: 783e 88bd 3d7a ff39 988a 02bd 6577 4cbe
00000230: a001 4d3e 26ee a7bd c04c 243e f2db a63d
00000240: e0c8 bf3c 1ff0 e63d fc20 a53d 47a0 21be
00000250: e076 1a3e e598 a63d 153d 183e 0903 f1bd
00000260: 2dad 023e 201a e9bc 9c6a afbd 019e 203d
00000270: a006 57be e5ed 0bbd 18d9 303e 17f0 743d
00000280: 88e9 2abe 153c 1d3e 254b dc3d c069 5dbe
00000290: f48e 46be 9ae9 6f3d abc2 aabd f027 0cbe
000002a0: dea3 0e3e f23f c63c f126 ba3d ee2d f7bd
000002b0: c804 323e 23ec 243e 9b12 033e 3ff7 033e
000002c0: a1fc f73d cbd1 fbbc f28a c73b 50eb 2dbe
000002d0: 4825 f4bd 2a2b 4f3e 9057 4f3b 734c 08be
000002e0: b98a 543e 560e 1f3e d3a3 06be 9465 63bc
000002f0: 5735 bd3c 1fed 7c3a 56de 59be b8c7 72bc
00000300: a1b6 383e 201e 3dbe 486f 203d 96c0 6a3d
00000310: ea76 2dbe 0b53 24be 3141 e33d 981e c7bd
00000320: 0922 14bd bc04 473d 288d 02be d871 febd
00000330: 5881 573e 0486 f3bd 4793 243e 4635 913d
00000340: 9889 503c 6deb f83b 68e4 4bbc bbc2 babd
00000350: 3e90 273e 6f52 ba3d 434a 1dbe 8e01 e43d
00000360: 043c 08be c08b 27be cfa9 073d 5bf9 32be
00000370: 4fe6 40bd c5bf 4bbe 4b3c 77bc d9d4 46be
00000380: f226 813d 5e09 2abe a5a8 f53d 90b7 df3d
00000390: 043a 9a3d 9acc 263d 1752 cc3d 2de8 543e
000003a0: 80ab e13d 27bd 4cbe c52e 0d3e 596c 99bd
000003b0: 6ead edbb ba04 e2bc 1468 383e a8aa 2a3d
000003c0: f479 0a3e 2f04 32be e217 3b3e edc9 393d
000003d0: f78b 30be 88d4 4b3e 0fa4 aebd 8cdf 9f3d
000003e0: 1aec ecbd 2327 9fbc 4cf8 a0bc 84d8 81bb
000003f0: 95f3 eebd 27b5 11be d886 38be 43d8 1bbe
-0.104346015 0.124475695 -0.2046422 -0.092569806 -0.055086367 0.023975592 -0.010713087 -0.08456926
-0.078200065 0.120048866 0.15765654 0.19828828 0.16176018 0.07222379 0.03692531 -0.19632068
-0.11697121 0.2766991 -0.08953259 0.107003786 0.14108221 -0.12877591 0.2854024 0.2982023
0.16862467 -0.050323006 0.21104267 0.04093543 -0.09568133 -0.13480294 0.24362892 0.08257176
-0.051033583 0.26251894 0.11311255 0.056371775 0.17358153 0.068929225 0.18191946 -0.1012189
-0.020301934 0.07322202 0.04920312 0.016112423 -0.17504838 0.19649103 0.04797559 0.1962407
-0.08781946 0.21051422 0.31089926 -0.032098535 0.193012 0.08138758 0.026004894 0.27949896
-0.14239596 0.093078904 0.19920145 0.044810887 0.110636845 0.049588595 0.19431742 0.029915044
-0.12415022 0.17770849 -0.0030169578 0.090424314 -0.13146242 0.048067506 0.056498513 0.0096997535
0.24608913 0.14682993 0.053042457 -0.11545534 0.17909484 -0.19965918 -0.0023903789 -0.17619297
-0.16248274 0.21136445 0.120946005 0.016901292 0.017483199 -0.02343674 0.15350269 0.07250512
-0.0034685428 -0.041269004 0.07739192 0.21154936 0.058860216 -0.12555173 0.15179163 0.06267628
-0.07714526 0.25291705 0.25863376 -0.064835854 -0.07505515 -0.15054372 0.062694766 -0.18771629
0.07817726 0.10683502 -0.19770665 -0.010062686 0.037901893 0.009042847 -0.042504106 0.061547946
0.041944496 0.019716548 0.054636117 -0.09530604 -0.17285708 0.119385585 0.0007313657 0.12599334
0.095287405 0.067280404 -0.13931926 -0.08203316 0.17529817 0.0029835876 0.05366642 0.09911088
-0.14489381 -0.10500398 -0.14158207 0.18033852 -0.21278487 0.1200165 -0.016995858 0.026821578
-0.0665254 0.00048728465 -0.031870455 -0.1996742 0.20020151 -0.0819972 0.16044903 0.0814742
0.023411214 0.11276268 0.08062932 -0.15783797 0.1508441 0.08134631 0.14867051 -0.11768157
0.12761374 -0.02845484 -0.08565256 0.039213184 -0.20998621 -0.03416242 0.17270315 0.05979928
-0.16690648 0.1535495 0.1075652 -0.21622372 -0.1939047 0.05857239 -0.08337911 -0.1368711
0.13929698 0.024200413 0.09089459 -0.12069307 0.17384636 0.16105704 0.12800066 0.12887286
0.12108732 -0.030739686 0.0060895616 -0.16984296 -0.11921173 0.2023131 0.0031637885 -0.13310413
0.20756043 0.15532812 -0.13148431 -0.013879199 0.023096723 0.0009648371 -0.2127622 -0.0148181245
0.18038417 -0.18468523 0.039168626 0.05731257 -0.16939893 -0.16047303 0.11096419 -0.09722632
-0.03616527 0.0485885 -0.1274916 -0.12424058 0.21045434 -0.11890796 0.16071807 0.07090239
0.012728117 0.0075964243 -0.012444593 -0.09119173 0.16363618 0.09097754 -0.1536036 0.11133109
-0.13304144 -0.16361904 0.033120926 -0.17477934 -0.04709464 -0.19897373 -0.015090059 -0.19417132
0.06306256 -0.16605136 0.11995057 0.10923684 0.07530597 0.040722467 0.09976595 0.20791693
0.11019039 -0.19994031 0.13787372 -0.07491369 -0.0072533404 -0.027590144 0.18008453 0.041666657
0.13523084 -0.17384408 0.1827083 0.045358587 -0.17240892 0.19905293 -0.085273854 0.0780631
-0.1156847 -0.019427842 -0.019649647 -0.0039625783 -0.11667553 -0.1422926 -0.18020189 -0.15219216

fc2.bias f4 [64]
00000000: 8b44 a03d 0a8e 343d 418d 29bc 1d90 bfbb
00000010: 274b ae3d 0000 0000 ac8c 4fbd 0000 0000
00000020: 0000 0000 81da 72bc 9d82 e4bc 1953 ccbc
00000030: 0000 0000 53d0 d4bc 0000 0000 29fc 0cbd
00000040: 0000 0000 0000 0000 94af 83bc 7034 bf3d
00000050: 0000 0000 b0a9 38bd f5d7 ab3d c560 25bd
00000060: 0000 0000 17f7 d4bc 0000 0000 0d50 10bd
00000070: cd79 44bc 0000 0000 0000 0000 0000 0000
00000080: 7aaf b03d 16a6 acbb d8e0 36bc 60ea 07bd
00000090: b597 a93d 0000 0000 0000 0000 f454 46bd
000000a0: 384f aa3d 0312 b73d 0000 0000 6d57 a13d
000000b0: 0752 b9bb ce95 03bd b777 35bd bbb2 913d
000000c0: 6c52 b93d 42e4 973d ee94 24bd 9401 96bc
000000d0: 5359 06bd 0000 0000 0000 0000 0000 0000
000000e0: b92d 6f3d 5818 823d 0000 0000 bea9 ccbc
000000f0: 53c2 9c3d 0000 0000 0000 0000 0000 0000
0.078255735 0.04408077 -0.010348619 -0.005846037 0.08510428 0.0 -0.050671265 0.0
0.0 -0.014822603 -0.027894313 -0.024941968 0.0 -0.025978243 0.0 -0.034420166
0.0 0.0 -0.016074933 0.093361735 0.0 -0.0450837 0.083908 -0.04037549
0.0 -0.025996728 0.0 -0.035232592 -0.01199193 0.0 0.0 0.0
0.086272195 -0.0052688224 -0.011162005 -0.0331825 0.08280889 0.0 0.0 -0.04842086
0.08315891 0.08938982 0.0 0.07878003 -0.0056555304 -0.032125287 -0.044303622 0.07114168
0.09048924 0.074165836 -0.040181093 -0.0183113 -0.03280003 0.0 0.0 0.0
0.058393214 0.063522995 0.0 -0.024983283 0.07654252 0.0 0.0 0.0

fc3.weight f4 [4, 64]
00000000: 2b3a 853e 1404 b03d 3214 3a3e b10d 31be
00000010: e1c3 053d 3a8c 223e 4e92 82be b533 67be
00000020: ea64 10be 783a 77be f967 b4bd 4c10 6abe
00000030: 831c 0abd cdca 2dbe a65d 49be e7a0 62bd
00000040: 8bae 67be 641f 21be ae27 b13d 29de 8e3d
00000050: 9185 81be 8a67 5f3b 818b 163e 1b24 83bd
00000060: 165f 54bd 1ee3 13be 2353 32be ee80 313b
00000070: bf5f 1fbe e652 71be c23a 533e 25b4 db3c
00000080: c247 7f3e 7811 67be f855 86be 1099 1e3b
00000090: 4766 cf3c e43a fc3b 188c e73d 7092 ae3d
000000a0: 57b0 bd3d cd3e 7d3e d208 0b3e eb38 af3e
000000b0: 9cf0 80be 25c0 86be 3ea1 db3d 3e04 b33e
000000c0: b7f9 613e 2335 3c3e c8af 4dbe 4372 843d
000000d0: 449a 96bd e108 d13d ab63 383e f53f 55be
000000e0: 717e a43d 738e c33e b254 013e 3758 bbbd
000000f0: 86d8 4f3e c05c d3bd 15a0 3abe 35a1 02be
00000100: cb19 393e e3de 37be 06d2 803e a6bf 00be
00000110: 04db 2abe b3d5 123e af1d 653e ae18 703e
00000120: d169 0a3e c65e 8bbe 188b 513e a265 34be
00000130: ac6d 02bd 53e3 863e f5da f83d fab7 adbd
00000140: 4882 623e 19b9 983d 998e 1b3e 1901 25be
00000150: c5f9 dabd 18ee 243e c763 823c 8c13 d7bc
00000160: 2785 a8bc 43fc 6c3e 8c7a 953e 242c 35bd
00000170: 25e6 45bb a953 3fbe e08e 39bc ef18 2d3e
00000180: 3e7e fa3d 7b4a 1bbe 3b3d 32be 4702 f03d
00000190: aa7d 82be f3d9 793a 93f7 293e 7917 7d3e
000001a0: ab83 583c 749e 2c3e 0854 24be dbe6 20be
000001b0: 8421 8e3e d6c7 423e aac7 d43d c9c4 1b3e
000001c0: 1685 f3bd c035 aebe 99e7 67be 49f6 863e
000001d0: b9e6 50be 89f3 2abb ad61 053e 1ac3 93bb
000001e0: f2c3 c0be 5f82 95be f1ae a8bd 77fa d73d
000001f0: 6a99 3cbe 29a6 52bc 8a3a 03be 1199 6bbe
00000200: 97d7 86bd d364 07be 4b54 643e 7716 8b3e
00000210: 2b14 b4be 418f 413d 66b8 2b3e 42cf 41be
00000220: 93a0 4c3d a7e0 3e3e 97cb 6ebe dd15 ddbb
00000230: 93a8 253e dc36 97be 4cc5 a23d 5554 20be
00000240: 2eca acbd 8559 be3b b817 853e 7c53 893d
00000250: 59aa 5abe 6b71 87be e978 9fbe 3266 f73c
00000260: bd1c 453e f4b1 a7bd 7428 933d 7d71 223e
00000270: 5f61 58be ffee 97bd 2ae8 f13c ecc9 e0bd
00000280: cef3 a3be 83b7 333e fbec 583e 754f 4ebe
00000290: c6e4 523e dd89 82be 0604 5c3e 61f0 9b3b
000002a0: 242c babe 9204 8ebe c415 19be 31c6 283e
000002b0: 4619 8e3e 90c0 99be 5d70 d73c 1f3e c1be
000002c0: 8b44 e53c 75cb babe 1880 3e3e a994 0fbe
000002d0: bacf e5bd 4b39 98bd bfc5 873d 0eee df3c
000002e0: a938 babe 86db 6dbd a8c9 e2bd ed15 233e
000002f0: 8ba4 9bbe bdab 8e3e 6bfb 8cbd a5d0 81bc
00000300: 559b 86be 8b4a d53d cb44 443e ff2b 8c3d
00000310: fa46 6cbe 2467 80bc 55c8 82be 6072 12be
00000320: 180b 10be 9e73 9dbe c389 743d a24a 03be
00000330: b816 00bd 5a17 51bd f599 e4bd 05a5 293e
00000340: 892e 01bb 60ce d13d 9585 e33d ad3a cbbe
00000350: 27d0 b33d b534 a7bc 62ab 16be ed0f 39be
00000360: 32f8 d4bd 7354 fabd 919f d3bd 13d1 b8bd
00000370: 751d 033d c706 1d3e eb2c 58be 5031 8b3e
00000380: 3210 ef3d 5bbd 30be 6083 7fbe d983 873e
00000390: 40dc 22be a8c1 883e d534 85bc 54e6 d13a
000003a0: 3657 24be 7a38 c13c 665e 323e 0a38 083d
000003b0: 79d8 87bd 93fd 033e a234 443e 03bc b3be
000003c0: dd38 ea3d 9e57 92be 34df 1cbd a2ef d73d
000003d0: b796 463e 3545 32be 5b09 833e 7a77 113d
000003e0: da7c 8ebe 5a2a 6bbe ac1c 943e 1cf1 bebd
000003f0: a678 41bd 3a6f 42be 3038 0b3e 6c4e c23d
0.2602094 0.08594528 0.18171766 -0.17290379 0.032657508 0.15873805 -0.25502247 -0.22578318
-0.14100996 -0.24143398 -0.08808894 -0.2285778 -0.033718597 -0.16971894 -0.1966463 -0.05532923
-0.22625177 -0.15734631 0.086501464 0.069759674 -0.25297216 0.0034088814 0.14701654 -0.06403371
-0.051848494 -0.14442107 -0.17414527 0.0027084905 -0.15563868 -0.2356678 0.20627883 0.026819298
0.24929717 -0.22565258 -0.26237464 0.002420012 0.025317324 0.00769745 0.11306018 0.085240245
0.0926215 0.24730988 0.13577583 0.34223112 -0.2518357 -0.2631847 0.10724114 0.34964174
0.22067915 0.18379645 -0.20086586 0.06467106 -0.073536426 0.10206772 0.1800677 -0.20825179
0.08031929 0.38194618 0.12629965 -0.09147685 0.20297441 -0.10320425 -0.18225129 -0.12756808
0.18076245 -0.17956118 0.25160235 -0.12573108 -0.1668511 0.14339332 0.22374605 0.23446915
0.13516928 -0.27220744 0.20463216 -0.17616895 -0.031842873 0.2634531 0.12151138 -0.08482356
0.22120011 0.074571796 0.15191115 -0.161137 -0.10692171 0.1610645 0.015916718 -0.026254438
-0.020571304 0.23143105 0.29195058 -0.04423155 -0.0030196991 -0.18684258 -0.011325568 0.16904043
0.1223111 -0.15165131 -0.1740617 0.11719184 -0.254865 0.0009531073 0.16598348 0.24715985
0.013214986 0.1685732 -0.1604768 -0.15713064 0.27759945 0.19021544 0.103896454 0.15211786
-0.118906185 -0.34025383 -0.22646941 0.26359776 -0.20400514 -0.00260851 0.13025542 -0.004509342
-0.37649494 -0.29201028 -0.082364924 0.10545819 -0.18417898 -0.0128569985 -0.128153 -0.23007609
-0.06584089 -0.13222055 0.2229778 0.27165577 -0.35171637 0.04725576 0.16769561 -0.18926719
0.049957823 0.18640386 -0.23319851 -0.006746991 0.16177587 -0.29534042 0.07947788 -0.1565717
-0.08437 0.0058090114 0.25994658 0.067053765 -0.21354045 -0.2645372 -0.31146935 0.030200098
0.19249244 -0.08188239 0.0718545 0.15863605 -0.21130894 -0.07418632 0.02952965 -0.109760135
-0.32021946 0.17550473 0.21184151 -0.20147498 0.20595083 -0.25495806 0.2148591 0.00475888
-0.36361802 -0.27737862 -0.14949709 0.16481854 0.27753657 -0.30029726 0.026298696 -0.37742707
0.027986785 -0.3648335 0.18603551 -0.14021553 -0.11221261 -0.07432803 0.06629514 0.027335193
-0.36371353 -0.058070682 -0.11073619 0.15926333 -0.30398974 0.278654 -0.06883892 -0.01584656
-0.26290384 0.104146086 0.19166867 0.06844329 -0.2307395 -0.015674181 -0.25543466 -0.14301443
-0.14066732 -0.3075227 0.059701692 -0.12821439 -0.031271666 -0.05104766 -0.111621775 0.16566856
-0.0019711575 0.10244441 0.11109463 -0.39693204 0.08779936 -0.020410875 -0.14713815 -0.18072481
-0.10398902 -0.12223139 -0.10333169 -0.09024253 0.032010514 0.15334617 -0.21110885 0.2718606
0.11673011 -0.17259733 -0.2495246 0.2646778 -0.15904331 0.26710248 -0.016260544 0.0016014078
-0.16048893 0.0235865 0.17418823 0.033256568 -0.06633086 0.128897 0.19160703 -0.3510438
0.11436627 -0.28582472 -0.0382988 0.10543753 0.1939343 -0.17409213 0.25593075 0.035514332
-0.2782963 -0.22965375 0.28928125 -0.09323332 -0.0472342 -0.18987742 0.13595653 0.09487614

fc3.bias f4 [4]
00000000: 8c4d 8c3d da78 95bd 7241 6cbd 570c 89bd
0.068507284 -0.07298441 -0.0576796 -0.06691807

exp_avg f4 [64, 8]
00000000: 0000 0000 0000 0000 0000 0000 0000 0000
00000010: 0000 0000 0000 0000 0000 0000 0000 0000
00000020: 01b5 fab9 0000 0000 20b1 9cba 20b1 9cba
00000030: 0000 0000 01da 40ba 8110 f1b9 20b1 9cba
00000040: 0000 0000 0000 0000 0000 0000 0000 0000
00000050: 0000 0000 0000 0000 0000 0000 0000 0000
00000060: 0000 0000 0000 0000 0000 0000 0000 0000
00000070: 0000 0000 0000 0000 0000 0000 0000 0000
00000080: 0000 0000 0000 0000 0000 0000 0000 0000
00000090: 0000 0000 0000 0000 0000 0000 0000 0000
000000a0: 0000 0000 0000 0000 0000 0000 0000 0000
000000b0: 0000 0000 0000 0000 0000 0000 0000 0000
000000c0: 0000 0000 0000 0000 0000 0000 0000 0000
000000d0: 0000 0000 0000 0000 0000 0000 0000 0000
000000e0: 87b6 60b9 0000 0000 1472 0cba 1472 0cba
000000f0: 0000 0000 2ddb acb9 f711 58b9 1472 0cba
00000100: 5be4 e8b9 0000 0000 b78e 91ba b78e 91ba
00000110: 0000 0000 d025 33ba 43ef dfb9 b78e 91ba
00000120: 0000 0000 0000 0000 0000 0000 0000 0000
00000130: 0000 0000 0000 0000 0000 0000 0000 0000
00000140: 0000 0000 0000 0000 0000 0000 0000 0000
00000150: 0000 0000 0000 0000 0000 0000 0000 0000
00000160: 0000 0000 0000 0000 0000 0000 0000 0000
00000170: 0000 0000 0000 0000 0000 0000 0000 0000
00000180: 0000 0000 0000 0000 0000 0000 0000 0000
00000190: 0000 0000 0000 0000 0000 0000 0000 0000
000001a0: 0000 0000 0000 0000 0000 0000 0000 0000
000001b0: 0000 0000 0000 0000 0000 0000 0000 0000
000001c0: 0000 0000 0000 0000 0000 0000 0000 0000
000001d0: 0000 0000 0000 0000 0000 0000 0000 0000
000001e0: 0000 0000 0000 0000 0000 0000 0000 0000
000001f0: 0000 0000 0000 0000 0000 0000 0000 0000
00000200: 0000 0000 0000 0000 0000 0000 0000 0000
00000210: 0000 0000 0000 0000 0000 0000 0000 0000
00000220: 4ba6 67b9 0000 0000 edc7 10ba edc7 10ba
00000230: 0000 0000 2631 b2b9 6ebd 5eb9 edc7 10ba
00000240: b6aa dfb9 0000 0000 b1ca 8bba b1ca 8bba
00000250: 0000 0000 290d 2cba 7410 d7b9 b1ca 8bba
00000260: 0000 0000 0000 0000 0000 0000 0000 0000
00000270: 0000 0000 0000 0000 0000 0000 0000 0000
00000280: b127 5db9 0000 0000 cf38 0aba cf38 0aba
00000290: 0000 0000 891e aab9 2aa6 54b9 cf38 0aba
000002a0: 0000 0000 0000 0000 0000 0000 0000 0000
000002b0: 0000 0000 0000 0000 0000 0000 0000 0000
000002c0: 0667 ebb9 0000 0000 6420 93ba 6420 93ba
000002d0: 0000 0000 2c14 35ba 3559 e2b9 6420 93ba
000002e0: 87a6 bdb9 0000 0000 2710 6dba 2710 6dba
000002f0: 0000 0000 8de2 11ba 325b b6b9 2710 6dba
00000300: 2584 c9b8 0000 0000 2ee5 7bb9 2ee5 7bb9
00000310: 0000 0000 3103 1bb9 fdc3 c1b8 2ee5 7bb9
00000320: 8943 c8b9 0000 0000 6a54 7aba 6a54 7aba
00000330: 0000 0000 920c 1aba b68f c0b9 6a54 7aba
00000340: 0000 0000 0000 0000 0000 0000 0000 0000
00000350: 0000 0000 0000 0000 0000 0000 0000 0000
00000360: 1a34 a2b9 0000 0000 20c1 4aba 20c1 4aba
00000370: 0000 0000 3a8b f9b9 04f7 9bb9 20c1 4aba
00000380: 0000 0000 0000 0000 0000 0000 0000 0000
00000390: 0000 0000 0000 0000 0000 0000 0000 0000
000003a0: 0000 0000 0000 0000 0000 0000 0000 0000
000003b0: 0000 0000 0000 0000 0000 0000 0000 0000
000003c0: c8f2 acb9 0000 0000 782f 58ba 782f 58ba
000003d0: 0000 0000 8609 05ba e84b a6b9 782f 58ba
000003e0: 9925 e4b9 0000 0000 7e97 8eba 7e97 8eba
000003f0: 0000 0000 617f 2fba 395f dbb9 7e97 8eba
0.0 0.0 0.0 0.0 0.0 0.0 0.0 0.0
-0.00047818574 0.0 -0.0011954643 -0.0011954643 0.0 -0.0007356704 -0.00045979398 -0.0011954643
0.0 0.0 0.0 0.0 0.0 0.0 0.0 0.0
0.0 0.0 0.0 0.0 0.0 0.0 0.0 0.0
0.0 0.0 0.0 0.0 0.0 0.0 0.0 0.0
0.0 0.0 0.0 0.0 0.0 0.0 0.0 0.0
0.0 0.0 0.0 0.0 0.0 0.0 0.0 0.0
-0.00021430301 0.0 -0.0005357575 -0.0005357575 0.0 -0.00032969695 -0.00020606058 -0.0005357575
-0.00044420626 0.0 -0.0011105154 -0.0011105154 0.0 -0.00068339426 -0.00042712138 -0.0011105154
0.0 0.0 0.0 0.0 0.0 0.0 0.0 0.0
0.0 0.0 0.0 0.0 0.0 0.0 0.0 0.0
0.0 0.0 0.0 0.0 0.0 0.0 0.0 0.0
0.0 0.0 0.0 0.0 0.0 0.0 0.0 0.0
0.0 0.0 0.0 0.0 0.0 0.0 0.0 0.0
0.0 0.0 0.0 0.0 0.0 0.0 0.0 0.0
0.0 0.0 0.0 0.0 0.0 0.0 0.0 0.0
0.0 0.0 0.0 0.0 0.0 0.0 0.0 0.0
-0.00022091826 0.0 -0.00055229553 -0.00055229553 0.0 -0.00033987424 -0.00021242138 -0.00055229553
-0.00042661064 0.0 -0.0010665265 -0.0010665265 0.0 -0.00065632403 -0.00041020254 -0.0010665265
0.0 0.0 0.0 0.0 0.0 0.0 0.0 0.0
-0.00021090989 0.0 -0.00052727474 -0.00052727474 0.0 -0.00032447677 -0.00020279796 -0.00052727474
0.0 0.0 0.0 0.0 0.0 0.0 0.0 0.0
-0.0004489945 0.0 -0.0011224863 -0.0011224863 0.0 -0.0006907608 -0.00043172544 -0.0011224863
-0.00036172962 0.0 -0.00090432394 -0.00090432394 0.0 -0.000556507 -0.0003478169 -0.00090432394
-9.609041e-05 0.0 -0.00024022601 -0.00024022601 0.0 -0.00014783141 -9.239463e-05 -0.00024022601
-0.0003819729 0.0 -0.0009549322 -0.0009549322 0.0 -0.0005876507 -0.00036728167 -0.0009549322
0.0 0.0 0.0 0.0 0.0 0.0 0.0 0.0
-0.00030937867 0.0 -0.00077344663 -0.00077344663 0.0 -0.00047596713 -0.00029747945 -0.00077344663
0.0 0.0 0.0 0.0 0.0 0.0 0.0 0.0
0.0 0.0 0.0 0.0 0.0 0.0 0.0 0.0
-0.00032987283 0.0 -0.00082468195 -0.00082468195 0.0 -0.00050749665 -0.00031718542 -0.00082468195
-0.0004351556 0.0 -0.0010878888 -0.0010878888 0.0 -0.0006694701 -0.00041841881 -0.0010878888

exp_avg_sq f4 [64, 8]
00000000: 0000 0000 0000 0000 0000 0000 0000 0000
00000010: 0000 0000 0000 0000 0000 0000 0000 0000
00000020: 522e ff37 0000 0000 275c 4739 275c 4739
00000030: 0000 0000 9ffe 9638 d4ed eb37 275c 4739
00000040: 0000 0000 0000 0000 0000 0000 0000 0000
00000050: 0000 0000 0000 0000 0000 0000 0000 0000
00000060: 0000 0000 0000 0000 0000 0000 0000 0000
00000070: 0000 0000 0000 0000 0000 0000 0000 0000
00000080: 0000 0000 0000 0000 0000 0000 0000 0000
00000090: 0000 0000 0000 0000 0000 0000 0000 0000
000000a0: 0000 0000 0000 0000 0000 0000 0000 0000
000000b0: 0000 0000 0000 0000 0000 0000 0000 0000
000000c0: 0000 0000 0000 0000 0000 0000 0000 0000
000000d0: 0000 0000 0000 0000 0000 0000 0000 0000
000000e0: c2ec 2737 0000 0000 f530 8338 f530 8338
000000f0: 0000 0000 4fba c637 8541 1b37 f530 8338
00000100: 524c f637 0000 0000 9e6b 4039 9e6b 4039
00000110: 0000 0000 0bbd 9138 6bb7 e337 9e6b 4039
00000120: 0000 0000 0000 0000 0000 0000 0000 0000
00000130: 0000 0000 0000 0000 0000 0000 0000 0000
00000140: 0000 0000 0000 0000 0000 0000 0000 0000
00000150: 0000 0000 0000 0000 0000 0000 0000 0000
00000160: 0000 0000 0000 0000 0000 0000 0000 0000
00000170: 0000 0000 0000 0000 0000 0000 0000 0000
00000180: 0000 0000 0000 0000 0000 0000 0000 0000
00000190: 0000 0000 0000 0000 0000 0000 0000 0000
000001a0: 0000 0000 0000 0000 0000 0000 0000 0000
000001b0: 0000 0000 0000 0000 0000 0000 0000 0000
000001c0: 0000 0000 0000 0000 0000 0000 0000 0000
000001d0: 0000 0000 0000 0000 0000 0000 0000 0000
000001e0: 0000 0000 0000 0000 0000 0000 0000 0000
000001f0: 0000 0000 0000 0000 0000 0000 0000 0000
00000200: 0000 0000 0000 0000 0000 0000 0000 0000
00000210: 0000 0000 0000 0000 0000 0000 0000 0000
00000220: 5a38 7e37 0000 0000 009c c638 009c c638
00000230: 0000 0000 106d 1638 780a 6b37 009c c638
00000240: 222a 2338 0000 0000 daf1 7e39 daf1 7e39
00000250: 0000 0000 1518 c138 d5da 1638 daf1 7e39
00000260: 0000 0000 0000 0000 0000 0000 0000 0000
00000270: 0000 0000 0000 0000 0000 0000 0000 0000
00000280: 78a7 2437 0000 0000 d5a2 8038 d5a2 8038
00000290: 0000 0000 73db c237 6e3b 1837 d5a2 8038
000002a0: 0000 0000 0000 0000 0000 0000 0000 0000
000002b0: 0000 0000 0000 0000 0000 0000 0000 0000
000002c0: 8d15 0038 0000 0000 bd21 4839 bd21 4839
000002d0: 0000 0000 4494 9738 a3d7 ec37 bd21 4839
000002e0: a41d 9537 0000 0000 47fe e838 47fe e838
000002f0: 0000 0000 f077 3038 b5dd 8937 47fe e838
00000300: 88a7 1a36 0000 0000 d2a5 7137 d2a5 7137
00000310: 0000 0000 e905 b736 9bfc 0e36 d2a5 7137
00000320: 6259 af37 0000 0000 dffd 0839 dffd 0839
00000330: 0000 0000 8c83 4f38 cb1e a237 dffd 0839
00000340: 0000 0000 0000 0000 0000 0000 0000 0000
00000350: 0000 0000 0000 0000 0000 0000 0000 0000
00000360: 8830 c236 0000 0000 f3b5 1738 f3b5 1738
00000370: 0000 0000 69cf 6537 0f8a b336 f3b5 1738
00000380: 0000 0000 0000 0000 0000 0000 0000 0000
00000390: 0000 0000 0000 0000 0000 0000 0000 0000
000003a0: 0000 0000 0000 0000 0000 0000 0000 0000
000003b0: 0000 0000 0000 0000 0000 0000 0000 0000
000003c0: eee4 2337 0000 0000 d30a 8038 d30a 8038
000003d0: 0000 0000 2bf5 c137 8b87 1737 d30a 8038
000003e0: 6457 a337 0000 0000 7b38 ff38 7b38 ff38
000003f0: 0000 0000 a54d 4138 b304 9737 7b38 ff38
0.0 0.0 0.0 0.0 0.0 0.0 0.0 0.0
3.0419938e-05 0.0 0.00019012448 0.00019012448 0.0 7.199984e-05 2.812493e-05 0.00019012448
0.0 0.0 0.0 0.0 0.0 0.0 0.0 0.0
0.0 0.0 0.0 0.0 0.0 0.0 0.0 0.0
0.0 0.0 0.0 0.0 0.0 0.0 0.0 0.0
0.0 0.0 0.0 0.0 0.0 0.0 0.0 0.0
0.0 0.0 0.0 0.0 0.0 0.0 0.0 0.0
1.00091e-05 0.0 6.255686e-05 6.255686e-05 0.0 2.3690196e-05 9.253975e-06 6.255686e-05
2.9361025e-05 0.0 0.00018350637 0.00018350637 0.0 6.949351e-05 2.714592e-05 0.00018350637
0.0 0.0 0.0 0.0 0.0 0.0 0.0 0.0
0.0 0.0 0.0 0.0 0.0 0.0 0.0 0.0
0.0 0.0 0.0 0.0 0.0 0.0 0.0 0.0
0.0 0.0 0.0 0.0 0.0 0.0 0.0 0.0
0.0 0.0 0.0 0.0 0.0 0.0 0.0 0.0
0.0 0.0 0.0 0.0 0.0 0.0 0.0 0.0
0.0 0.0 0.0 0.0 0.0 0.0 0.0 0.0
0.0 0.0 0.0 0.0 0.0 0.0 0.0 0.0
1.51527e-05 0.0 9.470433e-05 9.470433e-05 0.0 3.586436e-05 1.4009529e-05 9.470433e-05
3.8901468e-05 0.0 0.00024313424 0.00024313424 0.0 9.207443e-05 3.596659e-05 0.00024313424
0.0 0.0 0.0 0.0 0.0 0.0 0.0 0.0
9.814154e-06 0.0 6.1338455e-05 6.1338455e-05 0.0 2.3228791e-05 9.073743e-06 6.1338455e-05
0.0 0.0 0.0 0.0 0.0 0.0 0.0 0.0
3.053765e-05 0.0 0.00019086055 0.00019086055 0.0 7.227858e-05 2.8233806e-05 0.00019086055
1.7775987e-05 0.0 0.00011109985 0.00011109985 0.0 4.207337e-05 1.6434913e-05 0.00011109985
2.3045304e-06 0.0 1.4403327e-05 1.4403327e-05 0.0 5.454513e-06 2.1306685e-06 1.4403327e-05
2.0903248e-05 0.0 0.00013064545 0.00013064545 0.0 4.947516e-05 1.9326244e-05 0.00013064545
0.0 0.0 0.0 0.0 0.0 0.0 0.0 0.0
5.7873003e-06 0.0 3.617066e-05 3.617066e-05 0.0 1.3697755e-05 5.350688e-06 3.617066e-05
0.0 0.0 0.0 0.0 0.0 0.0 0.0 0.0
0.0 0.0 0.0 0.0 0.0 0.0 0.0 0.0
9.768859e-06 0.0 6.105532e-05 6.105532e-05 0.0 2.3121558e-05 9.03186e-06 6.105532e-05
1.9471809e-05 0.0 0.00012169868 0.00012169868 0.0 4.6087098e-05 1.8002791e-05 0.00012169868

exp_avg f4 [64]
00000000: 0000 0000 1fb1 9cba 0000 0000 0000 0000
00000010: 0000 0000 0000 0000 0000 0000 1472 0cba
00000020: b78e 91ba 0000 0000 0000 0000 0000 0000
00000030: 0000 0000 0000 0000 0000 0000 0000 0000
00000040: 0000 0000 eec7 10ba b1ca 8bba 0000 0000
00000050: cf38 0aba 0000 0000 6420 93ba 2710 6dba
00000060: 2ee5 7bb9 6b54 7aba 0000 0000 1fc1 4aba
00000070: 0000 0000 0000 0000 792f 58ba 7e97 8eba
00000080: 3504 cdb9 5b7f 81ba 9139 81ba 08cc ccb9
00000090: 40c5 92b9 0000 0000 132c 4dba 0000 0000
000000a0: 0000 0000 ea0b 83ba ac87 ad31 0000 0000
000000b0: 0000 0000 0000 0000 5f3f 282f 0000 0000
000000c0: 7107 8fba 0000 0000 06cb 8dba 0000 0000
000000d0: 0000 0000 0000 0000 0000 0000 5f2f 8eb9
000000e0: 0000 0000 0000 0000 0f0c 7db9 e4f3 0330
000000f0: 0000 0000 5b95 18ba 4d33 92b9 0000 0000
0.0 -0.0011954642 0.0 0.0 0.0 0.0 0.0 -0.0005357575
-0.0011105154 0.0 0.0 0.0 0.0 0.0 0.0 0.0
0.0 -0.0005522956 -0.0010665265 0.0 -0.00052727474 0.0 -0.0011224863 -0.00090432394
-0.00024022601 -0.00095493224 0.0 -0.0007734466 0.0 0.0 -0.000824682 -0.0010878888
-0.00039103781 -0.0009879874 -0.0009859075 -0.00039061927 -0.00027994253 0.0 -0.0007826697 0.0
0.0 -0.0009998058 5.0503868e-09 0.0 0.0 0.0 1.5302025e-10 0.0
-0.0010912252 0.0 -0.0010817952 0.0 0.0 0.0 0.0 -0.00027119645
0.0 0.0 -0.00024132452 4.800411e-10 0.0 -0.00058205955 -0.00027885512 0.0

exp_avg_sq f4 [64]
00000000: 0000 0000 275c 4739 0000 0000 0000 0000
00000010: 0000 0000 0000 0000 0000 0000 f630 8338
00000020: 9e6b 4039 0000 0000 0000 0000 0000 0000
00000030: 0000 0000 0000 0000 0000 0000 0000 0000
00000040: 0000 0000 039c c638 d8f1 7e39 0000 0000
00000050: d5a2 8038 0000 0000 bc21 4839 45fe e838
00000060: d0a5 7137 dffd 0839 0000 0000 f0b5 1738
00000070: 0000 0000 0000 0000 d20a 8038 7938 ff38
00000080: ef6c 2138 b925 b338 6a37 c138 a867 c437
00000090: 4e9a b238 0000 0000 eea4 4c38 0000 0000
000000a0: 0000 0000 7174 d338 f1a6 e636 0000 0000
000000b0: 0000 0000 0000 0000 7194 2a38 0000 0000
000000c0: b0ee 3539 0000 0000 934f 1e39 0000 0000
000000d0: 0000 0000 0000 0000 0000 0000 d94a 7f36
000000e0: 0000 0000 0000 0000 ae48 9d38 e6ad d437
000000f0: 0000 0000 d5d0 8837 b336 3a38 0000 0000
0.0 0.00019012448 0.0 0.0 0.0 0.0 0.0 6.2556865e-05
0.00018350637 0.0 0.0 0.0 0.0 0.0 0.0 0.0
0.0 9.470435e-05 0.00024313421 0.0 6.1338455e-05 0.0 0.00019086053 0.000111099835
1.4403326e-05 0.00013064545 0.0 3.6170648e-05 0.0 0.0 6.105531e-05 0.000121698664
3.8486844e-05 8.5424115e-05 9.213279e-05 2.341329e-05 8.516443e-05 0.0 4.8790993e-05 0.0
0.0 0.00010082953 6.8739687e-06 0.0 0.0 0.0 4.0669405e-05 0.0
0.00017350423 0.0 0.00015097698 0.0 0.0 0.0 0.0 3.8041528e-06
0.0 0.0 7.499881e-05 2.5353347e-05 0.0 1.6309708e-05 4.43968e-05 0.0

exp_avg f4 [64, 64]
00000000: 0000 0000 d930 9fb9 0000 0000 0000 0000
00000010: 0000 0000 0000 0000 0000 0000 7eaf 43b9
00000020: 3012 35b9 0000 0000 0000 0000 0000 0000
00000030: 0000 0000 0000 0000 0000 0000 0000 0000
00000040: 0000 0000 1192 fbb8 aac9 25b9 0000 0000
00000050: 089b 85b9 0000 0000 f75f 28b9 67f0 a6b9
00000060: 84a0 a0b8 3bee 21b9 0000 0000 1894 62b9
00000070: 0000 0000 0000 0000 4058 57b9 1788 14b9
00000080: 4006 1eb9 72a0 32b9 fb17 b1b9 5a98 13b9
00000090: 9882 42b9 0000 0000 9058 34b9 0000 0000
000000a0: 0000 0000 6132 91b9 d708 e0af 0000 0000
000000b0: 0000 0000 0000 0000 1c00 8aab 0000 0000
000000c0: 0857 40b9 0000 0000 3ebe 55b9 0000 0000
000000d0: 0000 0000 0000 0000 0000 0000 f23e 2cb9
000000e0: 0000 0000 0000 0000 9d1a 9ab8 0c69 c6ad
000000f0: 0000 0000 c454 4fb9 015c e3b8 0000 0000
00000100: 0000 0000 b734 9cb9 0000 0000 0000 0000
00000110: 0000 0000 0000 0000 0000 0000 5904 40b9
00000120: c0ad 31b9 0000 0000 0000 0000 0000 0000
00000130: 0000 0000 0000 0000 0000 0000 0000 0000
00000140: 0000 0000 12db f6b8 60ae 22b9 0000 0000
00000150: 9219 83b9 0000 0000 8138 25b9 06cf a3b9
00000160: 509e 9db8 d7e5 1eb9 0000 0000 ad55 5eb9
00000170: 0000 0000 0000 0000 6d4f 53b9 65c0 11b9
00000180: f00f 1bb9 4148 2fb9 ebc5 adb9 61d4 10b9
00000190: 1adc 3eb9 0000 0000 12f8 30b9 0000 0000
000001a0: 0000 0000 a379 8eb9 af55 d9ae 0000 0000
000001b0: 0000 0000 0000 0000 a01a d52a 0000 0000
000001c0: 79bc 3cb9 0000 0000 e7bc 51b9 0000 0000
000001d0: 0000 0000 0000 0000 0000 0000 3505 29b9
000001e0: 0000 0000 0000 0000 a636 97b8 84bc 5d2c
000001f0: 0000 0000 1273 4bb9 7818 dfb8 0000 0000
00000200: 0000 0000 6458 c833 0000 0000 0000 0000
00000210: 0000 0000 0000 0000 0000 0000 90c6 7533
00000220: 5c99 6233 0000 0000 0000 0000 0000 0000
00000230: 0000 0000 0000 0000 0000 0000 0000 0000
00000240: 0000 0000 0984 1d33 a2bd 4f33 0000 0000
00000250: b14b a833 0000 0000 7e85 5233 e831 d233
00000260: d060 c732 023a 4a33 0000 0000 7c54 8d33
00000270: 0000 0000 0000 0000 0da2 8633 b2a6 3833
00000280: 2c30 4633 2188 5e33 a5c8 de33 ab5a 3833
00000290: 98d6 7533 0000 0000 b797 6033 0000 0000
000002a0: 0000 0000 5755 b633 824b 552d 0000 0000
000002b0: 0000 0000 0000 0000 0000 0000 0000 0000
000002c0: 48db 7033 0000 0000 51ea 8533 0000 0000
000002d0: 0000 0000 0000 0000 0000 0000 cda1 5533
000002e0: 0000 0000 0000 0000 f3a8 c132 0000 0000
000002f0: 0000 0000 91d7 8033 35cd 0e33 0000 0000
00000300: 0000 0000 9a3c 7a2e 0000 0000 0000 0000
00000310: 0000 0000 0000 0000 0000 0000 496b 3b2e
00000320: 374b 9e2d 0000 0000 0000 0000 0000 0000
00000330: 0000 0000 0000 0000 0000 0000 0000 0000
00000340: 0000 0000 9bea f52d c6d0 a72d 0000 0000
00000350: 091a 732e 0000 0000 2cbf 972d 57d7 862e
00000360: 8cea 8a2d d5b5 562d 0000 0000 574e e42d
00000370: 0000 0000 0000 0000 7b74 f62d cbff 842c
00000380: 45d8 cc2d aa94 782d 7a4d 952e d651 d52d
00000390: 52b8 862e 0000 0000 0e0b 882d 0000 0000
000003a0: 0000 0000 02c8 542e eb8e bf2c 0000 0000
000003b0: 0000 0000 0000 0000 0000 0000 0000 0000
000003c0: 2318 b82d 0000 0000 db8e e12d 0000 0000
000003d0: 0000 0000 0000 0000 0000 0000 bb71 162e
000003e0: 0000 0000 0000 0000 7132 032e bb9f ca2b
000003f0: 0000 0000 b428 ba2d ee7b 202e 0000 0000
0.0 -0.00030363238 0.0 0.0 0.0 0.0 0.0 -0.00018662025
-0.0001726828 0.0 0.0 0.0 0.0 0.0 0.0 0.0
0.0 -0.0001199582 -0.00015810752 0.0 -0.00025483244 0.0 -0.00016057478 -0.000318411
-7.659293e-05 -0.00015442904 0.0 -0.00021608209 0.0 0.0 -0.00020536873 -0.00014165077
-0.00015070383 -0.00017035173 -0.00033777938 -0.00014075768 -0.00018549932 0.0 -0.0001719913 0.0
0.0 -0.0002769409 -4.0751644e-10 0.0 0.0 0.0 -9.80552e-13 0.0
-0.00018342969 0.0 -0.00020384134 0.0 0.0 0.0 0.0 -0.00016426647
0.0 0.0 -7.348249e-05 -2.2556644e-11 0.0 -0.00019772636 -0.000108413406 0.0
0.0 -0.00029793914 0.0 0.0 0.0 0.0 0.0 -0.00018312167
-0.00016944762 0.0 0.0 0.0 0.0 0.0 0.0 0.0
0.0 -0.00011770999 -0.00015514484 0.0 -0.00025005318 0.0 -0.00015756676 -0.00031244027
-7.5158314e-05 -0.00015153676 0.0 -0.00021203487 0.0 0.0 -0.00020152116 -0.0001389995
-0.00014787889 -0.00016716217 -0.00033144592 -0.00013812027 -0.00018201806 0.0 -0.00016877081 0.0
0.0 -0.00027174977 -9.883238e-11 0.0 0.0 0.0 3.7854875e-13 0.0
-0.00017999289 0.0 -0.00020002165 0.0 0.0 0.0 0.0 -0.00016119036
0.0 0.0 -7.21042e-05 3.1510636e-12 0.0 -0.00019402456 -0.00010638026 0.0
0.0 9.329304e-08 0.0 0.0 0.0 0.0 0.0 5.72241e-08
5.2759205e-08 0.0 0.0 0.0 0.0 0.0 0.0 0.0
0.0 3.6674496e-08 4.8368413e-08 0.0 7.836878e-08 0.0 4.9015846e-08 9.787965e-08
2.3210674e-08 4.7084548e-08 0.0 6.581192e-08 0.0 0.0 6.269338e-08 4.2992447e-08
4.614428e-08 5.181221e-08 1.03741776e-07 4.29233e-08 5.723868e-08 0.0 5.2292048e-08 0.0
0.0 8.490559e-08 1.2124414e-11 0.0 0.0 0.0 0.0 0.0
5.607879e-08 0.0 6.235917e-08 0.0 0.0 0.0 0.0 4.9740084e-08
0.0 0.0 2.2544986e-08 0.0 0.0 5.999676e-08 3.3248586e-08 0.0
0.0 5.6897244e-11 0.0 0.0 0.0 0.0 0.0 4.2614166e-11
1.7995922e-11 0.0 0.0 0.0 0.0 0.0 0.0 0.0
0.0 2.7957461e-11 1.9078416e-11 0.0 5.5274927e-11 0.0 1.725161e-11 6.1318665e-11
1.5792943e-11 1.22048665e-11 0.0 2.5955389e-11 0.0 0.0 2.801869e-11 3.7800644e-12
2.3288158e-11 1.4130178e-11 6.789498e-11 2.4251639e-11 6.1263564e-11 0.0 1.546632e-11 0.0
0.0 4.8380862e-11 5.4444136e-12 0.0 0.0 0.0 0.0 0.0
2.0929097e-11 0.0 2.5642979e-11 0.0 0.0 0.0 0.0 3.4207064e-11
0.0 0.0 2.9830752e-11 1.4397297e-12 0.0 2.1163828e-11 3.648986e-11 0.0

exp_avg_sq f4 [64, 64]
00000000: 0000 0000 5e3b c937 0000 0000 0000 0000
00000010: 0000 0000 0000 0000 0000 0000 f534 4337
00000020: 015e 7236 0000 0000 0000 0000 0000 0000
00000030: 0000 0000 0000 0000 0000 0000 0000 0000
00000040: 0000 0000 4edf a836 5f8a 6f36 0000 0000
00000050: fb25 a937 0000 0000 45d3 4d36 72a1 dc37
00000060: 12de 0636 f058 1e36 0000 0000 867c d336
00000070: 0000 0000 0000 0000 7cc4 dd36 7805 9335
00000080: c2c6 a436 310c 3436 fbcc 0138 550a 9236
00000090: 0ff2 b537 0000 0000 6588 4436 0000 0000
000000a0: 0000 0000 9132 8a37 dbd7 8034 0000 0000
000000b0: 0000 0000 0000 0000 1fc1 4131 0000 0000
000000c0: d39d 9336 0000 0000 f78f d036 0000 0000
000000d0: 0000 0000 0000 0000 0000 0000 e659 f336
000000e0: 0000 0000 0000 0000 6984 a036 b621 b833
000000f0: 0000 0000 e360 9a36 978c fb36 0000 0000
00000100: 0000 0000 2888 2436 0000 0000 0000 0000
00000110: 0000 0000 0000 0000 0000 0000 4965 8735
00000120: 70e7 0d35 0000 0000 0000 0000 0000 0000
00000130: 0000 0000 0000 0000 0000 0000 0000 0000
00000140: 0000 0000 ed93 e234 d976 0135 0000 0000
00000150: 5068 fc35 0000 0000 a9f6 eb34 1173 3236
00000160: 61f0 4734 cbad cd34 0000 0000 1056 5f35
00000170: 0000 0000 0000 0000 6bf3 5935 ed87 8234
00000180: 3e0d 1a35 d773 e634 b39b 4936 e392 f434
00000190: 641c d235 0000 0000 d057 f434 0000 0000
000001a0: 0000 0000 5d3d eb35 2556 8332 0000 0000
000001b0: 0000 0000 0000 0000 c3b4 0e30 0000 0000
000001c0: 55c0 2435 0000 0000 d9b5 5a35 0000 0000
000001d0: 0000 0000 0000 0000 0000 0000 efcb 2b35
000001e0: 0000 0000 0000 0000 63e1 9d34 b337 0632
000001f0: 0000 0000 f5a0 2a35 0f24 0935 0000 0000
00000200: 0000 0000 6459 3934 0000 0000 0000 0000
00000210: 0000 0000 0000 0000 0000 0000 37cc 8e33
00000220: 8592 0933 0000 0000 0000 0000 0000 0000
00000230: 0000 0000 0000 0000 0000 0000 0000 0000
00000240: 0000 0000 4ec9 e032 9f30 0733 0000 0000
00000250: 7c7f 2234 0000 0000 ecc5 e432 08e2 5334
00000260: 8421 5032 7425 a432 0000 0000 c611 5f33
00000270: 0000 0000 0000 0000 62af 6933 e34e 1832
00000280: 63e6 3033 e5af a432 335b 7134 1ba7 2233
00000290: 2e7c 0334 0000 0000 17e6 db32 0000 0000
000002a0: 0000 0000 167a 0134 1be5 1c30 0000 0000
000002b0: 0000 0000 0000 0000 0000 0000 0000 0000
000002c0: e004 2333 0000 0000 0189 5e33 0000 0000
000002d0: 0000 0000 0000 0000 0000 0000 7ab5 6833
000002e0: 0000 0000 0000 0000 1f6d ae32 0000 0000
000002f0: 0000 0000 384f 1333 7ffd 1c33 0000 0000
00000300: 0000 0000 7936 a335 0000 0000 0000 0000
00000310: 0000 0000 0000 0000 0000 0000 f11b 3735
00000320: cd9e 0234 0000 0000 0000 0000 0000 0000
00000330: 0000 0000 0000 0000 0000 0000 0000 0000
00000340: 0000 0000 3ca0 9d34 90ce 1234 0000 0000
00000350: bc09 9a35 0000 0000 cc13 f033 8890 bd35
00000360: f631 c933 a751 7033 0000 0000 c0db 8734
00000370: 0000 0000 0000 0000 3b51 9e34 b66b b831
00000380: e8bd 5a34 470f a133 db67 e835 4b37 6d34
00000390: 4c39 bd35 0000 0000 97f5 c033 0000 0000
000003a0: 0000 0000 2705 6c35 5a49 3f32 0000 0000
000003b0: 0000 0000 0000 0000 0000 0000 0000 0000
000003c0: 85ab 3034 0000 0000 939b 8434 0000 0000
000003d0: 0000 0000 0000 0000 0000 0000 46f9 eb34
000003e0: 0000 0000 0000 0000 f574 b334 4a06 5630
000003f0: 0000 0000 b4a7 3434 8b42 0635 0000 0000
0.0 2.3988712e-05 0.0 0.0 0.0 0.0 0.0 1.1635236e-05
3.6115528e-06 0.0 0.0 0.0 0.0 0.0 0.0 0.0
0.0 5.0327862e-06 3.5694318e-06 0.0 2.0164056e-05 0.0 3.0670355e-06 2.6301223e-05
2.0096818e-06 2.3595603e-06 0.0 6.3027865e-06 0.0 0.0 6.609187e-06 1.0953945e-06
4.9107193e-06 2.6829186e-06 3.09469e-05 4.352342e-06 2.1689599e-05 0.0 2.9285668e-06 0.0
0.0 1.6474429e-05 2.3998913e-07 0.0 0.0 0.0 2.8194973e-09 0.0
4.3993145e-06 0.0 6.2156428e-06 0.0 0.0 0.0 0.0 7.25243e-06
0.0 0.0 4.783786e-06 8.5743e-08 0.0 4.6008367e-06 7.4967497e-06 0.0
0.0 2.4517158e-06 0.0 0.0 0.0 0.0 0.0 1.0087762e-06
5.286338e-07 0.0 0.0 0.0 0.0 0.0 0.0 0.0
0.0 4.220341e-07 4.822919e-07 0.0 1.8805822e-06 0.0 4.395163e-07 2.6591044e-06
1.8620769e-07 3.8310677e-07 0.0 8.319921e-07 0.0 0.0 8.119302e-07 2.4313286e-07
5.738874e-07 4.2925123e-07 3.0041963e-06 4.5555416e-07 1.5654482e-06 0.0 4.5512434e-07 0.0
0.0 1.7526723e-06 1.5289581e-08 0.0 0.0 0.0 5.1916177e-10 0.0
6.137464e-07 0.0 8.147595e-07 0.0 0.0 0.0 0.0 6.3999227e-07
0.0 0.0 2.940752e-07 7.812491e-09 0.0 6.356416e-07 5.108895e-07 0.0
0.0 1.7261988e-07 0.0 0.0 0.0 0.0 0.0 6.649537e-08
3.2031057e-08 0.0 0.0 0.0 0.0 0.0 0.0 0.0
0.0 2.6168575e-08 3.1476358e-08 0.0 1.5133804e-07 0.0 2.6632698e-08 1.9733136e-07
1.2114814e-08 1.9109144e-08 0.0 5.19374e-08 0.0 0.0 5.440905e-08 8.865501e-09
4.118773e-08 1.91721e-08 2.2478052e-07 3.7870546e-08 1.2245502e-07 0.0 2.5599588e-08 0.0
0.0 1.2058476e-07 5.707805e-10 0.0 0.0 0.0 0.0 0.0
3.795583e-08 0.0 5.1813007e-08 0.0 0.0 0.0 0.0 5.418176e-08
0.0 0.0 2.0305889e-08 0.0 0.0 3.4298154e-08 3.6552134e-08 0.0
0.0 1.21603e-06 0.0 0.0 0.0 0.0 0.0 6.821347e-07
1.2164965e-07 0.0 0.0 0.0 0.0 0.0 0.0 0.0
0.0 2.9360115e-07 1.3672457e-07 0.0 1.1476727e-06 0.0 1.1179472e-07 1.4123661e-06
9.36888e-08 5.5953617e-08 0.0 2.53056e-07 0.0 0.0 2.9488896e-07 5.36735e-09
2.037192e-07 7.499926e-08 1.7315573e-06 2.209246e-07 1.4098273e-06 0.0 8.985369e-08 0.0
0.0 8.792435e-07 1.11343414e-08 0.0 0.0 0.0 0.0 0.0
1.6453676e-07 0.0 2.470011e-07 0.0 0.0 0.0 0.0 4.395353e-07
0.0 0.0 3.3426446e-07 7.7861684e-10 0.0 1.6824816e-07 5.001572e-07 0.0

exp_avg f4 [64]
00000000: 33dc 9cb9 3dea 99b9 1e22 c733 6abd d12e
00000010: e90d b3b9 0000 0000 ea65 6032 0000 0000
00000020: 0000 0000 afd8 ea2d de71 ed2f 05cf 602f
00000030: 0000 0000 d3bf fa2f 0000 0000 fc73 bc2f
00000040: 0000 0000 0000 0000 f540 3d2e 6748 d3b9
00000050: 0000 0000 3b12 da30 e92a 97b9 7708 8f30
00000060: 0000 0000 b6cf ed2f 0000 0000 fd6e 86b8
00000070: 478a f62d 0000 0000 0000 0000 0000 0000
00000080: 04e9 7bb9 e012 e12d 3703 ed30 ec31 1230
00000090: 0ab0 afb9 0000 0000 0000 0000 60f7 6231
000000a0: 807a 66b9 f68b 62b9 0000 0000 5c6e 2aba
000000b0: dfd4 252f 7c10 bc30 3672 1c31 6984 0aba
000000c0: 7aaf d8b9 df62 4aba 0906 d830 c277 802e
000000d0: d91f 4bb8 0000 0000 0000 0000 0000 0000
000000e0: 411d 2aba 6632 7dba 0000 0000 df79 9e2f
000000f0: 0694 0fba 0000 0000 0000 0000 0000 0000
-0.000299187 -0.00029356955 9.2728655e-08 9.537866e-11 -0.00034151904 0.0 1.3061689e-08 0.0
0.0 2.6698947e-11 4.3190956e-10 2.044623e-10 0.0 4.5611034e-10 0.0 3.4279413e-10
0.0 0.0 4.3031318e-11 -0.00040299 0.0 1.5866769e-09 -0.00028832935 1.0407025e-09
0.0 4.3257636e-10 0.0 -6.410291e-05 2.802837e-11 0.0 0.0 0.0
-0.0002402403 2.558792e-11 1.7244933e-09 5.3185434e-10 -0.0003350976 0.0 0.0 3.3027945e-09
-0.00021980144 -0.00021605179 0.0 -0.000650143 1.508229e-10 1.3683485e-09 2.276591e-09 -0.0005284013
-0.0004132947 -0.00077204214 1.5717784e-09 5.8420394e-11 -4.8428632e-05 0.0 0.0 0.0
-0.00064893445 -0.0009658694 0.0 2.8826627e-10 -0.00054770743 0.0 0.0 0.0

exp_avg_sq f4 [64]
00000000: fa60 5e38 56d3 8636 fcef b534 4952 6536
00000010: af81 2538 0000 0000 f4fc f139 0000 0000
00000020: 0000 0000 d506 2d36 ca97 5538 b76e a937
00000030: 0000 0000 31c1 ac38 0000 0000 91ed f936
00000040: 0000 0000 0000 0000 2531 ac36 3b87 1c38
00000050: 0000 0000 92e3 5937 2c6e f037 4857 2b37
00000060: 0000 0000 261d 9b38 0000 0000 afad 6137
00000070: ff01 b436 0000 0000 0000 0000 0000 0000
00000080: 6170 8537 cb67 0636 6493 4a36 964f e237
00000090: 90fb 5636 0000 0000 0000 0000 48b7 e737
000000a0: c41d 9537 7754 1f37 0000 0000 b024 8139
000000b0: 7178 8637 5eb0 7639 5465 3537 fec6 a139
000000c0: c0ee 1e38 dcc2 013a c8fa 7438 7968 c736
000000d0: c0e3 0b37 0000 0000 0000 0000 0000 0000
000000e0: 85bf 4038 30f7 a339 0000 0000 bd5d 2738
000000f0: 858f 4f39 0000 0000 0000 0000 0000 0000
5.301924e-05 4.018114e-06 3.388849e-07 3.4171555e-06 3.9459843e-05 0.0 0.00046155567 0.0
0.0 2.5782986e-06 5.0924522e-05 2.0197926e-05 0.0 8.237584e-05 0.0 7.4484346e-06
0.0 0.0 5.1317206e-06 3.731924e-05 0.0 1.2987193e-05 2.8661532e-05 1.0212716e-05
0.0 7.396405e-05 0.0 1.3451484e-05 5.3646504e-06 0.0 0.0 0.0
1.5907166e-05 2.0027971e-06 3.0186138e-06 2.697836e-05 3.2034914e-06 0.0 0.0 2.7622693e-05
1.7776045e-05 9.4968045e-06 0.0 0.00024632132 1.603013e-05 0.0002352609 1.0812033e-05 0.00030856574
3.789249e-05 0.0004949996 5.840769e-05 5.9428244e-06 8.338073e-06 0.0 0.0 0.0
4.5954734e-05 0.00031273952 0.0 3.9903203e-05 0.00019794524 0.0 0.0 0.0
