rl_models/agent_3_B4_BUDGET_CONSCIOUS.pt (torch, 68403 bytes, 18 tensors)

fc1.weight f4 [64, 8]
000000 73 e0 70 bc bb c1 24 3e 8d 0a 8d be 20 80 b6 bd
       -0.01470195 0.16089527 -0.27547112 -0.08911157
000010 1e 3e a8 bd a7 ae 69 3e bf ee b2 bd 0b 98 95 be
       -0.08214973 0.22820531 -0.087369435 -0.29217562
000020 9f 48 4e 3e a5 96 02 be d8 6d 9c 3d 06 ec 0f be
       0.2014489 -0.12752779 0.076381385 -0.1405488
000030 64 45 16 3d 78 00 57 be 75 c6 83 3e d8 5b 26 be
       0.03668727 -0.20996273 0.25737348 -0.16245973
000040 56 4f 72 3d 1f 26 44 3e 0f b8 76 3e 78 68 05 be
       0.059157692 0.19155167 0.2409365 -0.13028133
000050 4e 4f 95 bd df f1 95 3e 85 d5 58 3e 09 dc d1 3e
       -0.07290517 0.29286095 0.21175201 0.40988186
000060 6a 62 ca 3e ba 1e df 3b 8c 77 30 3e 81 24 a1 3e
       0.3952821 0.006809083 0.17233104 0.31473163
000070 82 4d a6 3c 73 c2 90 bb 46 ed 53 bd d4 a7 78 3e
       0.02030063 -0.0044177114 -0.051739953 0.24282771
000080 fb 0a ab 3e b3 74 bf 3e 5e 09 80 3e 10 fa 9e 3c
       0.33406815 0.37393722 0.25007147 0.019406348
000090 be 50 d2 bc ce 48 c1 bd 55 f6 09 bd f3 2c 92 3e
       -0.025673267 -0.094377145 -0.033682186 0.2854992
0000a0 5d d3 d1 3d fe a2 3e 3d e4 76 ce 3b cd c1 78 3d
       0.102453925 0.04654216 0.006300794 0.060731698
0000b0 be e4 46 be 59 bc e0 3d 25 92 4a 3d 80 32 25 3e
       -0.19423196 0.109734245 0.04945578 0.16132545
0000c0 25 ce c4 3e 8f 06 4b 3e fd 98 a1 3e c7 59 32 3e
       0.38438526 0.1982672 0.31562033 0.1741706
0000d0 fe 60 6e 3d 64 b4 4c 3e 82 e3 bc 3e 20 d5 9e bc
       0.058197968 0.19990689 0.36892325 -0.019388735
0000e0 31 be 40 3e 9d 5e 9c 3e b7 43 cc bd f1 8b 76 3e
       0.18822552 0.30540934 -0.09973853 0.24076821
0000f0 42 70 c7 3e 7e ae 2a 3c cc b3 d8 3d 8f c4 8e 3e
       0.38952833 0.010417579 0.105811685 0.27884337
000100 01 e7 1c 3e 4e fa 88 3e 30 22 08 be 98 a7 df 3d
       0.15322496 0.26753467 -0.13294291 0.10920638
000110 4c f3 9c 3e 60 73 10 be 70 18 09 3c 6a db 09 be
       0.3065437 -0.14106512 0.008367643 -0.13462606
000120 18 b6 ad bd 08 35 99 3d c8 1b 56 3e ef 83 89 3d
       -0.08481997 0.07480818 0.20909035 0.067146175
000130 26 c9 6b 3d 05 2f 0e 3e 8e 93 e7 3d f7 f3 5f 3e
       0.057564877 0.13885124 0.11307441 0.21870409
000140 f7 a4 29 be 62 2a 0d 3e 40 b2 9a 3b fa fb 44 3e
       -0.16566835 0.13785699 0.004720956 0.19236746
000150 74 24 4b 3d 0a ba ae 3e 37 5e 5a be c6 dd 13 bd
       0.04959531 0.34126312 -0.21325003 -0.03610017
000160 1f 65 a5 3e 08 3c 1f 3e 34 ec 25 be 71 3e 8e 3e
       0.32303712 0.15550244 -0.16203386 0.27782014
000170 18 6c fd bd 25 b7 fc bd ab 3c 6b bd 69 d5 f4 3b
       -0.12374133 -0.123396195 -0.057430904 0.0074717295
000180 fe 19 5d be 3d e3 96 bd 1b a4 c2 bd 68 91 93 be
       -0.21591946 -0.07367561 -0.09503957 -0.28821874
000190 0c 62 6e be 7f 55 5e bb f4 04 0d bd 34 6d 50 3e
       -0.2327959 -0.0033925471 -0.03442855 0.20354158
0001a0 e7 44 c7 3d 83 14 16 3e 7e 5b 19 3d 8c 51 2e be
       0.09729939 0.14656262 0.03744077 -0.17023295
0001b0 af 7a 2e be 3f d5 82 be 4b 67 e3 3d f0 76 35 3d
       -0.17038988 -0.2555332 0.11103686 0.04430288
0001c0 55 5b 03 be fa b6 7f be 0d 4e 72 be 71 36 3c 3d
       -0.12827809 -0.24972144 -0.23662587 0.045950357
0001d0 0d ff 87 3e b3 8c 61 be c2 2b 21 3d 4d 6a f7 bd
       0.26561776 -0.22026329 0.03934837 -0.12080822
0001e0 f6 8f 0d be 86 e5 de bd 7a e5 77 3e 52 a7 57 bd
       -0.13824448 -0.10883622 0.24208632 -0.052649803
0001f0 6d 3e f9 bd 7e 8f ae 3e 40 94 c3 3e 5c 18 ca 3d
       -0.1217011 0.3409385 0.38199043 0.098679274
000200 21 52 2e be 4d f7 79 3e 41 a7 0b 3e 2f b1 24 3e
       -0.17023517 0.24410744 0.13638021 0.16083215
000210 4a dc 3e be 4a ce 2d 3e 16 98 19 3e e4 60 c0 3e
       -0.18638721 0.16973224 0.14999422 0.37573922
000220 80 1d 8c bd 90 d8 98 3b 3e e0 89 3e e6 76 3e 3e
       -0.06841564 0.004664488 0.26928896 0.18600044
000230 57 97 2e be 0b 40 cc 3d 2a fc 57 be 55 ea 96 3e
       -0.17049919 0.09973153 -0.21092287 0.29475656
000240 78 e3 4a be 85 38 ab 3e 8a 64 90 3b 8d 37 9d 3e
       -0.19813335 0.33441558 0.0044065164 0.30706444
000250 e0 7c 89 3e 3c 37 a2 3e ed 8f 63 3e f5 5d 1f 3e
       0.26853085 0.31682765 0.22222872 0.15563186
000260 5b 40 c7 bd 56 6a 68 be e8 46 30 3e b0 a9 58 be
       -0.09729072 -0.22696814 0.17214549 -0.2115848
000270 a0 00 8f 39 c5 ea 69 3b ae 9c 1c 3d ed 1e 83 3d
       0.0002727555 0.0035692912 0.03823536 0.06402383
000280 2d 83 06 3b 68 0e 7f 3e dd 93 e2 bd b8 58 d3 3d
       0.0020524964 0.2490784 -0.11063359 0.10319656
000290 52 32 b1 3d 47 9a 81 3e f4 f2 c5 3e 82 98 8f 3e
       0.08652176 0.25313017 0.3866192 0.28046042
0002a0 6b ee 9a 3e 0b 02 91 bd 5e e3 8c be de 2b 0e 3e
       0.30260023 -0.07080468 -0.27517217 0.13883922
0002b0 51 af 5a bd 41 85 84 3e 02 6b a7 3d d3 a7 d4 3d
       -0.05338985 0.25882915 0.08174707 0.103835724
0002c0 0b e7 61 be 44 a7 07 3e 68 88 90 3e dd 01 1c 3e
       -0.22060792 0.132474 0.2822907 0.15235086
0002d0 43 52 b4 bc ef cb a7 3e 62 2e 2a 3e 91 b9 65 3d
       -0.022011882 0.32772776 0.16619256 0.056085173
0002e0 ae 35 1d 3e c1 e9 fa bd 0f bf 4b be 1c 5b 24 3e
       0.15352508 -0.12251616 -0.19897102 0.1605038
0002f0 7d eb 15 be 5a 60 c1 bd b0 0a c9 3d 19 88 0b be
       -0.14640613 -0.09442206 0.098164916 -0.13626136
000300 de c4 b8 3e e4 ec f6 bc fa 1d a2 3e 3e c8 63 3e
       0.36087698 -0.030142255 0.31663495 0.22244355
000310 d7 17 9a 3c d9 3f b4 3e c4 00 f0 3b 55 a3 d7 bc
       0.018810196 0.35204962 0.00732431 -0.026323
000320 33 67 bb 3e 10 36 81 3e b0 e7 a1 3e 28 2a e3 bd
       0.36602172 0.2523656 0.31622076 -0.11092025
000330 ac ed 5f 3e de d5 86 3d 47 e1 9b 3e 23 66 a1 bd
       0.21868008 0.06583761 0.3044531 -0.07880809
000340 37 a8 55 3e 0f 06 e0 bd 30 e7 ab 3d 68 3f 6a be
       0.2086495 -0.109386556 0.08393705 -0.2287575
000350 21 3c 85 be 9e f2 5e be d9 29 2f 3e 0f 4e be 3d
       -0.26022437 -0.21772239 0.17105807 0.09292232
000360 fd 20 6a 3e a7 71 b9 bd 2a 2d c1 3e 5d b0 f4 bd
       0.22864147 -0.090548806 0.3772977 -0.11947701
000370 ef 11 7c bd 18 fc fc 3d 4c 8c 9c 3e c2 5e 9a 3e
       -0.06154054 0.123527706 0.30575788 0.3015042
000380 c0 88 1e bd 55 4e 3a 3c ed e7 a8 3d f1 29 b9 3e
       -0.038704634 0.011371215 0.08247361 0.3616481
000390 4c c4 66 3e f5 15 9e bd 5a e3 a4 3e 46 f6 b7 3d
       0.22535819 -0.07719032 0.32204705 0.0898252
0003a0 71 66 58 3e 89 01 09 3e c4 91 59 3e cc 14 86 3e
       0.21132828 0.13379492 0.21247011 0.26187742
0003b0 9a 56 9b 3e da 5a 45 3e dc e7 07 be ac f5 e8 bd
       0.3033951 0.19272938 -0.13272041 -0.11374983
0003c0 4d f3 2f be 03 6b 9f bd 26 5d 41 3d b9 b9 bc bd
       -0.17182656 -0.07784083 0.047207974 -0.09215111
0003d0 56 6e 9b 3e aa c3 9d 3e 1d b0 d7 bc c2 f2 a4 3e
       0.30357617 0.30813342 -0.026329095 0.3221646
0003e0 ef 35 c0 3d 3c 2d 90 3e 1f f1 b2 3e 62 44 c7 bd
       0.09385287 0.2815951 0.34949586 -0.0972984
0003f0 eb 4a 16 3e 77 8a cf 3d b5 9e b9 bd 7a a3 b6 bc
       0.14677016 0.10133832 -0.09063474 -0.022294749

fc1.bias f4 [64]
000000 02 36 07 bd 00 00 00 00 a6 e8 12 3e 7c 01 e6 3d
       -0.03301049 0.0 0.14346561 0.11230752
000010 67 15 0b 3e 20 f6 98 3d 39 02 ed 3d ce 12 0d 3e
       0.13582383 0.074688196 0.115726896 0.13776705
000020 21 cb 44 3d 71 8c 01 3e 2f 79 a4 3d a5 3d 56 3d
       0.04804528 0.1265123 0.080309264 0.052304883
000030 00 00 00 00 00 00 00 00 00 00 00 00 99 f6 0c 3e
       0.0 0.0 0.0 0.13765945
000040 ef 60 e6 3d dc f8 4f 3d 62 6d 72 3d 00 00 00 00
       0.11248957 0.05077444 0.059186347 0.0
000050 4a 7f 05 3e d7 f9 64 3c 7b 46 86 3d 28 ef 24 3b
       0.13036838 0.013975582 0.06556412 0.0025166962
000060 94 30 bf 3d a8 b7 d1 3d 00 00 00 00 88 e0 f6 3d
       0.093354374 0.10240108 0.0 0.12054545
000070 8d 78 e4 3d da a3 98 3d 07 3f cf 3d b8 a8 67 3d
       0.11155806 0.07453127 0.101194434 0.056557387
000080 a1 76 80 3d 00 00 00 00 29 80 d4 3d 9d 18 c5 3c
       0.06272627 0.0 0.10376007 0.024059588
000090 62 ca 07 3e 00 00 00 00 95 db fe 3d 00 00 00 00
       0.13260797 0.0 0.12444226 0.0
0000a0 00 00 00 00 b8 66 06 3e 45 bd c9 3d 00 00 00 00
       0.0 0.13125122 0.098505534 0.0
0000b0 00 00 00 00 ac 29 98 3d 00 00 00 00 a6 cd 2e bd
       0.0 0.07429823 0.0 -0.04267659
0000c0 45 66 bc bc 0b cd 06 3e 80 f8 f8 3d a5 fc cf 3d
       -0.022997985 0.13164155 0.121567726 0.1015561
0000d0 c1 5a 0e 3e 43 eb c2 3d 60 f4 fb 3d 00 00 00 00
       0.13901807 0.09517529 0.1230247 0.0
0000e0 00 00 00 00 ca b3 07 3e 98 1f 65 bc 00 00 00 00
       0.0 0.13252178 -0.013984583 0.0
0000f0 00 00 00 00 b5 6c ce 3d d4 5e b2 3d 1a de e7 3d
       0.0 0.10079328 0.08709493 0.113216594

fc2.weight f4 [64, 64]
000000 99 d6 4b be 89 72 14 be 46 a6 9e 3d 61 44 6b 3d
       -0.19906081 -0.14496817 0.07746558 0.057438258
000010 0f e1 dc 3d d2 84 b7 bd bc e5 0b bd 11 1d f0 bd
       0.10785114 -0.0896088 -0.03415464 -0.11724294
000020 65 40 51 3e a7 c5 27 be d5 23 33 3e 07 0b b5 bc
       0.20434721 -0.16383992 0.17494138 -0.022099985
000030 d6 9b 2c be bd 02 d8 3d 10 19 03 3e 61 11 f6 3b
       -0.16856322 0.10547397 0.1280253 0.007509396
000040 49 36 88 bc 0a ff ac bc 8d 69 aa bd ff 47 ed bc
       -0.016627448 -0.021117706 -0.083209135 -0.028964994
000050 0e f0 e1 bd d2 f2 9a 3d 94 1b d0 bd a4 79 b4 bd
       -0.11032115 0.075658455 -0.1016151 -0.088122636
000060 bd 22 46 3e 8e 58 d8 3d d1 dc 70 3d 40 9d 9b 3d
       0.19349189 0.105637655 0.058804337 0.075983524
000070 51 71 44 3e 84 55 7e bd 9a 3a 04 be de 19 db 3c
       0.19183852 -0.062093273 -0.1291298 0.026745733
000080 0b 8d 10 be 29 e1 ff 3d 61 00 4a bc 16 7a 0a be
       -0.14116304 0.12494118 -0.012329192 -0.13523135
000090 8d f5 32 3e ce 25 20 3d f6 a9 93 bd b7 48 37 bc
       0.17476483 0.039098553 -0.07210152 -0.01118677
0000a0 d6 ca b5 3d 00 e9 ba 3d 35 0b be 3c 88 a2 a9 bd
       0.088765785 0.091264725 0.023198703 -0.082829535
0000b0 73 85 c0 3c 97 bf 06 3e af 58 36 3e 46 7a 03 be
       0.023501134 0.13159023 0.17807268 -0.12839612
0000c0 55 30 c4 bc cc 00 31 be 82 f1 af 3d b8 84 53 3e
       -0.023948828 -0.1728546 0.08590986 0.20656097
0000d0 66 c0 5d be 41 44 bf 3d 2e 84 38 be 5e 0c 31 3e
       -0.21655425 0.0933919 -0.18019173 0.17289874
0000e0 37 44 cd bd 78 1c 31 3e e5 08 8f 3d 8d 00 f0 3c
       -0.100227766 0.17296016 0.06984118 0.029297138
0000f0 4c c7 85 3c 3d 91 94 bd 3a 8f 1e be a8 bc 72 3d
       0.016330384 -0.072542645 -0.15484324 0.059261948
000100 86 0a 4c bc 56 25 bb 3c 38 38 83 bd 48 9a 29 bd
       -0.012453681 0.022844952 -0.06407207 -0.0414069
000110 fb cd 3a bd d8 02 e3 3c 3c d4 80 3d bb 7c 1b be
       -0.045606595 0.027711317 0.062904805 -0.151843
000120 cc c7 2f be ea e5 df 3d 2c 6e 8a bd bc f0 40 bc
       -0.1716606 0.109325245 -0.06759295 -0.011776146
000130 0c 8b f5 bd 0b f3 15 3e 3a c0 2d 3d cc e9 05 be
       -0.11989412 0.14643495 0.04241965 -0.13077468
000140 2b 7e ca 3c da 5d be 3d 2a 81 c7 3d 87 86 02 3e
       0.024718365 0.092952445 0.09741433 0.1274663
000150 ac 62 ff bd 13 be 0c be 54 3b a8 3d e5 17 4b 3e
       -0.12469992 -0.13744383 0.08214441 0.19833334
000160 c1 c0 35 3e e0 6e 2c be f8 32 f0 bd 33 d1 11 3e
       0.17749311 -0.1683917 -0.117284715 0.1423996
000170 e7 ba 3f 3e 4b 55 20 be 2c 89 e1 3c 5e ad 23 be
       0.18723641 -0.15657537 0.027531229 -0.15984103
000180 a6 a1 1f 3e fb bb 30 be b9 21 11 3d 5d 19 5f be
       0.15589008 -0.17259209 0.03543255 -0.21787019
000190 74 f8 a8 3c e6 13 56 3e 7b 76 57 bd 1a 76 20 3d
       0.020626284 0.20906028 -0.052603226 0.03917513
0001a0 71 7b 00 be 71 e3 c0 bd 32 80 1a 3e 2b 8b 29 be
       -0.12547089 -0.09418381 0.15087965 -0.16556995
0001b0 19 78 48 be ff 34 19 be b6 fe fc bd 97 25 03 be
       -0.19577064 -0.14961623 -0.1235327 -0.12807308
0001c0 88 30 82 bd 5c 61 5f be 57 d1 24 be 82 db c9 bd
       -0.06356913 -0.21814483 -0.16095482 -0.09856321
0001d0 a4 e5 4d be 35 38 d4 bd e8 c8 ff 3d 76 b8 4b be
       -0.20107132 -0.10362283 0.12489492 -0.19894585
0001e0 63 64 b2 3c 06 75 0c bd 30 9c de 3d 84 f7 14 be
       0.021776384 -0.03429129 0.10869634 -0.14547545
0001f0 16 ea 07 3d 4e c0 e3 3d 15 22 13 3e f1 9e 30 be
       0.033182226 0.111206636 0.1436847 -0.17248131
000200 fe ae b8 bd 57 18 a5 bd 66 9c a7 3e 51 a3 10 3e
       -0.09017752 -0.08061283 0.3273651 0.141248
000210 73 55 c9 3e 7f 52 9e 3e cc e6 23 3e 6c 73 95 bc
       0.39323005 0.30922315 0.16006011 -0.018243514
000220 41 6d 2f 3e e5 43 b2 3d e7 05 67 3e 03 4a 75 bd
       0.17131521 0.08704356 0.22560845 -0.059885036
000230 88 00 24 3d 82 53 16 be 3a a8 87 3d c6 2d 82 3e
       0.04003957 -0.14680293 0.066238835 0.25425547
000240 dc 2c 8a 3e 3f e1 5e 3e c2 d9 67 3d c8 b8 d3 3d
       0.2698735 0.21765612 0.056604154 0.103379786
000250 f9 51 58 bb 56 e5 b0 bd 87 e8 87 3d 06 ae 61 3e
       -0.0033007844 -0.08637492 0.06636148 0.22039041
000260 46 67 61 3c d6 0b f3 3c d9 f5 09 be 3f 41 96 3e
       0.013757532 0.02966873 -0.1347269 0.29346654
000270 fb da e5 3c a6 4d 65 3d bb 67 15 3e 1c 28 c0 3e
       0.02805852 0.055982254 0.14590351 0.375306
000280 c2 ff f4 bd c8 fb 5c be d3 a8 ad 3e 72 c8 e0 3d
       -0.119628444 -0.21580422 0.33917865 0.10975732
000290 6f dc 18 3e 30 d6 15 bd 62 21 b5 3e 6d f5 48 bd
       0.14927839 -0.03658122 0.35377032 -0.04906218
0002a0 1c 1d ef 3d 9a 3d 9d 3e bc a5 00 bd 8f 3c 72 bd
       0.11675474 0.3071106 -0.031408057 -0.059139784
0002b0 ea ec 3b 3e 69 cb 0e 3e 77 a5 fe 3d 42 9b 16 bd
       0.18352094 0.13944782 0.12433904 -0.03676916
0002c0 a4 71 3a 3e 36 25 8a 3e 84 c6 9b 3e 01 77 ef 3d
       0.18207413 0.26981515 0.30424893 0.1169262
0002d0 0e df 9c 3e 65 15 04 bd 4f 7a 4c 3e db 63 fa 3d
       0.30638927 -0.032246966 0.19968532 0.12226077
0002e0 78 b9 c6 bc f6 c3 87 3e 53 ee 05 3e b8 c0 33 3d
       -0.02425836 0.26516694 0.13079195 0.043884963
0002f0 d7 b9 44 3e ed 04 9f bc 47 cb 72 bb f0 2b 91 3e
       0.19211517 -0.019411528 -0.0037047432 0.28353834
000300 86 13 5c be 4c ee 3f be 53 c4 b3 3e d2 8c e1 3d
       -0.21491823 -0.18743247 0.3511072 0.110131875
000310 d2 76 b4 3e fb ab 63 3e 51 25 36 3e dc f5 81 3e
       0.35246903 0.22233574 0.17787673 0.25382888
000320 27 4d 47 3e af 07 a8 3e ae 0a 8a 3d 2c 85 39 3e
       0.19463025 0.32818362 0.06740318 0.18117207
000330 ae 4c eb bd 1e f3 46 3d 0b 10 1e 3e 76 a5 6c 3d
       -0.11489235 0.0485717 0.15435807 0.057774983
000340 62 1b 23 bd 53 4b 33 3d ed 4a 64 3e 5c a9 f8 bd
       -0.039821036 0.043773007 0.22294207 -0.12141678
000350 e9 90 8e 3c 07 45 c1 3d 69 3d ab bd 3e fc 4d 3e
       0.017403083 0.09436994 -0.083613224 0.20115754
000360 e5 6f 54 3d 44 68 91 3e ac 0f 21 be 62 ad 6d 3e
       0.051864523 0.2839986 -0.15728635 0.23210672
000370 03 2d d8 3d fc e9 55 bd a8 d0 01 bd 08 00 ed 3d
       0.1055546 -0.052225098 -0.03169313 0.115722716
000380 17 4a 34 3d 36 a8 11 3d 9f 38 92 3e c0 1d b8 3d
       0.04401597 0.03556081 0.28558823 0.08990049
000390 9e e3 fd bc de 6e 19 3e df 21 45 3e 03 bf b5 3d
       -0.030992325 0.14983699 0.19251202 0.08874323
0003a0 e5 e8 15 be b7 72 90 3e de fe 78 bc ae 3c 36 3c
       -0.14639623 0.2821252 -0.015197484 0.011122866
0003b0 ce 81 db 3d 29 d7 11 3e ca 0e 53 3e 9c d5 05 bc
       0.10718118 0.14242233 0.2061111 -0.008168604
0003c0 47 ae d1 bd 16 0b 8e 3c 7d 47 5d 3e 29 bf 01 3e
       -0.10238319 0.01733927 0.21609302 0.12670578
0003d0 14 b1 72 3e 24 ba ac 3d 91 ae a6 3c 2c 77 4b 3e
       0.23700362 0.08433941 0.020346912 0.19869679
0003e0 84 64 df 3d b9 fc 16 3e 9c c4 44 3e 77 56 29 be
       0.10907844 0.14744844 0.19215626 -0.1653689
0003f0 7b b8 2e bb 93 a1 28 3e ad 00 73 3c e9 c0 51 3e
       -0.0026660252 0.16467886 0.014831704 0.20483746

fc2.bias f4 [64]
000000 f8 62 1c bc eb c4 a5 bc 08 0d e1 3d b8 8e ed 3d
       -0.00954508 -0.0202355 0.10988814 0.11599487
000010 43 e3 cb 3d 00 00 00 00 0c 87 65 3d 06 f1 94 bb
       0.09955456 0.0 0.056036994 -0.004545334
000020 4d be 2f 3d 0e 09 dd 3d ab 5c 78 3c 00 00 00 00
       0.042906094 0.10792743 0.0151588125 0.0
000030 f8 59 f8 bb 00 00 00 00 a4 21 f4 bc 45 15 a4 bc
       -0.0075790845 0.0 -0.029801197 -0.020029673
000040 c6 92 b3 3d 00 00 00 00 00 00 00 00 27 fb ab 3c
       0.08768229 0.0 0.0 0.020993782
000050 47 d7 19 bc 02 4a 2b bc 36 80 8a bc ef eb ab 3d
       -0.009389705 -0.010454657 -0.016906839 0.0839461
000060 b6 f7 9d bc ae c9 c4 bb 4a f0 02 bd 00 00 00 00
       -0.019283157 -0.0060054874 -0.03196744 0.0
000070 e2 1b 0c 3e 0e db 74 3c da e2 81 3d 56 fb f0 3c
       0.13682511 0.014944805 0.063420966 0.029416721
000080 02 50 77 bc ac fc 65 3d 5e 44 ac bc 21 d8 8c 3d
       -0.015094759 0.05614917 -0.021028694 0.06877161
000090 21 d8 3d 3d 4d fe 60 3d 9f ed d4 bc 00 00 00 00
       0.046348695 0.05493002 -0.025992213 0.0
0000a0 42 41 f7 bc 3b 93 76 bc 74 fa d3 3d 1f ab ef 38
       -0.030182485 -0.015049751 0.103505045 0.00011428282
0000b0 00 00 00 00 6f 5a 96 3d fc ba df bb fd 42 7c bc
       0.0 0.073414676 -0.00682771 -0.015396831
0000c0 d4 0d 64 bc 24 d9 ae bb d1 64 00 bc 46 49 79 bc
       -0.0139193125 -0.005335944 -0.0078365365 -0.015215224
0000d0 af d1 ba 3d 78 23 74 bc c1 e1 2c bd 5d bb 52 3d
       0.09122025 -0.0149010345 -0.042207483 0.051448215
0000e0 6f 21 25 bc af 1e f7 bc 74 c3 37 3d 00 00 00 00
       -0.010078772 -0.030165998 0.044864133 0.0
0000f0 00 00 00 00 cb 33 bb 3c 31 c5 e0 3d d1 68 35 3b
       0.0 0.022851845 0.10975111 0.0027680884

fc3.weight f4 [4, 64]
000000 0d 8f db 3d f8 03 1e 3d 8f 84 d7 3e 91 46 b8 3e
       0.10720644 0.038578004 0.42093322 0.35991338
000010 50 17 ff 3d 08 a9 8d be e8 6b a6 3d 7d c4 62 be
       0.124556184 -0.27668023 0.0812605 -0.22145267
000020 03 cd ea 3d 89 af 90 3e 92 11 b3 3d e4 83 c2 3d
       0.11464884 0.28258923 0.08743586 0.094978124
000030 fd c3 56 3d 8b 59 42 bd c0 a8 ba bd 33 9e 8e bd
       0.052433003 -0.047448676 -0.09114218 -0.06963768
000040 c9 58 c1 3e 03 1b d3 bd 8b be 16 be 2f 84 02 3e
       0.3776305 -0.103078865 -0.14721124 0.12745737
000050 33 eb 2b be 85 29 25 3d c4 24 d1 3d 15 7e b0 3e
       -0.1678894 0.0403228 0.102120906 0.34471193
000060 11 95 31 be cb 0c 07 3e 2a e1 8d 3d 2b 06 57 3c
       -0.1734202 0.13188474 0.06927712 0.013124029
000070 c3 5d 56 3e 0f a7 2a 3e 67 d0 cd 3e 9f 4d 87 3d
       0.20934205 0.1666529 0.4019806 0.06606602
000080 fd d1 de bc b8 ad 42 be d2 03 54 be 9b a6 d4 3e
       -0.02719974 -0.19011581 -0.20704582 0.4153336
000090 cc dc 3f bd 9e d7 08 3e c8 35 6e be 77 2a 63 3e
       -0.046841428 0.13363501 -0.23262703 0.22184168
0000a0 ac 24 ec bd e1 bd 8e be 1a 83 be 3e dc df a9 bc
       -0.11530432 -0.2787924 0.37209398 -0.020736627
0000b0 4e 23 ef 3d a2 7d a3 3e 8c e3 4a be 62 5e d1 bd
       0.11676656 0.31931788 -0.19813365 -0.1022308
0000c0 4f 2f 14 be 11 23 50 be a4 08 3a bd 3d f6 22 3e
       -0.14471172 -0.20325877 -0.045418397 0.15914245
0000d0 87 1e 9f 3e 24 48 24 be 25 d5 7f be 1d d4 b2 3e
       0.31077978 -0.16043144 -0.24983652 0.34927455
0000e0 70 66 df 3b 52 6d 23 be ff 69 c8 3d 50 56 95 3e
       0.0068176314 -0.15959671 0.09785842 0.29167414
0000f0 36 14 76 be 9a c8 e1 3d b6 87 c3 3e bf 85 55 be
       -0.24031147 0.1102459 0.38189477 -0.20851801
000100 c1 34 fa bd 33 8b 64 3e d4 e3 e0 be 55 83 a9 bd
       -0.12217093 0.22318725 -0.4392382 -0.08277003
000110 ad bc c3 be 30 b7 2c bc 19 70 43 be 18 cc 89 be
       -0.38229886 -0.010541722 -0.1908573 -0.26913524
000120 00 b3 1c be 81 f7 9d be 64 b1 65 3e 46 02 f0 3c
       -0.15302658 -0.30852893 0.2243095 0.029297959
000130 01 aa 88 3e 4e 6a 99 3b 06 64 d4 bd 80 6c 1f 3e
       0.26692203 0.004681862 -0.103706405 0.15568733
000140 31 0c 15 be dd 47 34 be c9 29 1a be 0a 06 c1 be
       -0.14555432 -0.17605539 -0.15055002 -0.3769992
000150 16 ae ec ba aa 65 08 be ab ea 8f 3e 84 59 a5 bd
       -0.0018057253 -0.13320032 0.28108725 -0.080737144
000160 54 4c bf bd d6 03 6a be 58 69 55 3e 13 1e 70 be
       -0.0934073 -0.22853026 0.20840967 -0.23448972
000170 59 12 ab be 71 f7 15 3e be a1 ed 3d 5a 52 f1 bd
       -0.33412436 0.14645173 0.116031155 -0.117832854
000180 98 fd 75 be d6 3a 22 bd 5f 19 45 be 81 cb 7b 3d
       -0.2402252 -0.03960689 -0.1924796 0.061473373
000190 cc da 93 be 78 de b4 be 12 60 9e bd 00 9d 54 3e
       -0.28877866 -0.3532598 -0.07733168 0.20763016
0001a0 0e 2c 8b 3e c9 8f 87 3e 90 e0 8f be 70 80 75 3e
       0.2718205 0.26476887 -0.28101015 0.23974776
0001b0 77 15 35 3e 7d 6e 96 bd 0d 8e bc bc 9e 67 b0 3d
       0.1768397 -0.07345293 -0.023016954 0.086135134
0001c0 65 f7 f3 3d 8a e6 73 be df 06 b9 bd 89 34 8c 3e
       0.11912421 -0.23818412 -0.09034514 0.2738383
0001d0 22 1a 26 be a5 06 44 3e d6 e0 ff 3d 3f 46 20 3d
       -0.16220906 0.1914316 0.12494056 0.039129492
0001e0 ec 8e 6f 3e 9c bd 36 be a4 93 03 be fd a3 2b be
       0.23394364 -0.17845768 -0.12849289 -0.16761775
0001f0 5f 67 bd 3d 5c 9b b2 bc 1a 15 a2 be 1f 93 1e 3c
       0.09248232 -0.021802597 -0.31656724 0.009678631
000200 a0 c4 ea 3d e1 12 01 3e d8 69 9f be 6b 93 94 be
       0.114632845 0.12604858 -0.3113544 -0.2901872
000210 71 3e d4 be 0d a4 19 3e 2d 6e 3f bd f4 48 60 be
       -0.4145389 0.15003987 -0.04673593 -0.2190283
000220 ef 37 4a 3b d1 7b 1a be 58 b1 6f be e9 a5 28 3e
       0.0030856093 -0.15086295 -0.23407495 0.1646954
000230 e2 11 02 be 7c 87 91 3e 42 91 84 3e bd 0a 45 3e
       -0.12702134 0.2842368 0.25892073 0.19242378
000240 3e 29 86 bd bc e3 a0 3d 84 30 05 3e 7e e5 67 3d
       -0.06550835 0.07855937 0.13006788 0.056615345
000250 9d 63 e3 bd cf 53 cd 3d c8 70 91 3e b4 2a 8f be
       -0.11102984 0.10025751 0.28406358 -0.27962267
000260 ae b9 88 3e 19 4a 43 3e 65 a2 07 bd 6d a7 8d bd
       0.26704162 0.19071235 -0.033113856 -0.069166996
000270 f0 91 95 be 29 42 bd be 00 1f 1f be d1 32 63 3d
       -0.29212904 -0.3696454 -0.1553917 0.055468384
000280 70 5a 8b be b1 76 da bd 43 dd 80 3e 74 a8 8c bd
       -0.27217436 -0.1066717 0.2516881 -0.068680674
000290 22 09 42 be a8 cf 03 3e 3d 69 e9 3d 0e bb 60 bd
       -0.18948796 0.12872183 0.11397026 -0.05486589
0002a0 88 52 1b bc 2e 30 80 3e 00 8b d6 be a3 28 fc 3b
       -0.009480126 0.25036758 -0.41902924 0.007695274
0002b0 4c 9c aa 3d 8b 9f 96 bd 4e 18 59 3e e2 0e 15 3e
       0.083305925 -0.07354649 0.21200678 0.14556459
0002c0 cb d5 e1 3d 7f 8f 76 bd aa cb 19 3e 17 d0 60 3e
       0.11027106 -0.060195442 0.15019098 0.2195438
0002d0 ee cf de bd 36 a4 35 be f2 15 6e be 8c 69 15 bd
       -0.10879503 -0.17738423 -0.23250559 -0.03647761
0002e0 ab f7 5f bd a9 2f 31 3e d8 5a 43 3d 59 55 67 3d
       -0.054679554 0.17303337 0.047694057 0.05647788
0002f0 f4 84 8c 3e 79 5c ba be 90 ad 38 be 94 0e 6f be
       0.27445185 -0.36398676 -0.18034959 -0.23345405
000300 1d 36 30 3e 75 31 6a 3e 4c a4 08 be d0 83 60 be
       0.17208143 0.22870429 -0.13343924 -0.21925282
000310 e2 c5 85 3d 3c f7 58 bd e8 86 7c be 85 9c 0e 3e
       0.06531884 -0.052970156 -0.24660838 0.13926895
000320 ea 5e 06 be 53 02 a1 be b9 14 30 be 58 aa b6 bd
       -0.13122144 -0.31447086 -0.17195405 -0.08919209
000330 e2 c7 45 3e 71 9d a1 3d 62 61 02 be 21 72 d9 3d
       0.1931453 0.07891358 -0.12732461 0.106174715
000340 4b 0e ae be 35 82 1e 3e f2 3b 8b be 92 10 7b 3d
       -0.3399528 0.15479358 -0.27194172 0.0612951
000350 16 f0 e1 bd 2c d6 59 be 91 39 38 3e 7d a5 dc 3b
       -0.11032121 -0.21273106 0.1799071 0.006733595
000360 9a d6 6d be 05 5d 0a be da d8 d7 3d ac 7f ce 3d
       -0.23226395 -0.13512047 0.10539408 0.10082945
000370 a3 3a 64 be fa 27 56 3e a2 cf 01 3d ac 05 70 be
       -0.22287993 0.20913687 0.031692155 -0.23439664
000380 ce 5d 63 3e 86 fe 24 be ef c4 bb bd 4c 9e 9f be
       0.22203752 -0.16112718 -0.091684215 -0.31175458
000390 49 d6 26 be ce d1 c5 be 82 c2 b2 bc 27 4c 3b be
       -0.16292681 -0.3863663 -0.021821264 -0.18290769
0003a0 59 84 2d 3e 9c c0 a0 3d 34 a2 11 be ef 77 8c 3e
       0.16945018 0.07849237 -0.14222032 0.27435252
0003b0 af 36 68 be 78 6c 1c 3e 78 30 62 be fa 5e 9a 3e
       -0.2267711 0.15275753 -0.22088802 0.30150586
0003c0 6b b7 a5 3d d8 29 08 bd d9 42 4b 3d 35 6d fb 3c
       0.08091625 -0.03324303 0.049624298 0.030691722
0003d0 00 21 98 3d 9f 93 25 be 09 57 6a 3e 99 93 56 3e
       0.07428169 -0.16169594 0.22884764 0.20954742
0003e0 c2 a3 98 be 4e 96 d4 bc 04 c0 9b be 87 0a bd 3c
       -0.29812437 -0.025950577 -0.30419934 0.023076309
0003f0 b6 d4 16 be 27 47 1b 3e 97 cd e2 bd 64 e5 31 3e
       -0.1472958 0.15163861 -0.110743694 0.17372662

fc3.bias f4 [4]
000000 9a be b0 3d 3e bb 6b bd 04 e8 3b bd 7f 8f 1f bd
       0.08630104 -0.057551615 -0.045875564 -0.038955208

exp_avg f4 [64, 8]
000000 0c bd 0b 30 99 70 6a 2f 40 9e 18 2f 6c 88 6e 30
       5.0836557e-10 2.1322179e-10 1.3880541e-10 8.677776e-10
000010 28 f7 98 2f fa 05 73 30 fb 3d d9 2c 4f a8 af 2f
       2.7824254e-10 8.841138e-10 6.174392e-12 3.1951905e-10
000020 00 00 00 00 00 00 00 00 00 00 00 00 00 00 00 00
       0.0 0.0 0.0 0.0
000030 00 00 00 00 00 00 00 00 00 00 00 00 00 00 00 00
       0.0 0.0 0.0 0.0
000040 a5 74 f8 b8 9d 61 cf b7 fc 31 bf b8 ad 26 76 b9
       -0.00011847288 -2.4721778e-05 -9.1169e-05 -0.00023474796
000050 93 9d ee b8 66 0c 58 b9 ff ad f2 b7 de 8c 06 b9
       -0.00011378075 -0.00020603984 -2.8929671e-05 -0.00012831713
000060 ef 8a 8c b8 a0 58 63 b7 fc f8 60 b8 03 45 0c b9
       -6.7015986e-05 -1.3550889e-05 -5.3637646e-05 -0.0001337715
000070 fc 7c 88 b8 12 6c f4 b8 b9 f1 90 b7 d5 9a a1 b8
       -6.5082655e-05 -0.00011654956 -1.7278699e-05 -7.705918e-05
000080 ed 17 c3 b8 6b 15 a5 b7 40 0e 91 b8 b9 93 40 b9
       -9.302781e-05 -1.9679506e-05 -6.916793e-05 -0.00018365578
000090 d5 87 bb b8 82 a5 29 b9 3a e4 b8 b7 a5 9e ce b8
       -8.9421555e-05 -0.00016178752 -2.2040786e-05 -9.852395e-05
0000a0 39 18 95 b8 55 6a 71 b7 1a ea 75 b8 b2 bf 14 b9
       -7.1093855e-05 -1.4389477e-05 -5.8630576e-05 -0.00014185792
0000b0 f3 3b 90 b8 c3 a5 01 b9 87 64 99 b7 44 4b ad b8
       -6.8776215e-05 -0.0001236415 -1.8285833e-05 -8.263302e-05
0000c0 94 da db b8 ec 66 b4 b7 54 57 ac b8 94 b9 5a b9
       -0.00010483447 -2.1505599e-05 -8.217865e-05 -0.00020859233
0000d0 96 26 d4 b8 60 2d 3f b9 0d be dd b7 de 62 f5 b8
       -0.00010116135 -0.00018232083 -2.6433752e-05 -0.00011700926
0000e0 21 9a ef b8 a9 14 c5 b7 8f bb bc b8 9f 3c 6e b9
       -0.00011425117 -2.349385e-05 -8.999474e-05 -0.00022720032
0000f0 38 7f e6 b8 7d 59 50 b9 36 aa f0 b7 8c 49 05 b9
       -0.00010990951 -0.00019869763 -2.868949e-05 -0.00012711267
000100 d6 9b ec b7 09 96 e3 b6 8d 11 50 b7 4b 62 61 b8
       -2.820596e-05 -6.7825936e-06 -1.24018525e-05 -5.3735723e-05
000110 4f b2 e0 b7 2d bf 4d b8 0d 27 a1 b6 c4 5e ca b7
       -2.6785912e-05 -4.9053855e-05 -4.80272e-06 -2.4124405e-05
000120 af 49 00 b9 56 98 cf b7 4a 68 cb b8 e7 0c 80 b9
       -0.0001223448 -2.474726e-05 -9.69922e-05 -0.00024423675
000130 2c be f8 b8 f6 1b 5f b9 ad a4 04 b8 42 fc 12 b9
       -0.00011860984 -0.00021277354 -3.162462e-05 -0.00014017618
000140 00 5a fb b7 8a 25 fb b6 f5 e5 72 b7 7e c8 6c b8
       -2.9963441e-05 -7.484753e-06 -1.4477865e-05 -5.6453508e-05
000150 3c e8 ea b7 0d 91 5a b8 d4 75 97 b6 75 8b b1 b7
       -2.8003116e-05 -5.211034e-05 -4.5138677e-06 -2.1164984e-05
000160 40 23 53 b8 f7 d6 29 b7 16 e0 23 b8 f3 10 d3 b8
       -5.033915e-05 -1.0123235e-05 -3.9070925e-05 -0.00010064421
000170 23 d3 4c b8 1a 99 b7 b8 90 de 5c b7 f9 89 71 b8
       -4.8834027e-05 -8.7546374e-05 -1.3164841e-05 -5.7587375e-05
000180 00 00 00 00 00 00 00 00 00 00 00 00 00 00 00 00
       0.0 0.0 0.0 0.0
000190 00 00 00 00 00 00 00 00 00 00 00 00 00 00 00 00
       0.0 0.0 0.0 0.0
0001a0 00 00 00 00 00 00 00 00 00 00 00 00 00 00 00 00
       0.0 0.0 0.0 0.0
0001b0 00 00 00 00 00 00 00 00 00 00 00 00 00 00 00 00
       0.0 0.0 0.0 0.0
0001c0 00 00 00 00 00 00 00 00 00 00 00 00 00 00 00 00
       0.0 0.0 0.0 0.0
0001d0 00 00 00 00 00 00 00 00 00 00 00 00 00 00 00 00
       0.0 0.0 0.0 0.0
0001e0 28 9d 81 b8 98 ca 59 b7 60 9f 45 b8 e5 26 00 b9
       -6.180472e-05 -1.2981378e-05 -4.711689e-05 -0.0001222152
0001f0 9e 2d 7a b8 5e 6a e1 b8 e6 cf 78 b7 4e bb 8c b8
       -5.964713e-05 -0.000107486485 -1.4830357e-05 -6.7106084e-05
000200 1e aa bf b8 24 bb 9b b7 42 d8 9a b8 06 13 3f b9
       -9.1392765e-05 -1.8564584e-05 -7.3835734e-05 -0.00018222266
000210 7a 85 b9 b8 32 aa 26 b9 aa 0c c4 b7 6f 48 db b8
       -8.8463494e-05 -0.00015894396 -2.3370918e-05 -0.000104562256
000220 cd f1 58 b8 26 ab 3d b7 cf 4c 18 b8 ec 5a d4 b8
       -5.1723608e-05 -1.13051265e-05 -3.6311158e-05 -0.00010125883
000230 05 29 4f b8 bb a5 bc b8 cd 1d 40 b7 bc 27 58 b8
       -4.939085e-05 -8.995408e-05 -1.145103e-05 -5.153542e-05
000240 48 ee 4c b8 50 0c 27 b7 4c 73 1f b8 12 42 cc b8
       -4.8859307e-05 -9.956842e-06 -3.8015933e-05 -9.7397846e-05
000250 e1 db 45 b8 61 33 b2 b8 af e9 51 b7 9d 97 66 b8
       -4.717324e-05 -8.4972715e-05 -1.25117795e-05 -5.4977474e-05
000260 00 00 00 00 00 00 00 00 00 00 00 00 00 00 00 00
       0.0 0.0 0.0 0.0
000270 00 00 00 00 00 00 00 00 00 00 00 00 00 00 00 00
       0.0 0.0 0.0 0.0
000280 f1 70 ad b8 0f ca 8d b7 92 a5 89 b8 cc ab 2c b9
       -8.27032e-05 -1.69026e-05 -6.563509e-05 -0.00016467198
000290 2a 5e a7 b8 81 d1 16 b9 4b af af b7 23 e3 c3 b8
       -7.98072e-05 -0.00014383161 -2.0943253e-05 -9.340632e-05
0002a0 c9 68 7c b7 07 d4 80 b6 ec b6 d3 b6 4f 4e ec b7
       -1.5044768e-05 -3.8393805e-06 -6.309585e-06 -2.8169858e-05
0002b0 a5 63 67 b7 81 7c db b7 ee 2d 0d b6 be 31 1b b7
       -1.3791873e-05 -2.6164811e-05 -2.1037372e-06 -9.250301e-06
0002c0 9c 9a e7 b7 2a 44 ca b6 15 89 a2 b7 d6 b1 62 b8
       -2.7609341e-05 -6.0280045e-06 -1.9375739e-05 -5.404822e-05
0002d0 96 84 de b7 0b 65 49 b8 9a af cc b6 60 80 ea b7
       -2.6526202e-05 -4.8016238e-05 -6.1001165e-06 -2.7954753e-05
0002e0 f8 c5 df b6 bb 1c f4 b5 00 00 00 00 2a 6e 4b b7
       -6.6689645e-06 -1.8187778e-06 0.0 -1.21253925e-05
0002f0 a8 6e cb b6 e7 95 42 b7 8a 84 0d b5 e6 6c 4b b6
       -6.0627535e-06 -1.1598203e-05 -5.2719463e-07 -3.0312744e-06
000300 f6 11 83 b8 19 ab 5e b7 91 41 42 b8 0f 4a 01 b9
       -6.249912e-05 -1.3272068e-05 -4.6314268e-05 -0.00012329988
000310 bc a3 7a b8 b6 f2 e3 b8 11 6c 77 b7 21 eb 88 b8
       -5.9757134e-05 -0.00010869412 -1.4747508e-05 -6.5287815e-05
000320 47 ab e7 b8 7b 9a bc b7 d6 b6 b5 b8 83 e5 66 b9
       -0.00011046841 -2.2483282e-05 -8.6648084e-05 -0.00022020009
000330 2f 22 e0 b8 8e 73 49 b9 cc b9 ec b7 6d d2 02 b9
       -0.000106875195 -0.00019211901 -2.821991e-05 -0.00012476156
000340 00 00 00 00 00 00 00 00 00 00 00 00 00 00 00 00
       0.0 0.0 0.0 0.0
000350 00 00 00 00 00 00 00 00 00 00 00 00 00 00 00 00
       0.0 0.0 0.0 0.0
000360 d1 92 bb b8 84 73 9b b7 d8 3b 93 b8 10 24 3a b9
       -8.9442015e-05 -1.8531231e-05 -7.020653e-05 -0.00017751777
000370 8a 8a b4 b8 81 1b 23 b9 2f 88 b9 b7 9a 82 cf b8
       -8.608874e-05 -0.00015555137 -2.2117134e-05 -9.8948556e-05
000380 3a c6 bc b8 00 c9 9b b7 3c ea 92 b8 c7 92 3b b9
       -9.001461e-05 -1.8571038e-05 -7.005452e-05 -0.00017888389
000390 e0 60 b5 b8 cc 26 24 b9 e6 d1 bc b7 a7 c9 d0 b8
       -8.648797e-05 -0.00015654712 -2.2509088e-05 -9.9557736e-05
0003a0 a6 ed 91 b8 af c1 60 b7 05 af 7a b8 44 58 13 b9
       -6.958404e-05 -1.3396536e-05 -5.9767644e-05 -0.00014051894
0003b0 cb 5a 8e b8 d7 c9 fd b8 cd c2 a3 b7 22 f0 b4 b8
       -6.787999e-05 -0.00012101576 -1.9521825e-05 -8.627797e-05
0003c0 f2 03 86 b8 a0 a4 52 b7 1e 06 61 b8 fc af 06 b9
       -6.390353e-05 -1.2555305e-05 -5.3649877e-05 -0.00012844795
0003d0 34 46 82 b8 f7 11 e9 b8 8e 9b 91 b7 47 9b a1 b8
       -6.2119594e-05 -0.00011113652 -1.7357783e-05 -7.706001e-05
0003e0 3a e3 62 b8 ce ad 3a b7 90 16 2e b8 ba 71 e1 b8
       -5.409422e-05 -1.1126931e-05 -4.1505846e-05 -0.00010750019
0003f0 33 9d 5b b8 28 4b c5 b8 a6 36 62 b7 e7 9d 7c b8
       -5.2360072e-05 -9.407691e-05 -1.3483374e-05 -6.022854e-05

exp_avg_sq f4 [64, 8]
000000 15 8b 94 36 e5 85 50 35 6a 6b 0a 35 d4 02 5c 37
       4.426935e-06 7.768088e-07 5.1565314e-07 1.311368e-05
000010 82 96 f2 35 d6 a3 60 37 55 8f e1 31 a8 cd 15 36
       1.8074209e-06 1.33895865e-05 6.564657e-09 2.2322438e-06
000020 00 00 00 00 00 00 00 00 00 00 00 00 00 00 00 00
       0.0 0.0 0.0 0.0
000030 00 00 00 00 00 00 00 00 00 00 00 00 00 00 00 00
       0.0 0.0 0.0 0.0
000040 f5 96 02 39 7e 9b cc 36 c6 24 7e 39 4a 48 01 3a
       0.00012454002 6.0977754e-06 0.00024237027 0.00049317314
000050 c8 a3 d1 38 3d 7d c5 39 81 41 17 37 e1 54 2e 39
       9.996403e-05 0.00037668078 9.015553e-06 0.00016625553
000060 d7 12 15 38 0b 8f 01 36 f5 9a 93 38 75 a0 10 39
       3.5541914e-05 1.930576e-06 7.038369e-05 0.00013792685
000070 10 8f e0 37 2d 71 e1 38 87 d6 28 36 2e 05 60 38
       2.67695e-05 0.00010749917 2.5158822e-06 5.3410586e-05
000080 f7 9c 8c 38 01 2f 45 36 80 f7 15 39 6f 16 8e 39
       6.704957e-05 2.9382647e-06 0.00014301948 0.00027101065
000090 66 c7 63 38 c6 a5 54 39 d3 67 cb 36 02 c3 c9 38
       5.430672e-05 0.00020279651 6.061958e-06 9.62075e-05
0000a0 7a f8 a5 38 5b 34 02 37 4f a6 2b 39 d0 27 a9 39
       7.9140955e-05 7.760794e-06 0.00016369786 0.00032263855
0000b0 5b 29 61 38 cb fe 7a 39 db 47 50 37 38 68 3d 39
       5.3682696e-05 0.00023936776 1.2414496e-05 0.00018063269
0000c0 3c 41 c4 38 dc f4 93 36 d2 48 4a 39 50 d6 c5 39
       9.358159e-05 4.409447e-06 0.00019291349 0.00037734443
0000d0 84 20 a3 38 8f 65 94 39 ed 87 0a 37 61 56 0d 39
       7.778502e-05 0.00028304427 8.257089e-06 0.00013478987
0000e0 36 08 e2 38 b9 ec b1 36 35 d2 6a 39 ae 9b e2 39
       0.00010778049 5.302569e-06 0.00022394287 0.0004322207
0000f0 2c c0 b3 38 ae e9 aa 39 e5 ab 19 37 94 54 2a 39
       8.57118e-05 0.00032599032 9.159533e-06 0.00016243971
000100 d5 7d 1e 36 f8 d0 6f 34 b3 f6 14 35 f1 63 05 37
       2.3617079e-06 2.2334632e-07 5.549329e-07 7.950687e-06
000110 ea b2 f4 35 43 af ef 36 23 be 33 33 21 14 ad 35
       1.8231488e-06 7.143158e-06 4.1849614e-08 1.2895363e-06
000120 88 0b 03 38 4a 9d ae 35 d1 b6 92 38 9f 4d 08 39
       3.1243573e-05 1.3009787e-06 6.995875e-05 0.00012998887
000130 6d b6 ca 37 85 2d c6 38 5f bc 75 36 3f 93 5c 38
       2.4165225e-05 9.4498544e-05 3.6617491e-06 5.258922e-05
000140 6d 26 08 38 e0 97 8f 36 1b 64 2c 38 16 b6 f1 38
       3.2460714e-05 4.2794127e-06 4.1101226e-05 0.00011525692
000150 71 7d ba 37 df e5 cd 38 3b 39 ef 35 cd 8c da 37
       2.2231341e-05 9.8179786e-05 1.7823544e-06 2.605319e-05
000160 a7 8e f4 37 73 37 6c 36 69 bf 20 38 54 ce d0 38
       2.9153494e-05 3.5199016e-06 3.8325237e-05 9.9566445e-05
000170 37 ed 5c 37 92 eb b8 38 36 4d d9 35 69 0c 0f 38
       1.3168253e-05 8.817682e-05 1.6190231e-06 3.4105415e-05
000180 00 00 00 00 00 00 00 00 00 00 00 00 00 00 00 00
       0.0 0.0 0.0 0.0
000190 00 00 00 00 00 00 00 00 00 00 00 00 00 00 00 00
       0.0 0.0 0.0 0.0
0001a0 00 00 00 00 00 00 00 00 00 00 00 00 00 00 00 00
       0.0 0.0 0.0 0.0
0001b0 00 00 00 00 00 00 00 00 00 00 00 00 00 00 00 00
       0.0 0.0 0.0 0.0
0001c0 00 00 00 00 00 00 00 00 00 00 00 00 00 00 00 00
       0.0 0.0 0.0 0.0
0001d0 00 00 00 00 00 00 00 00 00 00 00 00 00 00 00 00
       0.0 0.0 0.0 0.0
0001e0 32 46 f9 37 68 74 bc 35 f9 ad 92 38 f1 86 fc 38
       2.97158e-05 1.404097e-06 6.9942274e-05 0.00012041431
0001f0 5e 9d c0 37 b6 7c bc 38 81 6c 5c 36 71 ce 54 38
       2.2961463e-05 8.987768e-05 3.2845712e-06 5.0737002e-05
000200 d7 d0 7c 38 6c 56 8e 36 1e 10 fe 38 65 76 72 39
       6.027598e-05 4.2419906e-06 0.00012114666 0.00023123024
000210 85 50 36 38 3d 2a 3f 39 e2 2f a9 36 43 48 be 38
       4.346717e-05 0.00018230914 5.042167e-06 9.073366e-05
000220 09 f1 12 38 70 05 17 36 7c 92 89 38 f1 a0 08 39
       3.5033594e-05 2.2503918e-06 6.559954e-05 0.00013029926
000230 5f 63 dd 37 c8 37 de 38 41 a0 02 36 1e 3a 3a 38
       2.6391526e-05 0.00010596175 1.946479e-06 4.439998e-05
000240 bd be fa 37 68 b0 27 36 1b 70 7c 38 30 e6 fb 38
       2.9891142e-05 2.4987621e-06 6.018589e-05 0.000120114884
000250 ee 91 cd 37 6a 99 bd 38 56 67 8f 36 a4 78 59 38
       2.4505858e-05 9.040798e-05 4.273762e-06 5.1849187e-05
000260 00 00 00 00 00 00 00 00 00 00 00 00 00 00 00 00
       0.0 0.0 0.0 0.0
000270 00 00 00 00 00 00 00 00 00 00 00 00 00 00 00 00
       0.0 0.0 0.0 0.0
000280 4a 41 39 38 60 7e 13 36 dd a5 ba 38 b8 78 39 39
       4.4168242e-05 2.1978267e-06 8.9000656e-05 0.00017687946
000290 d9 ea 17 38 59 14 0c 39 1e fd 7e 36 24 f8 8f 38
       3.6219924e-05 0.0001335902 3.7996283e-06 6.864991e-05
0002a0 fd da 97 37 d6 01 f3 35 4a f7 27 38 0b ea a0 38
       1.8102577e-05 1.8105445e-06 4.004621e-05 7.6729884e-05
0002b0 ab 1a 39 37 1d a6 65 38 e6 94 7a 36 82 d6 43 38
       1.1033068e-05 5.475256e-05 3.7339573e-06 4.66914e-05
0002c0 dc f4 17 37 66 54 33 35 c9 f9 73 37 ca 19 07 38
       9.057312e-06 6.680551e-07 1.4542086e-05 3.2210526e-05
0002d0 b1 8a e0 36 47 cd e5 37 4d 7d b9 34 00 a0 1e 37
       6.691866e-06 2.7394517e-05 3.4550104e-07 9.454787e-06
0002e0 20 dc 55 35 41 5b 03 34 00 00 00 00 79 d8 2c 36
       7.966901e-07 1.2233524e-07 0.0 2.5756e-06
0002f0 99 f8 04 35 78 b5 21 36 2b 1b 95 31 fb 63 fd 34
       4.953559e-07 2.4096498e-06 4.3395594e-09 4.7197668e-07
000300 e6 dc 25 38 58 f3 0e 36 99 9b a1 38 e2 db 22 39
       3.9544793e-05 2.1301294e-06 7.7060606e-05 0.00015531437
000310 8b 53 04 38 00 d5 fa 38 ac 04 59 36 d6 f3 7b 38
       3.1549058e-05 0.00011960603 3.233824e-06 6.0070153e-05
000320 dd f1 9d 38 45 de 92 36 bd 8c 12 39 5e 71 9b 39
       7.531394e-05 4.3770146e-06 0.00013976074 0.0002964837
000330 48 e9 6c 38 96 db 6e 39 1b 4f d6 36 aa f7 e7 38
       5.6484045e-05 0.00022779251 6.386906e-06 0.000110610694
000340 00 00 00 00 00 00 00 00 00 00 00 00 00 00 00 00
       0.0 0.0 0.0 0.0
000350 00 00 00 00 00 00 00 00 00 00 00 00 00 00 00 00
       0.0 0.0 0.0 0.0
000360 46 6b a1 38 e0 5a 7a 36 91 05 2b 39 ab 1d a0 39
       7.6970595e-05 3.73058e-06 0.00016309904 0.00030539682
000370 10 ec 83 38 a7 1c 74 39 b3 9c dd 36 45 7c f1 38
       6.290537e-05 0.00023280327 6.6045554e-06 0.000115149225
000380 c8 db 86 38 fc c3 40 36 46 4b 14 39 ba 0a 8a 39
       6.4305554e-05 2.8724307e-06 0.00014142421 0.00026329403
000390 a4 e0 4f 38 e7 f1 4b 39 9d c6 d5 36 ee 4a e8 38
       4.956186e-05 0.00019449704 6.3710163e-06 0.00011076579
0003a0 b9 c3 44 38 3e ad 50 36 6e 5e d2 38 89 5a 3d 39
       4.6912322e-05 3.1095256e-06 0.00010031169 0.00018058172
0003b0 a2 51 0d 38 4d c8 14 39 8b 08 81 36 5a 0b bd 38
       3.3693046e-05 0.00014188998 3.845494e-06 9.014337e-05
0003c0 e0 d0 a6 37 90 e9 74 35 1e 27 24 38 df c7 a9 38
       1.9886007e-05 9.123696e-07 3.9137078e-05 8.095777e-05
0003d0 8f f7 ab 37 10 46 7c 38 e7 8c 05 36 fc 34 1a 38
       2.0500067e-05 6.0146733e-05 1.990056e-06 3.6765807e-05
0003e0 26 77 18 37 93 8d 80 35 f2 ec 3f 37 f6 8c 01 38
       9.087647e-06 9.577947e-07 1.1439655e-05 3.0887277e-05
0003f0 78 a0 c2 36 4f 92 e6 37 3b d1 9e 34 ff ca ed 36
       5.8003316e-06 2.7486267e-05 2.9582029e-07 7.0867823e-06

exp_avg f4 [64]
000000 6c 88 6e 30 00 00 00 00 ad 26 76 b9 03 45 0c b9
       8.677776e-10 0.0 -0.00023474796 -0.0001337715
000010 b9 93 40 b9 b2 bf 14 b9 94 b9 5a b9 9b 3c 6e b9
       -0.00018365578 -0.00014185792 -0.00020859233 -0.00022720026
000020 4b 62 61 b8 e7 0c 80 b9 7e c8 6c b8 f3 10 d3 b8
       -5.3735723e-05 -0.00024423675 -5.6453508e-05 -0.00010064421
000030 00 00 00 00 00 00 00 00 00 00 00 00 e5 26 00 b9
       0.0 0.0 0.0 -0.0001222152
000040 06 13 3f b9 ec 5a d4 b8 12 42 cc b8 00 00 00 00
       -0.00018222266 -0.00010125883 -9.7397846e-05 0.0
000050 cc ab 2c b9 4f 4e ec b7 d6 b1 62 b8 2a 6e 4b b7
       -0.00016467198 -2.8169858e-05 -5.404822e-05 -1.21253925e-05
000060 0f 4a 01 b9 83 e5 66 b9 00 00 00 00 10 24 3a b9
       -0.00012329988 -0.00022020009 0.0 -0.00017751777
000070 c7 92 3b b9 44 58 13 b9 fc af 06 b9 ba 71 e1 b8
       -0.00017888389 -0.00014051894 -0.00012844795 -0.00010750019
000080 25 87 9a b8 00 00 00 00 c9 64 7d b9 51 0a a9 b8
       -7.368465e-05 0.0 -0.00024165506 -8.0604696e-05
000090 7d 64 11 b9 00 00 00 00 b8 41 26 b9 00 00 00 00
       -0.00013865712 0.0 -0.00015855476 0.0
0000a0 00 00 00 00 a3 a8 3a b9 18 f5 bf b8 00 00 00 00
       0.0 -0.00017801164 -9.153242e-05 0.0
0000b0 00 00 00 00 83 90 e7 b8 00 00 00 00 9f 0c 5c b8
       0.0 -0.00011041856 0.0 -5.246384e-05
0000c0 64 6d f3 b5 7e 55 2a b9 b7 ab 23 b9 cd 8f 2a b9
       -1.8136748e-06 -0.00016244312 -0.0001560886 -0.00016266033
0000d0 60 59 48 b9 1d ec de b8 d3 ba cf b8 00 00 00 00
       -0.00019106781 -0.000106297644 -9.905328e-05 0.0
0000e0 00 00 00 00 1f d2 60 b9 cb 5e 55 b7 00 00 00 00
       0.0 -0.00021440581 -1.271786e-05 0.0
0000f0 00 00 00 00 b6 75 45 b9 d1 8a e8 b8 d3 a0 28 b9
       0.0 -0.00018831235 -0.00011088479 -0.0001608164

exp_avg_sq f4 [64]
000000 d4 02 5c 37 00 00 00 00 49 48 01 3a 76 a0 10 39
       1.311368e-05 0.0 0.0004931731 0.00013792687
000010 6f 16 8e 39 cf 27 a9 39 51 d6 c5 39 b0 9b e2 39
       0.00027101065 0.00032263852 0.00037734446 0.00043222075
000020 f1 63 05 37 9f 4d 08 39 13 b6 f1 38 54 ce d0 38
       7.950687e-06 0.00012998887 0.000115256895 9.9566445e-05
000030 00 00 00 00 00 00 00 00 00 00 00 00 f3 86 fc 38
       0.0 0.0 0.0 0.00012041433
000040 66 76 72 39 f2 a0 08 39 30 e6 fb 38 00 00 00 00
       0.00023123025 0.00013029928 0.000120114884 0.0
000050 b5 78 39 39 0c ea a0 38 c8 19 07 38 7b d8 2c 36
       0.00017687942 7.672989e-05 3.221052e-05 2.5756005e-06
000060 e2 db 22 39 5d 71 9b 39 00 00 00 00 aa 1d a0 39
       0.00015531437 0.00029648366 0.0 0.0003053968
000070 ba 0a 8a 39 8a 5a 3d 39 e1 c7 a9 38 f7 8c 01 38
       0.00026329403 0.00018058173 8.095778e-05 3.088728e-05
000080 f4 99 61 38 00 00 00 00 bb cc ae 39 63 f8 bc 38
       5.378756e-05 0.0 0.00033340402 9.010804e-05
000090 3c fc 8f 38 00 00 00 00 f2 48 75 39 00 00 00 00
       6.865754e-05 0.0 0.00023392195 0.0
0000a0 00 00 00 00 2b cd bf 39 04 5d 1f 39 00 00 00 00
       0.0 0.0003658322 0.00015198073 0.0
0000b0 00 00 00 00 40 26 1d 39 00 00 00 00 be 0b b0 38
       0.0 0.00014986936 0.0 8.394521e-05
0000c0 d5 55 0a 38 97 0f 5c 39 7d 24 74 39 16 0a ca 38
       3.29817e-05 0.00020986643 0.00023283246 9.633989e-05
0000d0 bf 63 93 39 97 23 04 39 5a f8 22 39 00 00 00 00
       0.00028112342 0.00012601759 0.00015542042 0.0
0000e0 00 00 00 00 ae 41 62 39 29 c0 a8 36 00 00 00 00
       0.0 0.00021577507 5.0291605e-06 0.0
0000f0 00 00 00 00 3a 49 33 39 2f 52 83 39 56 7d bd 39
       0.0 0.0001709805 0.000250475 0.00036142272

exp_avg f4 [64, 64]
000000 00 00 00 00 00 00 00 00 da e2 89 2d 7e 16 04 2e
       0.0 0.0 1.5675839e-11 3.0033302e-11
000010 21 e5 26 2d c6 30 3f 2d 2a 33 01 2e 3c 03 0b 2e
       9.486884e-12 1.0867923e-11 2.9376647e-11 3.1607814e-11
000020 22 22 64 2b 57 a6 d1 2b f4 fd 9c 2d 7d 53 9b 2d
       8.104924e-13 1.4896512e-12 1.7847925e-11 1.7658536e-11
000030 00 00 00 00 00 00 00 00 00 00 00 00 b8 e3 96 2b
       0.0 0.0 0.0 1.0721346e-12
000040 43 7a 8c 2d 67 3c 23 2d f6 8c 20 2e 00 00 00 00
       1.5970452e-11 9.278889e-12 3.6504987e-11 0.0
000050 2c a9 df 2d b8 ba f9 2d 07 12 5e 2d 00 00 00 00
       2.5427292e-11 2.8390942e-11 1.2623242e-11 0.0
000060 ad ec 16 2e 73 e8 c3 2c 00 00 00 00 be 19 b7 2c
       3.431626e-11 5.5680404e-12 0.0 5.2040308e-12
000070 29 7a 67 2d f1 59 0d 2e dd 34 50 2d 00 00 00 00
       1.3157955e-11 3.2139572e-11 1.1835169e-11 0.0
000080 00 00 00 00 00 00 00 00 8d a7 ed 2c 12 cc ce 2b
       0.0 0.0 6.754547e-12 1.4693821e-12
000090 e4 7b 4d 2d 00 00 00 00 61 51 7b 2d 00 00 00 00
       1.168041e-11 0.0 1.4285768e-11 0.0
0000a0 00 00 00 00 f9 ea 02 2e 5e 28 4a 2d 00 00 00 00
       0.0 2.9767275e-11 1.1491334e-11 0.0
0000b0 00 00 00 00 78 9d e3 2d 00 00 00 00 89 f1 6f 2d
       0.0 2.5876842e-11 0.0 1.3639209e-11
0000c0 00 00 00 00 9e 55 c3 2d 92 0d a1 2d 50 e0 02 2d
       0.0 2.2206955e-11 1.8309607e-11 7.439452e-12
0000d0 ac fd 72 2d dd b9 b1 2c b4 e9 0b 2e 00 00 00 00
       1.3812434e-11 5.0512775e-12 3.181251e-11 0.0
0000e0 00 00 00 00 00 00 00 00 00 00 00 00 00 00 00 00
       0.0 0.0 0.0 0.0
0000f0 00 00 00 00 93 55 01 2e 8f 79 08 2e 10 a3 05 2e
       0.0 2.940721e-11 3.1030786e-11 3.0385527e-11
000100 03 5d 59 ab 00 00 00 00 83 06 06 2d 5a fa af 2d
       -7.7222967e-13 0.0 7.618464e-12 2.0006375e-11
000110 d9 db a1 2b f7 d4 3e 2c ca 34 c6 2d f0 02 cf 2b
       1.1500758e-12 2.7118843e-12 2.2533437e-11 1.470905e-12
000120 28 e7 64 a8 c8 e9 9c 2b 8f aa 50 2c bd cb 32 aa
       -1.27066665e-14 1.1149354e-12 2.9653257e-12 -1.5880262e-13
000130 00 00 00 00 00 00 00 00 00 00 00 00 13 b3 1c 2c
       0.0 0.0 0.0 2.226834e-12
000140 df d6 26 2d 80 17 cc 2d d8 a7 e2 2d 00 00 00 00
       9.4837185e-12 2.3202551e-11 2.5767763e-11 0.0
000150 bc 07 59 2b dd 48 85 2d 9c dd ad 2d 00 00 00 00
       7.710462e-13 1.5152707e-11 1.9766237e-11 0.0
000160 da 06 03 2e 05 6d f4 2b 00 00 00 00 42 b6 36 2d
       2.9792037e-11 1.7367502e-12 0.0 1.0385972e-11
000170 80 bd a3 2c d7 40 a7 2d f4 b9 52 2b 40 51 64 2c
       4.6537774e-12 1.9014497e-11 7.486505e-13 3.2445852e-12
000180 34 6d 74 2c 00 00 00 00 80 2c 4e 2c 88 dc d6 2d
       3.4735105e-12 0.0 2.9299063e-12 2.4426919e-11
000190 00 00 00 00 00 00 00 00 8e 95 6a 2c 00 00 00 00
       0.0 0.0 3.333642e-12 0.0
0001a0 00 00 00 00 34 b3 0c 2e f9 7a be aa 00 00 00 00
       0.0 3.199148e-11 -3.383611e-13 0.0
0001b0 00 00 00 00 04 5b a1 2c 00 00 00 00 2c 30 b1 2d
       0.0 4.586e-12 0.0 2.0143963e-11
0001c0 80 6d 2c 2c 36 bb 58 2d 40 1f 4b 2d eb 6f f6 2b
       2.4503455e-12 1.2319748e-11 1.1546153e-11 1.7510415e-12
0001d0 07 5a 29 2d e2 c9 e5 2b b2 3e 02 2d 00 00 00 00
       9.626528e-12 1.6327462e-12 7.403566e-12 0.0
0001e0 00 00 00 00 c6 aa a7 2c 88 2a 5d aa 00 00 00 00
       0.0 4.765385e-12 -1.9643499e-13 0.0
0001f0 00 00 00 00 d4 43 1d 2e 34 49 f4 2d c0 9a aa 2c
       0.0 3.575791e-11 2.7772097e-11 4.8488713e-12
000200 00 00 00 00 00 00 00 00 88 0b 3c b8 31 0a 81 b8
       0.0 0.0 -4.4833432e-05 -6.153098e-05
000210 bb 59 17 b8 b0 48 a8 b7 9d b8 88 b8 6f 94 80 b8
       -3.6084773e-05 -2.0061008e-05 -6.519372e-05 -6.1311635e-05
000220 6a a0 09 b7 40 aa 0d b8 1e 57 15 b8 7b aa 9f b7
       -8.203186e-06 -3.3775577e-05 -3.5605502e-05 -1.9033663e-05
000230 00 00 00 00 00 00 00 00 00 00 00 00 f0 a6 fc b7
       0.0 0.0 0.0 -3.0118477e-05
000240 d6 43 21 b8 f3 cc 02 b8 7a e2 82 b8 00 00 00 00
       -3.844857e-05 -3.118529e-05 -6.2410676e-05 0.0
000250 1e 19 4e b8 b1 b8 10 b8 ce 40 29 b8 c9 1f 03 b4
       -4.913762e-05 -3.4504283e-05 -4.0353094e-05 -1.2211889e-07
000260 90 5a 92 b8 1b 19 10 b8 00 00 00 00 b6 59 1e b8
       -6.978691e-05 -3.4355657e-05 0.0 -3.7753685e-05
000270 af 5a 3a b8 90 ae 7a b8 47 68 19 b8 c4 68 97 b7
       -4.443031e-05 -5.976722e-05 -3.657516e-05 -1.8049388e-05
000280 af a1 f4 b6 00 00 00 00 d1 f4 15 b8 b5 0f f3 b7
       -7.290589e-06 0.0 -3.575237e-05 -2.8975172e-05
000290 2d 45 32 b8 00 00 00 00 86 5c 26 b8 00 00 00 00
       -4.2502932e-05 0.0 -3.9663653e-05 0.0
0002a0 00 00 00 00 d4 c6 97 b8 68 8f 0a b8 00 00 00 00
       0.0 -7.237276e-05 -3.303532e-05 0.0
0002b0 00 00 00 00 c2 da 44 b8 00 00 00 00 cf 64 ad b7
       0.0 -4.6933776e-05 0.0 -2.067015e-05
0002c0 6b 27 f4 b3 60 2f 56 b8 76 30 5a b8 59 40 02 b8
       -1.13693055e-07 -5.1065697e-05 -5.2020383e-05 -3.1054344e-05
0002d0 73 13 6a b8 af 49 cd b7 37 69 80 b8 00 00 00 00
       -5.580806e-05 -2.4472216e-05 -6.1231134e-05 0.0
0002e0 00 00 00 00 30 a1 ed b7 94 39 35 b5 00 00 00 00
       0.0 -2.832766e-05 -6.751154e-07 0.0
0002f0 00 00 00 00 48 7b 9e b8 c5 e2 68 b8 a4 41 63 b8
       0.0 -7.55699e-05 -5.5524306e-05 -5.418215e-05
000300 00 00 00 00 00 00 00 00 5d bf 7d b8 63 7b a9 b8
       0.0 0.0 -6.049812e-05 -8.0815305e-05
000310 ef 36 4c b8 3e 27 e3 b7 70 aa b1 b8 8a 38 a9 b8
       -4.868855e-05 -2.7078782e-05 -8.471764e-05 -8.069079e-05
000320 5e a2 35 b7 e2 69 42 b8 58 6b 41 b8 2c 56 cf b7
       -1.0826245e-05 -4.6351815e-05 -4.6114757e-05 -2.471645e-05
000330 00 00 00 00 00 00 00 00 00 00 00 00 4f de 2b b8
       0.0 0.0 0.0 -4.0976618e-05
000340 12 14 5b b8 ce bc 31 b8 0a 4a aa b8 00 00 00 00
       -5.223236e-05 -4.2375927e-05 -8.1200225e-05 0.0
000350 9d 2f 89 b8 27 0d 3c b8 e2 10 60 b8 e5 2b f3 b3
       -6.541538e-05 -4.4834942e-05 -5.3421485e-05 -1.1323554e-07
000360 c3 47 bd b8 be c4 3c b8 00 00 00 00 8f 75 57 b8
       -9.025589e-05 -4.5005923e-05 0.0 -5.136948e-05
000370 dc 40 78 b8 0d c9 9f b8 2a d1 4d b8 0d 0f ce b7
       -5.9188213e-05 -7.6191594e-05 -4.9070608e-05 -2.4564122e-05
000380 3c 0f 2e b7 00 00 00 00 3c ba 48 b8 8e b4 27 b8
       -1.0374755e-05 0.0 -4.785716e-05 -3.9984057e-05
000390 be 9a 70 b8 00 00 00 00 6d 82 5f b8 00 00 00 00
       -5.7364574e-05 0.0 -5.328881e-05 0.0
0003a0 00 00 00 00 ff 14 c8 b8 8c 20 35 b8 00 00 00 00
       0.0 -9.540654e-05 -4.3184074e-05 0.0
0003b0 00 00 00 00 f3 50 7a b8 00 00 00 00 2e 47 d9 b7
       0.0 -5.9680035e-05 0.0 -2.5901561e-05
0003c0 3a 38 d2 b3 37 f2 8e b8 fb b5 90 b8 ff 14 31 b8
       -9.7891146e-08 -6.816204e-05 -6.9003516e-05 -4.2219643e-05
0003d0 ab d4 9b b8 87 79 0e b8 72 21 a6 b8 00 00 00 00
       -7.4305884e-05 -3.396862e-05 -7.9217265e-05 0.0
0003e0 00 00 00 00 60 37 26 b8 e0 fd 27 b5 00 00 00 00
       0.0 -3.9629056e-05 -6.2581785e-07 0.0
0003f0 00 00 00 00 a7 67 d1 b8 79 ca 96 b8 f3 3a 96 b8
       0.0 -9.985203e-05 -7.190271e-05 -7.1635375e-05
